examples/hello-world/ml-to-fl/pt/client_api_workspace/site-1/cifar_net_stochastic.pth (torch, 251886 bytes, 10 tensors)

conv1.weight f4 [6, 3, 5, 5]
00000000: 02e8 edbe 48c5 a73d f90b 453e 6c52 f3bc
00000010: 4d48 2b3e 29a9 5b3d fd62 453e 7aef 9dbe
00000020: 272f 15bf 59dc 92bc 7ef5 653e 3215 233c
00000030: 8d9b babe 610f d2be 9b7c a23e c926 4c3e
00000040: ecb0 c8bd 4a5a d1bd b5ff 96bd 3aba 743e
00000050: 67fc 0ebe 9cee 133e f21b a3bd aa27 703d
00000060: 3a56 cb3e ccf4 d5be 7002 8e3e 3729 c33e
00000070: 21d3 133e da6a 433e e1e0 b53d 2b84 a73e
00000080: 11e9 ce3d a786 cbbe c19b 84be cc51 a23e
00000090: 9213 d13e 3097 dabd f690 8cbe 7b59 b2bc
000000a0: 34d9 d73e 3aca 693e cb06 2e3d 7af9 f0bd
000000b0: 4ba2 acbe dff7 013e 669d 623e c876 a5be
000000c0: dc9f 80be 5175 97be afac 853c 8d33 153f
000000d0: 0b30 533f 05fd 0d3f 4fe5 c33e baa8 b5bd
000000e0: 9979 113f 2786 1e3e 6bb6 203e 8a23 033d
000000f0: bd1d 6d3e 04df cf3e b1f9 d73d f34e 593d
00000100: 4400 87be 7ee6 6a3e 9370 9a3e 6d8b 053e
00000110: 1a88 6abd 0935 0cbf 64f7 393e f916 c83e
00000120: c0b7 42be 5247 8bbe fbfd 0dbf 02d7 d0be
00000130: 5710 13bf 4333 3fbf 910c 82bf 7adf 80bf
00000140: dc06 403d 8027 63be 10d9 233d 6c04 4c3f
00000150: 7ff1 4e3f 019b 52be c02b 0f3e 7325 483f
00000160: be84 3d3f 06f1 493f e244 5b3e 21a8 233f
00000170: 4e0f 1b3f 537a 9a3e f16f 233f 4bcc e73e
00000180: 7ba6 f13e facc e63d 7715 403d 2f4a 5d3e
00000190: 5269 8e3e 1ab8 173e fbcc 80be 9167 42bf
000001a0: a2bb 77be 80dd 97be d602 20bf 5fd9 09bf
000001b0: bd54 eb3e 2eef 6d3e 3662 81bf 0863 d7be
000001c0: e996 203e 92b9 253e 5382 093d 4b88 43bf
000001d0: b7fe a6be 1248 073e 1ac7 92bd 5f8e e5bd
000001e0: 14f6 29bf 7d2d d9be 1f80 a7be 5b01 89be
000001f0: 639a 893c 1a7a 8a3e 3e82 d43e de68 fe3e
00000200: b473 cc3e 79f1 b53e cdd9 b2be 2ff3 2cbf
00000210: 67cb 60be 0d6a 543f ee55 d93d 439b 67bf
00000220: d6d9 70be 726d 683e 0d41 963e 9af4 d0bd
00000230: f39f 18be e13e a63e 6cf7 f13e bd3a 56bb
00000240: f151 2fbe 2179 b53e 3acc c53e f162 353e
00000250: c601 f33c 50a9 d43d 28c7 893d ef26 c23e
00000260: 2cdd 41bf b307 1fbf c20b a93e 6153 45be
00000270: 875a df3f a974 f13f d0ef 843f 9e67 5d3e
00000280: 9210 2dbf 4e32 d4be e583 db3d 2387 1c3f
00000290: 52a4 8fbe 7537 aabe 942a c0bf 34a8 e2bf
000002a0: 6114 24bf 493f afbd 18a7 4fbd fc96 983e
000002b0: 453c 8e3e 8e66 01be db7b a43d 4a10 dd3e
000002c0: 1f41 3a3d 51ff 86bf 4449 50bf d15a 8e3e
000002d0: 8578 513d 9eb3 e53f 1a20 1540 5e80 853f
000002e0: d512 d8bb cb6a cbbe cae8 fabe 0dce 4c3e
000002f0: cd6c 583e a8bf 5fbf 4049 a73d bd5b d7bf
00000300: 0467 06c0 e0fb 3bbf f7a5 50bb 39e7 c9bc
00000310: edbf 973e f569 043e 6e31 47bd f8a8 583e
00000320: 77f2 52bd 9a5d 2bbf c468 a6bf 93e2 48bf
00000330: c8a4 c03e e6eb bebe 70b4 2a3f caca 963f
00000340: e5c6 db3e 722f 0a3e e424 31be c4dd 80be
00000350: 88fe e53e a0ab 8b3d ff28 29bf acde 433f
00000360: 4249 b3be 6705 31bf a314 3fbe b963 843e
00000370: f0a3 283e 9d3b ef3e 9f21 233f c8a6 473d
00000380: b0a6 8d3e 6b0a 4a3f 70c6 18bd be29 a93e
00000390: cfb7 72be 6f91 583f 5c53 7ebe b50f f7be
000003a0: d915 35be 45ad d4be 666f c53e 9805 c6bd
000003b0: b6c0 17bf b380 efbe 5c30 c6be e147 6e3d
000003c0: 2f16 7cbe 666f 4abf 4e7f 2cbf a11f 0cbf
000003d0: 5989 e5be 4db1 afbe dc07 76bf 420e 15bf
000003e0: 82b4 b1be 07d1 b5be 0378 e63c ea53 98be
000003f0: 781e a43e cb9b 8abc 7438 903e 1399 18be
-0.4646607 0.08191925 0.19242848 -0.029702388 0.167268 0.05362812 0.19276042 -0.3084677
-0.58275074 -0.017927336 0.22456929 0.009953784 -0.364468 -0.41027358 0.3173569 0.1993667
-0.0979937 -0.102222994 -0.07372991 0.23899165 -0.13963471 0.14446491 -0.079643145 0.058631577
0.39714223 -0.41788328 0.27736235 0.38117382 0.14436008 0.1908373 0.08880783 0.32718024
0.10103048 -0.3975117 -0.2590008 0.3170303 0.40835243 -0.10673368 -0.27454346 -0.021771183
0.421579 0.2283105 0.042486947 -0.11766334 -0.3371757 0.12692212 0.22130355 -0.32317185
-0.25121963 -0.29581693 0.016317694 0.58281785 0.8249518 0.554642 0.38260886 -0.08870073
0.5682617 0.15480863 0.15694587 0.032016315 0.23155876 0.40599835 0.10545672 0.053053807
-0.2636739 0.22939488 0.30164012 0.13041468 -0.057258703 -0.54768425 0.18160778 0.39080027
-0.19015408 -0.2720285 -0.5546567 -0.40789038 -0.5744681 -0.74687594 -1.0160085 -1.00682
0.04688154 -0.22183037 0.04000193 0.7969425 0.80837244 -0.20566942 0.13981533 0.7818214
0.74030674 0.788834 0.21412995 0.6392842 0.6057023 0.3017145 0.63842684 0.4527305
0.47197327 0.11269565 0.04689547 0.2161033 0.27814728 0.14816323 -0.25156388 -0.7593928
-0.2419267 -0.2966118 -0.6250433 -0.53847307 0.45963088 0.23235771 -1.0108097 -0.42067742
0.15682568 0.1618407 0.033571552 -0.7637984 -0.32616207 0.13211086 -0.07166882 -0.11208796
-0.6639111 -0.42417517 -0.32714936 -0.26758847 0.01679725 0.2704628 0.41505617 0.49689382
0.39932024 0.35535792 -0.34931794 -0.6755857 -0.21952592 0.8297432 0.10612093 -0.90471286
-0.23520598 0.22698 0.29346505 -0.10202904 -0.14904766 0.32469848 0.4725908 -0.003268882
-0.17121102 0.35443977 0.38632375 0.17713524 0.029663932 0.10383856 0.06727439 0.3792033
-0.75728106 -0.62121123 0.33016783 -0.19270088 1.7449502 1.8863727 1.0385685 0.21621558
-0.6760341 -0.4144463 0.10718516 0.611437 -0.28055054 -0.33245435 -1.5012994 -1.7707582
-0.64093596 -0.085569926 -0.050696462 0.29802692 0.27780357 -0.12636778 0.08031436 0.4317649
0.04547226 -1.0546666 -0.81361794 0.27803662 0.051140327 1.794544 2.3300843 1.04298
-0.006594042 -0.39729914 -0.4900573 0.20000477 0.21135254 -0.8740182 0.08168268 -1.6824871
-2.1000376 -0.73431206 -0.0031837204 -0.024646388 0.29638615 0.12931044 -0.048631124 0.21158206
-0.051500764 -0.669397 -1.3000722 -0.78470725 0.37625718 -0.3728935 0.66681576 1.1780636
0.42925182 0.13494661 -0.17299229 -0.25169194 0.44920754 0.06819844 -0.6607818 0.76511645
-0.3501683 -0.6914887 -0.18660216 0.25857332 0.16468787 0.4672517 0.63723177 0.04874304
0.27666235 0.78922147 -0.03729862 0.3303966 -0.2370293 0.84596914 -0.24836487 -0.4825417
-0.17684115 -0.41538444 0.38561553 -0.09669036 -0.5927843 -0.46777877 -0.3870877 0.058174018
-0.24617837 -0.7907623 -0.6738175 -0.5473576 -0.4483135 -0.34314957 -0.9610574 -0.5822488
-0.3470803 -0.35511038 0.028133398 -0.2975152 0.32054496 -0.016919991 0.2816807 -0.14902143

conv1.bias f4 [6]
00000000: b6e1 30bf 4ab1 d4be 3eed b3bf cfc8 ac3e
00000010: 6169 c7bf 91e4 59bf
-0.6909441 -0.4154151 -1.4056776 0.33746955 -1.5579034 -0.8511439

conv2.weight f4 [16, 6, 5, 5]
00000000: 5d35 3c3c b90b b63e c35d 58bc e8db 653e
00000010: b83d 03be d0c0 2cbe c6e7 8cbe 4f8f 19bf
00000020: 4cc2 763e 0038 8abe 5fc1 97be dab7 27be
00000030: 6439 0a3e 9b82 213d 6224 c73e 7c26 4b3e
00000040: 12bc e83e 632d 15bd ad72 b8be 2e2b 9abe
00000050: 7935 6ebe 29a6 753e f6d0 1bbf 449f 26bf
00000060: df67 803e d19a a93d 19cd 963e dbd2 863d
00000070: 401e b83e 3957 53be 3f71 9fbe 93da b13c
00000080: ac03 1fbe 22c9 b03e 48e1 093e 1f64 a2bd
00000090: 74a5 afbd 7815 d7be 41c0 043f b267 dd3d
000000a0: eee5 b63d 935a 5cbf c6f0 0fbf 1faf a43e
000000b0: 597b 3dbe 8af3 093f fa5d babe f0e2 62be
000000c0: a12a 973e 8ed6 2a3f 77e7 a83e 0a0b bf3d
000000d0: ee56 f5bc 0230 e93d 5fb4 af3d b1e4 eb3e
000000e0: 269a 7d3c 8f35 ae3e 0878 68be 6ee9 ebbd
000000f0: 815e 3e3e fb8a c83e a3ed 573e c09b dcbe
00000100: 63ec a7bf 9eaf 503e abbb 2b3f ef03 4a3e
00000110: cb2d 0bbf 829e b1bf 7680 3abe dd66 bc3e
00000120: 59c8 08bf efc6 a7be f298 fcbe 6c86 303f
00000130: 6468 39be 0180 24bb 6911 b53b 6f7f 05bf
00000140: 67f4 253e 3f4b 1cbd fc1b cb3c 5d15 bd3d
00000150: 853f c0be e072 47be 4a41 cb3e 8284 14be
00000160: e979 a5be 338a 5ebe eb3f bc3d f7bf bb3d
00000170: f43f f33e bb75 89bd 3747 e9be 64f0 a8be
00000180: c032 633c d76a d13e 321c bf3d 60e2 cbbe
00000190: 9378 cebe 2fd7 b2be a9e1 013f daee b13d
000001a0: c973 30bf a5aa 64be 6810 e73d d232 453e
000001b0: 5194 8fbd e3c9 3bbc 829e 1dbe f44d b0bd
000001c0: c08f dc3e 8e0c 9bbf 95e7 5e3f 6643 133e
000001d0: 36ca e3bd 462e 1fbe f1ab 54bf 8abb 803f
000001e0: 458a 1d3e cf9d 0ebd ac85 8e3d e205 dbbe
000001f0: d789 c53d ddee 4ebe 2a03 26bf 23aa 85be
00000200: e5a4 763d cbed 11be 7b24 48be 9799 c9be
00000210: 07ca 6ebe 3d0e 32be 3f4a 363f 2fa5 a7be
00000220: fd69 1bbf 5a5e f2bd f01d 9cbe 0780 9b3f
00000230: 1ecc 0e3e 2089 f7bd 0b66 403e c162 32be
00000240: 6ca6 123f 09ea 36be 65ec 253c 778e 583e
00000250: dc17 b73e deb2 093f 0018 f7be 5523 febe
00000260: 0fe0 05be 1676 9dbd 302f 4bbd 2ba5 45bc
00000270: ab9a 5fbe e9cf e73d b2de 89bd 9a30 44be
00000280: f1b9 ee3d fd33 0bbf 98d0 debd dbd3 9b3a
00000290: 8729 0dbe e864 3a3e cbfa 8dbe b321 8bbe
000002a0: cf6c ce3d cf25 2c3e fcf0 09bf 5db8 f8be
000002b0: bd21 90be 671c b63c 93f6 193f 7466 eebe
000002c0: 251c 303e 3dd1 663e bfbe 1d3e 621b 703e
000002d0: 2176 9c3d 3e5c fdbe 1e0f 7bbe 3cbb 0dbe
000002e0: c56d 87be e9f3 2ebf e4c2 2cbf 7233 71bf
000002f0: e17a 23be 81dc 233d 425b 473e 5068 0cbf
00000300: 5027 55bd 6bd1 37be d60f eebc 1c99 483d
00000310: d063 f13d 83ef b9bc 44fc 363d 1294 2a3e
00000320: 2b5e 133e d1b6 163f 689d ffbd 3754 f53d
00000330: a3c7 00bf 2226 503e 6b8d 7c3e 034a eb3e
00000340: 58a0 ae3d e6dd bdbe 4932 8d3e 9e12 ba3d
00000350: 2b29 2a3e 4251 643f fd99 14bf f6b8 713d
00000360: 93f2 50bf 41c6 abbe 4d87 8bbe 260d 5a3f
00000370: 4089 343f 4cbb 84be 09bc 933e 8136 0fbf
00000380: 6d6a 273f b2f7 bcbe 7cd3 cbbe 323c 01bf
00000390: e825 44be 4667 a13e 90a7 863e fcb8 3d3e
000003a0: 2ca7 853e 7108 963e 7e56 dfbe a317 363f
000003b0: 7085 bb3e d191 b63e aca8 053f fefc b8bc
000003c0: 6d7a af3e 2742 06bc a9ad aebd 41a5 173e
000003d0: bd1d f73d 9bd0 1e3e a574 6d3d 6c37 233e
000003e0: dee0 953d e4f3 80be 6ed3 8dbe dd3e d4be
000003f0: 4fa8 2bbf d228 adbe 624d 95be c07e 4f3c
0.011487332 0.3555582 -0.013205948 0.22447169 -0.12816513 -0.16870427 -0.2752058 -0.59984297
0.24097556 -0.2699585 -0.29639718 -0.16378728 0.13498455 0.039431196 0.38894945 0.198389
0.45455986 -0.036420237 -0.3602499 -0.30111068 -0.23262586 0.23989166 -0.60865724 -0.6508677
0.25079247 0.08281482 0.29453352 0.06583186 0.3596058 -0.20638742 -0.31141087 0.02171067
-0.15528744 0.34528452 0.13464844 -0.07929253 -0.085764796 -0.42008567 0.51855856 0.10810794
0.08930574 -0.86075705 -0.56226766 0.32164857 -0.18504085 0.53887236 -0.36399823 -0.22156882
0.2952471 0.66733634 0.32989094 0.093282774 -0.029948678 0.1138611 0.08579325 0.46072915
0.015478646 0.34025237 -0.22702038 -0.115191326 0.18590738 0.39168534 0.21086745 -0.43087578
-1.3119015 0.20379493 0.67083234 0.19728063 -0.5436675 -1.3876498 -0.18213066 0.36797228
-0.53430706 -0.32768962 -0.49335438 0.6895511 -0.18106228 -0.002510071 0.005525757 -0.52147573
0.16206513 -0.038157698 0.024793617 0.0923259 -0.37548462 -0.19477415 0.3969825 -0.14503673
-0.32319573 -0.21732406 0.09191879 0.09167474 0.4750973 -0.067119084 -0.45562145 -0.32995903
0.01386708 0.40901825 0.0933155 -0.39821148 -0.40326366 -0.34929797 0.50734955 0.086881354
-0.68926674 -0.2233072 0.11282426 0.19257668 -0.07010711 -0.011461708 -0.15392497 -0.086086184
0.43078423 -1.2113206 0.87072116 0.14381179 -0.11122553 -0.15544996 -0.8307486 1.0057232
0.15384777 -0.034818467 0.0695909 -0.42777926 0.096454315 -0.20208307 -0.6484858 -0.26106367
0.06021585 -0.14250867 -0.19545166 -0.39374992 -0.23319255 -0.17388244 0.7120704 -0.32743213
-0.607086 -0.118344024 -0.3049159 1.2148446 0.13945052 -0.120867014 0.18788926 -0.17420484
0.5728519 -0.17862715 0.010127162 0.21148096 0.3576039 0.53788555 -0.48260498 -0.4963633
-0.13073753 -0.07688539 -0.04960555 -0.012063305 -0.21836345 0.113189526 -0.06731929 -0.19159165
0.11656559 -0.543762 -0.1087963 0.0011888699 -0.13785373 0.18202555 -0.27730402 -0.27174148
0.10079347 0.16811298 -0.5388334 -0.48578158 -0.2815074 0.02223034 0.6014187 -0.4656254
0.17198236 0.22540756 0.15404795 0.23447946 0.07639719 -0.49484438 -0.24517485 -0.13840955
-0.26450935 -0.6834093 -0.6748488 -0.94219124 -0.15964843 0.04000521 0.19468406 -0.5484667
-0.052039444 -0.1795098 -0.029060286 0.04897414 0.11786616 -0.022697216 0.044674173 0.16658047
0.14391391 0.58872706 -0.12481195 0.11978953 -0.5030462 0.20327047 0.24663322 0.45954904
0.08526677 -0.37083358 0.27577427 0.09085582 0.16617267 0.8918649 -0.5804747 0.059014283
-0.8162014 -0.33549693 -0.27251664 0.8517631 0.70521927 -0.25924146 0.28854397 -0.5594254
0.6539677 -0.36907727 -0.39809787 -0.50482476 -0.19155085 0.31524104 0.26299715 0.18527597
0.26104105 0.29303315 -0.43620676 0.71129817 0.36625242 0.35658124 0.522105 -0.022581574
0.3427309 -0.008194483 -0.08529217 0.14809133 0.12066219 0.15509264 0.05797257 0.1593911
0.07318281 -0.25186074 -0.2770037 -0.4145421 -0.67053694 -0.33820206 -0.291606 0.012664497

conv2.bias f4 [16]
00000000: 5353 66c0 a5d9 e63f 35b4 3e3e 46e7 8fbf
00000010: e5d0 06c0 e481 3f40 2594 43bf 55ab 7cbf
00000020: 3f9d 8cbf 2b38 973d 8946 0b40 5279 6fbe
00000030: e2e4 1f40 48d0 b8bf 7504 3ec0 b346 a1bf
-3.5988357 1.803517 0.18623431 -1.1242454 -2.1065 2.992303 -0.76397926 -0.9869893
-1.0985488 0.0738376 2.1761801 -0.23386124 2.498345 -1.4438562 -2.969022 -1.2599701

fc1.weight f4 [120, 400]
00000000: 23d2 f33e 11c6 093e 93a9 493e e7d2 333e
00000010: 3f86 e23e 707c 1a3d 77f2 d23d 8822 083f
00000020: 5d3f 083e e718 d0bc bfb4 4dbd a391 963d
00000030: 2922 7ebd d6de a6be a562 1fbb 5dcc 6bbe
00000040: 5ba6 1cbe 393b 60be 5857 4c3e 8bda 553e
00000050: 0117 8cbe db97 303e 518d e93c 141b f83e
00000060: 2fde 5c3e 954f 7d3e f1e1 3e3e 4d28 e73d
00000070: 2d1a 51bc 3bb2 35be 16ad 633d d43c 0bbe
00000080: 5a4f 90bc cbdc a4be 2d2b 2bbf 5c61 513d
00000090: 19ad 7f3d c933 9abd 1edf febd 50ce d2be
000000a0: 8b71 10bf 50f4 5e3e 2f52 de3e f5fa 13be
000000b0: 1378 3dbf 50eb b53e a94f 78be 8a1b 543e
000000c0: cbe5 2c3e dfee cdbe 7466 b43e 0e5c fa3c
000000d0: b0bc 51be 013d ee3b c794 4e3e 260c 123f
000000e0: 912f 4cbe 392c 2bbc 0008 93be 9a0e 75be
000000f0: 3732 5fbe 48d9 96be 30cc fb3e 4a7e de3d
00000100: 27d4 6e3d 40d6 32bf c4b4 e7bc f7e9 5abd
00000110: 3e90 d23c c093 51be 7b44 45be f294 ca3e
00000120: 2e8b ea3d 728b 98bd 5996 c83d 1b52 0a3f
00000130: b6bb ff3d d0a0 50bd 5efb 29bd d11a 9cbd
00000140: 61f3 d03d 6fcc e8be efb4 eabe 465d 23be
00000150: b983 9bbe 72a5 903e f893 b73d 9c6b 23be
00000160: a90c b3be a381 263d 6063 323d 9bd7 b0be
00000170: bf80 34be dccd f63c 392d 92bd a27e cf3d
00000180: b46f debd 1aa4 06be 990f ad3c e6f9 d83e
00000190: af2c 003d 7b14 8ebe 5acf b13c 3b52 113d
000001a0: b1d4 bf3d 12f5 afbe ed8a 49be e6f1 cfbe
000001b0: d7be 20bc 6053 d9bd 033e b6be 062e c3be
000001c0: 785c a8be 9a49 ebbd 07d7 71be 5e5c 21be
000001d0: 9623 11be d0f5 5cbe e39e a8be dbfe 68bd
000001e0: 2470 ae3c 9493 8f3c 87e9 aabd 9dec 803e
000001f0: 166c 8ebd 3f7b 493d 3f19 39be fbee 5d3d
00000200: 1388 d0bd 1974 20be ba2b 6c3e 2a9f 06bb
00000210: c4e0 f5bd 65f5 a1bd 3265 14bd c41b b2bc
00000220: e42c 173e f07e 233e 0186 aebe 1cd3 ab3e
00000230: dbf9 df3d 6dcb 693d 4a8a 70be 4f47 b23d
00000240: ab45 5c3e 71ea 283c aa5c 29bf 8aa8 e4bd
00000250: acb0 873d 93e6 b63e 5f58 21be 5af2 8cbd
00000260: 031a 72bd 4377 083c a270 4d3e 74a5 a4bd
00000270: a9ee ddbd fa14 9d3e 5886 123d 3699 74be
00000280: db6d bc3d c68f f33d 9ce6 dcbd 413c b1bd
00000290: 9f0d 8bbe a8e8 243e 1d51 a73d d96d 733d
000002a0: 1442 d1bd 830b 3d3e 0c51 a33e c29c 963e
000002b0: e0d4 c33e 0ad8 533e e72f 593b 33eb 4abd
000002c0: c25e 9d3c b251 123e 088a 333d 830c cf3e
000002d0: f700 e63d 5e5a 0bbe 9d62 c2bd 9a28 843e
000002e0: aff5 783d bc92 cabd c4ed 1fbc 982c a43c
000002f0: c642 ce3e 6867 b5be 0586 7abe ee37 b9be
00000300: 8b8b 35be a01c 9ebd a310 a63e 055d f23d
00000310: 76c5 653e 1a0f 023e 7776 c1bd e2f3 9abe
00000320: 4367 193d 25ec c83d 6cb9 cdbd d1ef d23e
00000330: e46d ccbd 4267 1ebe 3ad8 653d c101 86bb
00000340: 358a e53e 0a58 aebd 40b9 7d3e 71cb 6cbd
00000350: 3164 203d f661 8f3e ad4b 39b9 33c1 14be
00000360: c009 2b3e af94 003d 7d1c 17be bb40 1b3d
00000370: 6404 b83e 82e3 053e 3e38 40bd 48cc d13e
00000380: 46af ddbd e682 bdbd 5290 5fbe 8ea5 8c3d
00000390: 255d 06be 0132 123e 341b 89bb bdeb 423e
000003a0: 744f b9be 509c 05bf 335d 9a3d 18db 25bd
000003b0: 2acf 043e e8b4 a63d 4e89 5e3d 8a98 f53d
000003c0: bb16 063e 3d23 d5bd d0f4 a73d 40f0 01bf
000003d0: 24e2 ca3e a284 edbd 1e33 17bf 27f0 4ebe
000003e0: ec4a 24bd 60d0 793e d08f 303e c7f0 9c3e
000003f0: a9d0 c3be 2cdb 023e 37db fb3c 9b47 04be
0.4762126 0.13454463 0.19693594 0.17560922 0.44243047 0.03771633 0.10300153 0.5317769
0.13305421 -0.0254025 -0.0502212 0.07351997 -0.062044296 -0.32591885 -0.0024320271 -0.23027177
-0.15297835 -0.21897592 0.19955194 0.20884149 -0.273613 0.17245428 0.028509768 0.4845816
0.21569131 0.2473739 0.18640877 0.11286984 -0.012762588 -0.17743771 0.05558499 -0.13597423
-0.017615963 -0.32199702 -0.66862756 0.05111824 0.06242094 -0.075294085 -0.124449 -0.4117303
-0.5642325 0.21772885 0.43422076 -0.14451201 -0.74011344 0.35531092 -0.24249138 0.2071363
0.16884534 -0.40221307 0.35234416 0.030561473 -0.20482135 0.007270456 0.20173942 0.5704979
-0.1994002 -0.010447555 -0.2871704 -0.23931351 -0.21796499 -0.29462647 0.4917922 0.108639315
0.058307793 -0.6985817 -0.028284438 -0.053445783 0.025703546 -0.20466518 -0.19264404 0.3956676
0.11452328 -0.07448472 0.097943015 0.54031533 0.12486975 -0.050934613 -0.041499488 -0.07622302
0.10202671 -0.4546847 -0.45841166 -0.1595355 -0.30373934 0.28251225 0.0896377 -0.15959018
-0.34970596 0.040650975 0.043551803 -0.34539494 -0.17627238 0.030127458 -0.07137532 0.10131575
-0.108611494 -0.13148537 0.021125602 0.42378157 0.031292614 -0.2775 0.021705318 0.03547881
0.093667395 -0.3436666 -0.19681902 -0.4061424 -0.009811125 -0.10611606 -0.35594186 -0.3812105
-0.32883048 -0.11488648 -0.23617183 -0.15757892 -0.14173731 -0.21578145 -0.3293372 -0.056883674
0.021293707 0.017526425 -0.08345323 0.25180522 -0.069542095 0.049189802 -0.18076037 0.054182988
-0.10182204 -0.15669288 0.23063555 -0.0020541647 -0.12005761 -0.079081334 -0.03622932 -0.021741755
0.14763218 0.15966392 -0.34086612 0.335595 0.10936328 0.057078768 -0.23490253 0.08705007
0.21510951 0.010309801 -0.6615702 -0.11164959 0.06625494 0.3572279 -0.15756367 -0.068821624
-0.059106838 0.008329215 0.20062497 -0.0803937 -0.108365364 0.30680066 0.03577265 -0.2388657
0.09200641 0.11892657 -0.10786173 -0.08654071 -0.2715883 0.16104376 0.08169768 0.05943093
-0.102176815 0.18461423 0.3189777 0.29416472 0.38248348 0.20687881 0.0033140124 -0.04954071
0.019210223 0.14288977 0.04383281 0.40439233 0.11230653 -0.13608691 -0.09491465 0.25812227
0.060781177 -0.098912686 -0.009761278 0.020040795 0.4028532 -0.35430455 -0.24465187 -0.36175483
-0.17729013 -0.077203035 0.32434568 0.11834148 0.22438607 0.12701073 -0.094464235 -0.30264193
0.037451994 0.09810666 -0.10045132 0.4119859 -0.099818975 -0.15469077 0.056114413 -0.0040895646
0.44832006 -0.08512886 0.24777699 -0.057811204 0.03915805 0.28004426 -0.00017671166 -0.14526825
0.16702938 0.031391796 -0.14756961 0.03790353 0.3594085 0.13075069 -0.046928637 0.40976167
-0.108244464 -0.092534825 -0.21832398 0.068675146 -0.1312147 0.14276887 -0.004184151 0.1903524
-0.3619343 -0.5219164 0.075373076 -0.040492147 0.12969652 0.08139974 0.054330163 0.11991985
0.13094608 -0.10407112 0.08200991 -0.5075722 0.39625657 -0.11597563 -0.59062374 -0.20208798
-0.040110514 0.24395895 0.1724236 0.3065245 -0.38245133 0.1277892 0.030744178 -0.1291794

fc1.bias f4 [120]
00000000: d29c 0d3d 8f1c d2bd dbd8 1ebd 45f2 02be
00000010: ad43 fc3d a1d1 9a3c ef5a 533e 60bc ad3d
00000020: b532 93be 7906 3ebd 68b1 bd3d 28b7 5abe
00000030: 73a3 4b3d c191 9d3e f335 e23e 8b7f cc3c
00000040: b95d ad3d 04a2 a93e a1c3 f4be 9d45 eebd
00000050: cb54 f23e d781 23bd 0223 b73e 96e2 80bd
00000060: 0edf 83be 767f cbbd 2d43 a6bd 9b1d 73be
00000070: 8d46 d6bc 0d5c 73be 5e81 4abe a98a 1e3f
00000080: a8c5 d2bc 71c7 84be 5cbf 01bc e627 99bc
00000090: 7268 7e3e 7b64 b8bc 589b c73e 6678 993d
000000a0: 14d6 11bf ed5f 43be 8acb 83be 6e74 20be
000000b0: 2769 36be b2b5 bf3e b4d5 843e cd4c 693e
000000c0: b715 013e 9bac 533f b5e0 0fbd 0cc2 4c3e
000000d0: ddfb ab3e 301d 87be f4ec 8c3d 319d dc3e
000000e0: e1fd e4bd db96 2f3d 9452 9e3d 0dcb 2c3c
000000f0: 100e f53d fc8f 943e 1a7c e83e d74c c0bd
00000100: cbf2 083e 1e6a b5be f82e 98be 776a 5e3e
00000110: 4d0a 6ebe 10a3 98be 46a5 debd 602a ee3d
00000120: 8976 f13e 8e65 48be 1d07 213e f5ef 5c3e
00000130: ff0f dd3e ff0f 953e ba4b e0bd aaa4 cbbe
00000140: b874 bebe 229c 3d3d e6bd 303e e9dd d8bd
00000150: aa59 ea3d 9c98 01be c6ad ef3c aad3 17be
00000160: 8a1a f53d 0e8e 603e ceb2 6abe 40ae b63d
00000170: 6ea6 883e 54b9 1f3e c583 f83b 8d17 8a3c
00000180: 5807 bebd 8233 8b3d aea1 ce3d 3343 81be
00000190: ba79 8f3e 54df fcbe 0112 aebe c208 0dbf
000001a0: f2b3 4dbd d831 a93e 6fbf aebe dec4 bfbd
000001b0: b6e5 86be e52a b8bc 7658 8abe 5917 93be
000001c0: 49a0 ae3e bded 11bf 1366 d63d 3e50 abbe
000001d0: d925 1b3f edac 0d3f caf9 22be 10d5 083d
0.034573384 -0.10259353 -0.03878103 -0.12787731 0.12317596 0.018898787 0.20640157 0.08483195
-0.28749624 -0.04639289 0.09262353 -0.21358931 0.049716424 0.30775264 0.44181785 0.024963161
0.08465142 0.3313142 -0.47805503 -0.116343714 0.47330317 -0.039918747 0.35768896 -0.06293218
-0.25756115 -0.099364206 -0.081182815 -0.23741762 -0.026156688 -0.23765583 -0.19775912 0.6193033
-0.025729015 -0.25933412 -0.007919159 -0.018695783 0.2484453 -0.02250885 0.38985705 0.07493667
-0.5696728 -0.19079562 -0.25741225 -0.15669414 -0.1781355 0.3744331 0.25944293 0.22783203
0.1260594 0.8268525 -0.035126407 0.19995898 0.33590594 -0.26389456 0.06881133 0.43088678
-0.11181236 0.042868476 0.07730594 0.010546458 0.11965573 0.290161 0.45407182 -0.09389656
0.13373868 -0.35432523 -0.29723334 0.217203 -0.23246117 -0.29811907 -0.10871367 0.11629176
0.47160748 -0.1956999 0.1572537 0.21575911 0.43176267 0.29113767 -0.10951944 -0.39774066
-0.37198424 0.046291478 0.1725994 -0.10589201 0.11442883 -0.12655872 0.029257666 -0.14826837
0.119679525 0.2192919 -0.22919771 0.08919954 0.26689476 0.15598041 0.0075840675 0.016856933
-0.092787445 0.06796934 0.10089432 -0.2524658 0.28022557 -0.49389136 -0.3399811 -0.5509149
-0.050220437 0.3304584 -0.34130427 -0.09363721 -0.2634713 -0.022481391 -0.27020615 -0.2872875
0.34106663 -0.57003385 0.10468688 -0.33459657 0.60604626 0.5534199 -0.159156 0.033406317

fc2.weight f4 [84, 120]
00000000: c939 7a3c 0069 f53b aafe 823e 04c0 8dbd
00000010: ae39 6b3c d3a2 8fbd 9994 cfbc f8b1 933d
00000020: e65e f5bd bc1a 6b3c 0e73 cdbe f90f a43d
00000030: 7555 35be a954 9bbd 6467 a2be 8295 32be
00000040: c2e0 e7be 77f2 11bf 5213 ca3d 0cea 4e3e
00000050: 78fc 583d 65cf 12be 01bf 123d 811d c7be
00000060: 8336 02bd c78c 2fbe dc6a 9fbd a836 da3c
00000070: c9fc 543e 8f41 3cbe 73e0 24be 653a 8d3d
00000080: a864 2ebe 0e04 38be 18e4 95be 3a27 af3d
00000090: 2720 633d 7847 843d 1548 6a3e 57e1 b73d
000000a0: 97de a2bc cd26 b83d 20fb b5bd 8dd4 a3be
000000b0: ab68 08be bef8 763e c079 49be c29c 93be
000000c0: 5b27 84be f75c 9bbe 4e37 82be df9c 483d
000000d0: 94a4 323e b83a 493e f771 74be 98b0 d8bc
000000e0: 6c7c 80be 7aef 4e3e 0d70 9d3c 4b30 d53d
000000f0: b458 6fbe 6cf3 9ebd cf0a 18be deca b9be
00000100: 140d 053d 43ae 57be a529 963c dcfc 75bd
00000110: ac6a a3be 19b4 04bf 7c13 17be dd4c 4cbe
00000120: 4621 ac3e 334e 083e 566f 29be 653b 1dbe
00000130: 928c 46be 3306 093c 37cb 1fbe 6452 3e3e
00000140: b95d 05be 2693 24be a969 85be 15c6 07be
00000150: dbdb 7ebe 7eb0 57bd 4a5a 94be 1dd4 2c3e
00000160: 2881 2e3e c11f 1fbd 792b 483e 32b6 bcbe
00000170: 02de a7be 9df2 bcba 7df7 59be 0022 e0be
00000180: fff8 60bc fad7 a93c 38a3 be3d 552d d7bd
00000190: 8d18 803d 5a5d 76be 90b0 7a3d 6715 aebe
000001a0: 6f33 d53d b510 db3d e26c 89be 5a75 553e
000001b0: 3e08 e43d 7cdc 9abe 4da0 a4bd 3daa e73d
000001c0: fe83 d9bd dccf 41be b026 20bf cafa a3bd
000001d0: bf0b 803d c0c0 8b3e 2e66 d0be 987b fe3d
000001e0: e096 c0be e5d7 373e bd82 88bd e30e 96be
000001f0: c6e7 293e 393a 9b3d 0f62 5ebe d5b6 143e
00000200: 80e2 f8be 6dd9 943d 7115 60be 4d74 59be
00000210: 620b 18be d215 2e3d 3031 523d 2eb4 49bd
00000220: 7e51 9e3e 4000 933d 2796 1c3e 54b8 66be
00000230: 708a afbe 3141 50bd 224c 113e 44a7 e23b
00000240: 17e1 5abe 801b 063d 894c b23d d80e 083e
00000250: 50bb 69bd 0694 e4be f963 183d 6778 8bbd
00000260: deb1 14bd 7c26 49be dd14 e1be 16c7 bbbd
00000270: 4f6e cabe 551d e3be 741f 063e 57dd 1abe
00000280: cf3b cd3d 680d d2be 3e00 2dbe 2a2f 843d
00000290: 6c69 833e ef7a 03be 0cfd c63d b3b7 89be
000002a0: b114 d0be 0766 73be 849a 4f3d 5e0b 83bc
000002b0: 5621 1bbe 4ed3 21be cc64 b93c fc00 773e
000002c0: 0fe2 25be 3b9d b2bd e3b1 943e 6858 dfbd
000002d0: 0f13 e83d 5a1f 4cbe bbc2 c53d 7886 0b3e
000002e0: 5792 a2bd c632 9ebd 556d 7bbe f453 5ebd
000002f0: 52ce adbe 3223 c5be 27d8 b4be 4231 21bd
00000300: 69eb d3be 051d 88be 881d 06bf 8b58 1ebe
00000310: 3fb1 acbd 727a 2dbe af54 a0bd 9674 533e
00000320: 9d32 55bd 9263 ae3d ec76 d43d 4728 7bbe
00000330: 899f f0be 04f9 30be 8298 11be 32a8 48bd
00000340: 3e4c 0c3e 9fe0 10be dddf 64bd 9a0c 53be
00000350: 02ae e2be c20d 8dbe ae06 84be 1dad 9fbd
00000360: c11f 073e 5961 40be d01e 9cbe 893b dabd
00000370: 0aab 93bd 1f49 1c3e a4af 20be c400 773e
00000380: 2818 893e d8a2 2cbd f3be d9be 6319 903e
00000390: 33bf 12be 9f48 a1be 0794 fc3d af67 25bd
000003a0: 06a5 fcbd c892 533e e298 8dbe bd56 3b3e
000003b0: e4c9 6cbe d7e5 04be 15bf adbe a61b 20be
000003c0: 5d05 7f3a 207b f93b 6160 89be fa1c a7b9
000003d0: 8c25 4f3e db7c 63be 73e8 16be c732 3ebe
000003e0: 33c7 783e ec98 a43d 079c d2be f5e9 1fbd
000003f0: f0ec 3bbe 41fe 1ebe c646 0ebd 8c7c 5ebe
0.015272566 0.0074893236 0.25584918 -0.0692139 0.014357014 -0.07013478 -0.025339412 0.07211679
-0.11980991 0.014349636 -0.40126842 0.08010859 -0.1770838 -0.07584507 -0.31719506 -0.17439845
-0.45288664 -0.57010597 0.09866966 0.2020647 0.052975148 -0.14336927 0.035826687 -0.38889697
-0.031790268 -0.17143546 -0.07784054 0.02663739 0.20799555 -0.18384384 -0.16101246 0.068959035
-0.17030585 -0.17970297 -0.29275584 0.08552404 0.055450585 0.06458944 0.2287906 0.08978527
-0.01988153 0.08991776 -0.08885789 -0.319981 -0.13321178 0.24118325 -0.1967535 -0.28830534
-0.25811276 -0.30344364 -0.2543282 0.04897773 0.17445594 0.19651306 -0.23871599 -0.026451394
-0.25094926 0.2020854 0.019218469 0.10409602 -0.23373681 -0.07761273 -0.14847873 -0.36287588
0.032483175 -0.2106257 0.018330405 -0.0600556 -0.31917322 -0.5183731 -0.14753526 -0.19951196
0.33619136 0.1331108 -0.16546378 -0.15354688 -0.19389561 0.008363294 -0.15604864 0.18586117
-0.13024034 -0.16071758 -0.26057175 -0.13259156 -0.24888556 -0.05265855 -0.28975135 0.1687779
0.17041457 -0.038848642 0.19547834 -0.36857754 -0.32786566 -0.0014415566 -0.21285816 -0.4377594
-0.01373124 0.020732868 0.09308475 -0.10506693 0.06254683 -0.24059048 0.06120354 -0.34000704
0.10410201 0.10696546 -0.26840883 0.20845547 0.111343846 -0.3024634 -0.080383874 0.11311767
-0.10620879 -0.18926948 -0.6255903 -0.080068186 0.062522404 0.27295494 -0.40702957 0.124259174
-0.37615108 0.17953451 -0.06665561 -0.29308233 0.16592321 0.075794645 -0.21717094 0.1452287
-0.48610306 0.07268033 -0.21883179 -0.21235771 -0.14848092 0.04250128 0.05131644 -0.0492441
0.3092155 0.07177782 0.15291654 -0.22531253 -0.34285307 -0.05084342 0.14189199 0.0069169123
-0.21374927 0.03274107 0.08706004 0.13286912 -0.0570634 -0.44644183 0.037204716 -0.06810074
-0.03630244 -0.19643587 -0.4396123 -0.09168832 -0.39537284 -0.44358316 0.13097936 -0.15123497
0.10021173 -0.41025853 -0.16894624 0.06454308 0.25666368 -0.12839864 0.097162336 -0.26897964
-0.40640786 -0.23769389 0.050684467 -0.015996631 -0.15149435 -0.15803263 0.022631072 0.2412147
-0.16199516 -0.087213956 0.29041967 -0.10905534 0.1133176 -0.19933835 0.096562825 0.13625515
-0.07938068 -0.07724528 -0.24553426 -0.054279283 -0.33946472 -0.38503414 -0.3532116 -0.039353617
-0.4139054 -0.2658464 -0.5238881 -0.15463464 -0.084322445 -0.1694124 -0.07828652 0.20649943
-0.05205022 0.08515085 0.10374245 -0.24527083 -0.46996716 -0.17282492 -0.14218333 -0.04898853
0.13700959 -0.14148186 -0.055877555 -0.20610276 -0.44273382 -0.2754956 -0.25786346 -0.077966906
0.13195707 -0.18787135 -0.30492258 -0.10655887 -0.072103575 0.15262268 -0.15692002 0.24121386
0.26776242 -0.042147487 -0.42528495 0.2814437 -0.14330749 -0.31500718 0.123329215 -0.040382084
-0.12336163 0.20661461 -0.27655703 0.18294807 -0.2312389 -0.12978302 -0.33934847 -0.15635547
0.0009728277 0.0076135546 -0.26831344 -0.0003187431 0.20229167 -0.22215597 -0.1473711 -0.18574058
0.24294738 0.0803698 -0.41134664 -0.03904148 -0.18352103 -0.15526678 -0.034735464 -0.21727198

fc2.bias f4 [84]
00000000: c283 733f 38db c5be ba74 fbbb b0f4 643f
00000010: d76e 273f 35c7 b8be cb30 95be a12f c8be
00000020: 651a a23e fe87 b73d d369 cdbe 2f4d a3be
00000030: 1466 28bf ad16 bdbd b680 1fbe b8c4 c0bc
00000040: aac0 87be 782e acbd 5615 cd3e 0a3a 963f
00000050: e63c b43f 8778 813d 88a1 373e 24d2 76bd
00000060: b19e 1e3e a846 82be e813 09be 7a38 99be
00000070: 9a3e 2fbe dc24 7b3e 0bf6 2ebe f794 3dbd
00000080: 4d65 1c3f a9a5 9c3f 6ee6 a53f 7120 2dbe
00000090: 4e3f 1bbe d18d 06be fbf0 3a3e 675a 5e3d
000000a0: 6678 8a3f 7194 2a3e d649 533b bb2c ecbe
000000b0: c82e c13e d2f7 123f 17a4 b13d 023e 13bf
000000c0: 9549 0d3e b208 263f 0ed8 923f f7d9 173e
000000d0: 092c 483d 578b 14be 15b4 293f d23a 5abe
000000e0: 48ed 5dbe 0037 15be 9f4c cabd 91b9 0cbe
000000f0: 0db5 a0be 4a42 c0bc dc47 073e 5d75 a83e
00000100: 3fda 47bf 3ee5 5f3f cb5c eebe d27a b83e
00000110: fa99 913d 8fc6 8e3e c2fb 1e3f b7b3 0fbe
00000120: 2499 91be f3be f0be b6eb 993f ce79 8b3d
00000130: 9843 a2bd 5ced e33d 65ca fabe a788 973f
00000140: f14d d4bd 6f60 af3f e7bd c43e 9d9b 203e
0.9512292 -0.38643813 -0.007673827 0.89435863 0.65403503 -0.36089483 -0.2913879 -0.39098838
0.31660762 0.08961485 -0.401198 -0.31894824 -0.6578076 -0.09232841 -0.15576443 -0.023531303
-0.2651418 -0.08407301 0.4005534 1.1736462 1.4081085 0.06321817 0.17932713 -0.060259
0.15490223 -0.2544453 -0.133865 -0.299259 -0.17113724 0.2452578 -0.17086045 -0.046284642
0.6109207 1.2238055 1.2960947 -0.16906907 -0.15160868 -0.13140036 0.18255989 0.054285433
1.0817993 0.16658188 0.0032240055 -0.46127877 0.37731004 0.57409394 0.08673876 -0.5751649
0.137976 0.6485702 1.1472185 0.1482924 0.04887012 -0.14506279 0.6629041 -0.213115
-0.21672547 -0.14571762 -0.098778956 -0.13742663 -0.3138813 -0.02346911 0.13211006 0.3290204
-0.7806739 0.8745917 -0.4655517 0.36031204 0.07109447 0.27885863 0.621029 -0.140334
-0.2843715 -0.47020683 1.2025058 0.06810342 -0.07923049 0.11129257 -0.4898254 1.1838578
-0.10366429 1.3701304 0.38426134 0.15684362

fc3.weight f4 [10, 84]
00000000: c213 56bc 927c 203e 84ba 1fbd da29 eb3d
00000010: e160 46bd bb60 8abd 154a 1d3e 1794 803e
00000020: 95a5 263d e176 e33d cc59 3b3e f5b0 1c3d
00000030: 74be 9a3b cfc9 783e 7968 283e 141d a43d
00000040: 7121 5a3e ff57 503e 8ed3 e33d aa2d 4cbe
00000050: 92ed 6abe 46d2 6a3e 788b 723b d3c8 123e
00000060: 2af0 37be 578f 613c 50bd 523c 6177 8cbd
00000070: 8e8a 163e 95f7 813e 686b 83bd bf2b 99bc
00000080: 0dc4 45bd a17e 5cbe 0b09 e5bd 1bc6 e6bd
00000090: df6c dbbc 2ec6 cb3d 24ae 5a3e 6d70 52bd
000000a0: 1a50 32be cb04 4a3d e2a8 973d 8b05 ce3d
000000b0: da32 e6bd afa3 e0bd 5b2f eb3d aa0a 6b3d
000000c0: 0c49 97bd bb22 e5bc df47 77bd 08c9 4ebd
000000d0: 8d28 a83d 28b0 ccbd 7200 e63d cd3a 0abe
000000e0: e1a3 a23c 0998 503e b59d ee3d 0714 2cbe
000000f0: ca99 893e 659f 433d 64bc dfbd c93d 05bd
00000100: 4fb8 593e 3ee8 1bbe 86a6 c43d b57a 22bd
00000110: 1766 a7bd f64e 8b3c e239 e6bd 7cf3 7f3d
00000120: f650 553e 54f2 b03d 346f 9c3d c478 183e
00000130: 4ffd cdbb d764 4c3e 8498 d5bc 74b5 11bd
00000140: 7d88 553e c8a5 0cbe a46b bf3d ca1a 40be
00000150: 4592 48be 1d06 5cbe 7397 98bd 391f 87be
00000160: 57fb 7d3d 763b 5cbe 9cab f6bd 202d 243e
00000170: 8c97 123d 30e8 273e aef7 26be e12e 003e
00000180: 52bc 743d 6510 f8bd 5661 833d bdc7 b9be
00000190: 99ac 09be ce7e c6bd 8d06 ad3d a55b 0dbe
000001a0: add4 b1bd 1010 d0bd 19c2 8bbd 864a 453e
000001b0: e591 aebd 7eb6 953e 40dc 40be eff9 1d3e
000001c0: 7543 6ebc b859 3ebd 6dc6 623e fa8f ba3d
000001d0: c15e 6cbe e26c 77be 0ee0 023e 62ff 053b
000001e0: 0876 693e 204f 553c 5245 053e fda7 c33c
000001f0: aba1 973c fef0 a33c 55b0 7f3d 239d 90bd
00000200: 00a9 d9bd e78c 88bd 31c6 46be ce3d 5a3e
00000210: e31d b03d 35b2 37bd 404f e2bd 94c1 64bc
00000220: 8eb8 483e 4523 8b3d 9093 a03d ced6 cabd
00000230: ada9 07be 04b1 b4bd 75e5 463d 2d73 4d3d
00000240: a0d0 473e 6e7d 5f3e a396 d3bd f2ef 04be
00000250: 212f 313e e5b6 4ebd fcf2 743e 53e3 c4bd
00000260: 7111 d6bc cdc3 86be a79f 363e 81d6 de3d
00000270: 40fc f43c 162c 4dbd 0c83 98be 8ab7 cabd
00000280: 779c ed3d ac81 a03e 465e 4f3e b74b 21be
00000290: 566d 173e dc11 bdbe f522 913c 3654 18bd
000002a0: cc65 f53d 8d31 c8ba e4d8 0abe d983 773b
000002b0: 8dfe b8bd e7fa 423e 077f 2b3e d7bf 8f3d
000002c0: 5238 283b e903 bf3c 70ce ef3d 4631 263e
000002d0: bb6d 3a3e 90a9 c63b 7a64 0dbe 44a1 cf3d
000002e0: 6f44 633e 2d88 acbd d8e1 9dbd 164d 02bd
000002f0: 3aad b63d ff38 2c3e 120f f9bd 3f93 fdbd
00000300: 4855 0bbc f84f 8ebe 1714 ab3d e4c0 243e
00000310: 7367 d63c 6da8 a2bd 5b48 093e 3f18 c13d
00000320: f00c 3fbc 7290 1abd f6cb 433d 5c39 e3bd
00000330: d76c 9cbd 2f28 503d e976 383e dc46 f33d
00000340: 283f 033e 7774 67be d87a f03c 06c3 8b3e
00000350: 1d25 d2bd 988a 373d 8280 483d 2f9b 993c
00000360: 6281 913e 216c fa3a 636b c53d 5fb3 2e3e
00000370: 4e02 83be c860 083e 5fab 6ebe a6aa a03e
00000380: b06a 543e 1154 dcbd ca6c 6cbd c740 673e
00000390: e770 febc 7922 37be c574 2fbd aefe 6a3e
000003a0: 601c 6c3d 4a3f 94bb fb39 87bd 6f3b ffbd
000003b0: 3183 e53d 42cc 413e ac9c 563d 8de0 07be
000003c0: e80f 61bc 6d0f 3a3e 7b71 863c 1ae5 153e
000003d0: 6830 ab3c 826c 47be cb10 0abe 57f5 4e3d
000003e0: 20d3 19bd ef36 a63e 74d8 0ebd f5b5 1a3e
000003f0: cfda e63d f470 183c cc38 bf3b b3d1 b23b
-0.013066234 0.1567252 -0.038996235 0.11482592 -0.048432235 -0.06756731 0.15360291 0.25112984
0.040685255 0.11106659 0.18295974 0.038254697 0.004722411 0.24295734 0.16446103 0.08013359
0.2130182 0.20346068 0.11124335 -0.19939294 -0.22942188 0.22931775 0.00370094 0.14334421
-0.17962709 0.013767085 0.012862518 -0.06858707 0.14701292 0.25384203 -0.064169705 -0.018697618
-0.04828267 -0.2153268 -0.111833654 -0.11268254 -0.026785312 0.09949909 0.21355492 -0.05137675
-0.17413369 0.049320977 0.07405259 0.10059651 -0.11240168 -0.1096872 0.11483642 0.057383217
-0.073869795 -0.027970662 -0.060371276 -0.050484687 0.082108594 -0.09994537 0.11230554 -0.13498993
0.019853534 0.20370497 0.11651174 -0.16804515 0.26875144 0.047759432 -0.109246045 -0.032529626
0.21261714 -0.15225312 0.09602074 -0.039667804 -0.08173769 0.017005425 -0.11241509 0.062488064
0.20831665 0.086399704 0.07638398 0.14889818 -0.0062863003 0.19960342 -0.026073702 -0.035573438
0.20852847 -0.13735116 0.09346703 -0.18760219 -0.19587047 -0.21486707 -0.07450762 -0.26391008
0.062007274 -0.21507058 -0.12044451 0.16032839 0.035789058 0.16397166 -0.1630542 0.12517883
0.05974991 -0.12112502 0.0641505 -0.362852 -0.13444747 -0.09692155 0.08448515 -0.13804491
-0.08683143 -0.10159314 -0.068241306 0.1926671 -0.08523921 0.29240793 -0.18834019 0.15427373
-0.01454245 -0.04647228 0.22146006 0.091094926 -0.23083021 -0.24162629 0.12780783 0.002044641
0.22798932 0.013019353 0.13014725 0.023883814 0.018509706 0.020012375 0.062424023 -0.070612215
-0.10627937 -0.066675 -0.19411542 0.21312639 0.085994504 -0.044847686 -0.11050272 -0.013962168
0.19601652 0.067938365 0.07840645 -0.09904252 -0.1324832 -0.088228256 0.04855867 0.05015867
0.19513178 0.21825191 -0.10331466 -0.12982157 0.17303135 -0.05046739 0.23920816 -0.09613671
-0.026131364 -0.2632126 0.1783434 0.10880757 0.029905438 -0.05009087 -0.2978748 -0.098982885
0.11602109 0.31348932 0.20250806 -0.15751539 0.14787802 -0.36927688 0.017716864 -0.037189685
0.11982307 -0.0015273556 -0.135593 0.0037767796 -0.09032927 0.19041024 0.16747676 0.070190124
0.0025668335 0.023317294 0.11709297 0.16229734 0.18205921 0.006062694 -0.1380786 0.10138181
0.22194074 -0.08424411 -0.07709092 -0.031811796 0.08919759 0.16818617 -0.121610776 -0.123816006
-0.008504219 -0.27795386 0.08353441 0.16089207 0.026172375 -0.07942281 0.13406508 0.09428453
-0.011660799 -0.03773541 0.047801934 -0.11094925 -0.07637947 0.050819572 0.1801411 0.1187875
0.12817061 -0.22603022 0.029355451 0.2729723 -0.10260985 0.044809908 0.04895068 0.018750755
0.28419024 0.0019105711 0.09639623 0.17060612 -0.25587696 0.13318169 -0.2330756 0.31380194
0.20743823 -0.10758222 -0.057720937 0.22583304 -0.031059695 -0.17884244 -0.04283597 0.22948715
0.057644248 -0.004524146 -0.06602856 -0.12462508 0.112066634 0.18925574 0.052395508 -0.13269253
-0.0137367025 0.18169947 0.016411534 0.14638177 0.020897105 -0.19474986 -0.13482969 0.050526943
-0.03755486 0.32463786 -0.034874395 0.15108474 0.11272203 0.009304274 0.005835628 0.005457127

fc3.bias f4 [10]
00000000: bd12 1ebf 09c8 d7bf 6342 13be d9b4 9b3f
00000010: 1bea 6a3f d982 903e 1264 0a3f 7c84 bcbe
00000020: 5ee6 133e 3bd6 a3be
-0.6174734 -1.6857921 -0.14380793 1.2164565 0.91763467 0.2822483 0.54058945 -0.36819828
0.14443347 -0.31999382
