cifar_net.pth (torch, 251604 bytes, 10 tensors)

conv1.weight f4 [6, 3, 5, 5]
0	0x3d2f5868	0.04280892
1	0xbd8122bb	-0.063054524
2	0x3e3cfd2e	0.18455955
3	0x3eb45897	0.3522384
4	0x3e432ac2	0.1905928
5	0x3d406e3c	0.046980128
6	0x3c9db41e	0.019250926
7	0x3d5f5347	0.05452278
8	0x3c9391da	0.018013883
9	0x3e071a1b	0.13193552
10	0x3de67d84	0.11254409
11	0x3e1d36b6	0.15352902
12	0xbe0f93e4	-0.1402126
13	0xbecdffcc	-0.4023422
14	0x3e914d23	0.28379163
15	0x3e39a725	0.18130167
16	0x3ed96d17	0.4246604
17	0xbcc5d549	-0.024149554
18	0xbf0caf4a	-0.5495497
19	0x3e6d4053	0.23169069
20	0x3e2abeb7	0.16674314
21	0x3d9ad71f	0.07560562
22	0xbdfd9b8c	-0.12383184
23	0xbece6bf3	-0.40316734
24	0x3e022c1b	0.12712137
25	0xbe6c9c65	-0.23106535
26	0xbe2b60ea	-0.16736189
27	0xbdf0927b	-0.11746689
28	0xbe1f45e4	-0.15554005
29	0xbe326d32	-0.17424467
30	0x3d5557d5	0.052085716
31	0xbd98158f	-0.07425987
32	0xbe42483d	-0.18972869
33	0xbe6e77c2	-0.23287871
34	0xbcd165e6	-0.025561284
35	0x3e26d374	0.162916
36	0x3ead21e1	0.3381491
37	0xbe6ede2d	-0.23326941
38	0xbf097410	-0.5369272
39	0x3c619463	0.013768288
40	0x3e9d7cb5	0.30759206
41	0x3eaf06bd	0.34184828
42	0xbe77246c	-0.24134988
43	0xbf3a8687	-0.7286152
44	0x3e7443c0	0.2385397
45	0x3e48cd34	0.19609529
46	0x3e7197d0	0.23593068
47	0xbe810bc9	-0.25204304
48	0xbedcee1f	-0.43150422
49	0x3dddd31d	0.10831282
50	0xbcc2b252	-0.02376667
51	0xbddf5dcb	-0.109065615
52	0xbd609503	-0.05482961
53	0xbca423ae	-0.020036545
54	0xbb0763f5	-0.0020658944
55	0x3dc6cbd8	0.09706849
56	0x3daa28bb	0.0830855
57	0xbd4a0779	-0.049323533
58	0xbdbd9d74	-0.092585474
59	0x3d650180	0.055909634
60	0x3e0a64b6	0.1351498
61	0x3ed4110d	0.4141926
62	0xbdcdd826	-0.10050993
63	0xbf01bbb2	-0.50677025
64	0x3db448ed	0.08802972
65	0x3e785908	0.24252713
66	0x3e9c5ab2	0.30537945
67	0xbe5b4086	-0.21411332
68	0xbf21621a	-0.63040316
69	0x3d8d912e	0.069124565
70	0x3e594e30	0.21221232
71	0x3ec533ac	0.38515985
72	0xbddb19fe	-0.10698317
73	0xbec7ba25	-0.39009205
74	0x3e3049f7	0.17215715
75	0xbdb8a4a6	-0.09015779
76	0xbe87597a	-0.26435453
77	0xbe291770	-0.16512847
78	0xbdc004de	-0.09375928
79	0xbd4ac34d	-0.04950266
80	0xbdc51b59	-0.09624357
81	0xbe36a4bc	-0.17836279
82	0xbdcf212e	-0.101137504
83	0xbd9561c3	-0.07294037
84	0xbe03f3e9	-0.12886013
85	0xbc3d8a39	-0.011568599
86	0x3de981ca	0.114017084
87	0x3db5e30d	0.08881197
88	0x3cb293b7	0.021798952
89	0x3c0b59fa	0.008505339
90	0xbea26b6d	-0.31722584
91	0xbe4ffcd6	-0.20311293
92	0xbe97ba43	-0.29634294
93	0xbe86c13c	-0.263193
94	0xbe47c086	-0.19507036
95	0xbe5dba60	-0.21653128
96	0xbe32fa1d	-0.17478223
97	0xbeae3891	-0.34027532
98	0xbe6c58f4	-0.23080808
99	0xbde54328	-0.1119445
100	0xbdb4a4cf	-0.08820497
101	0xbe81dc1f	-0.25363252
102	0xbe1d506d	-0.15362711
103	0xbe0fe85e	-0.14053485
104	0xbc82456c	-0.015902244
105	0x3cac434e	0.021028187
106	0xbd29c177	-0.041444268
107	0xbd9e3e87	-0.0772677
108	0xbd2d970c	-0.042380378
109	0xbdd43b8c	-0.1036292
110	0x3e0a877e	0.13528249
111	0x3ed48cce	0.41513675
112	0x3ee292a5	0.44252506
113	0x3ebb423a	0.36573964
114	0x3e843f62	0.25829607
115	0xbd13bb5d	-0.036067355
116	0x3bfe9615	0.007769356
117	0xbdc91980	-0.09819317
118	0x3d0df547	0.034657743
119	0xbdc72b34	-0.09725037
120	0xbd193056	-0.037399612
121	0xbe129273	-0.14313678
122	0xbe520108	-0.20508206
123	0xbdf8e4c2	-0.12153007
124	0xbdf912fb	-0.12161823
125	0x3ce6b7d0	0.02816382
126	0x3dac9aa8	0.08427936
127	0xbd2dbd37	-0.042416777
128	0xbe198d2b	-0.14995258
129	0x3d1c0980	0.038094997
130	0x3dd29663	0.1028259
131	0x3de848bf	0.11342
132	0x3e64756f	0.22310422
133	0x3dc30ed2	0.09524311
134	0xbbe2bdb4	-0.006919587
135	0x3e9270cc	0.28601682
136	0x3f17164c	0.590184
137	0x3ef2251f	0.47293946
138	0x3ef944f2	0.48685414
139	0x3e3446dc	0.17605156
140	0x3dd0c2fa	0.10193439
141	0x3d083a0d	0.033258487
142	0x3d6f0f05	0.058363933
143	0x3e0ee237	0.13953482
144	0x3dd7c156	0.10534923
145	0x3da77c11	0.08177961
146	0xbe05668f	-0.13027404
147	0x3baa49f0	0.0051968023
148	0xbc736ce9	-0.014857509
149	0xbd7319e3	-0.05935086
150	0x3e56f393	0.20991354
151	0x3ec1148c	0.3771099
152	0x3ec9165d	0.39274874
153	0x3eb547f3	0.35406455
154	0x3e5db727	0.21651898
155	0x3dcb4120	0.09924531
156	0x3da00559	0.0781352
157	0x3ca02783	0.01955009
158	0x3d2a631a	0.041598417
159	0x3e52b9af	0.20578645
160	0xbdf29704	-0.1184521
161	0xbe34ecf8	-0.17668521
162	0xbe6a0dc9	-0.22856821
163	0xbe7346db	-0.23757498
164	0xbdda98f4	-0.10673705
165	0xbe4104c1	-0.1884947
166	0xbe8fd422	-0.28091532
167	0xbe9ab336	-0.30214852
168	0xbe8f957d	-0.28043738
169	0xbe40629e	-0.1878762
170	0xbd0e72c6	-0.034777425
171	0x3d7d5089	0.061844382
172	0xbb364c6c	-0.0027816547
173	0x3d3c0e08	0.04591182
174	0x3d2d504e	0.042312913
175	0x3d1021ff	0.03518867
176	0x3d8576f4	0.06516829
177	0xbd28f157	-0.041245785
178	0xbe595e3c	-0.21227354
179	0xbe430275	-0.19043906
180	0x3a39aa2a	0.00070825464
181	0xbe0ba4a6	-0.13637027
182	0xbda4b074	-0.08041468
183	0xbe33f95a	-0.17575589
184	0xbd0dd074	-0.034622625
185	0xbe7faeb7	-0.24968992
186	0xbeb64b0c	-0.3560413
187	0xbead4b78	-0.3384664
188	0xbe1e41cf	-0.15454791
189	0xbd8f5ab3	-0.069997214
190	0xbe50071d	-0.20315214
191	0xbe8665b4	-0.26249468
192	0xbdc33e8f	-0.095334165
193	0xbe720831	-0.23635937
194	0x3b4f9c79	0.0031678958
195	0x3e041ed1	0.1290238
196	0x3c75b5ef	0.01499699
197	0x3e4f86eb	0.20266311
198	0x3da06488	0.07831675
199	0xbcc2a2e3	-0.023759311
200	0xbd98e547	-0.07465606
201	0xbda0e21e	-0.078556284
202	0x3dd93176	0.10605137
203	0xbde4b20d	-0.11166773
204	0xbe3ea092	-0.1861594
205	0x3e1de022	0.15417531
206	0x3d8f8d18	0.07009333
207	0xbd664907	-0.056221988
208	0x3d3eff07	0.04662993
209	0x3d531366	0.05153217
210	0xbced93ef	-0.029001204
211	0xbe0e5246	-0.13898572
212	0xbe862bcc	-0.2620529
213	0x3d017dd0	0.031614125
214	0x3d3cb41d	0.046070207
215	0xbe288b36	-0.16459355
216	0xbcb83b47	-0.022489203
217	0xbda442d2	-0.080205575
218	0xbbfd93bb	-0.007738558
219	0x3e0f7d84	0.14012724
220	0x3dd51dca	0.104060724
221	0x3e9ba8ce	0.30402225
222	0x3eb063a3	0.34451017
223	0x3eb244e7	0.34818193
224	0x3edfe013	0.43725643
225	0xbda1df51	-0.07903922
226	0xbe5c48af	-0.21512102
227	0xbc8323bd	-0.016008252
228	0xbe40e881	-0.18838693
229	0xbd9a707a	-0.075409845
230	0xbe6f6d68	-0.23381579
231	0xbe4f123a	-0.20221797
232	0xbe6e3ecd	-0.23266144
233	0xbe6bd8e8	-0.23031962
234	0xbca3cda4	-0.019995518
235	0xbdaf4afa	-0.085592225
236	0xbe998913	-0.29987392
237	0xbe17a865	-0.14810331
238	0xbd9d8c70	-0.07692802
239	0x3ad2131e	0.0016027426
240	0xbe6e6151	-0.23279311
241	0x3cf87ada	0.030332018
242	0xbd3d3ab1	-0.04619855
243	0x3e3f58c5	0.18686207
244	0x3e87db22	0.26534373
245	0x3eaefce5	0.34177318
246	0x3ede2b16	0.43392247
247	0x3e7a74c2	0.24458602
248	0x3e9b6ee4	0.3035804
249	0x3e134d61	0.14384986
250	0x3d2c2d4d	0.04203539
251	0x3de6c344	0.11267713
252	0x3decd6d0	0.1156441
253	0xbd9de01e	-0.077087626
254	0xbd28562e	-0.041097812
255	0x3e2a92b3	0.16657524

conv1.bias f4 [6]
0	0xbe1e57c0	-0.15463161
1	0xbdc9d3b0	-0.09854829
2	0xbe21397d	-0.15744586
3	0xbe1e4fff	-0.15460204
4	0x3e9b69a8	0.30354047
5	0xbefb5cdf	-0.49094293

conv2.weight f4 [16, 6, 5, 5]
0	0xbe39cf44	-0.18145472
1	0xbda4aae0	-0.08040404
2	0xbc9a30b6	-0.018822055
3	0x3dba79e3	0.09105279
4	0x3e1e0618	0.15432012
5	0xbe469649	-0.19393267
6	0xbe17b213	-0.14814024
7	0xbd3aae93	-0.045576643
8	0x3d5be9f6	0.05368992
9	0x3e26d777	0.16293131
10	0xbe6c1b84	-0.23057371
11	0xbe02b180	-0.12763023
12	0xbd885a16	-0.066578075
13	0xbc673fb3	-0.014114308
14	0x3e181426	0.14851436
15	0xbe5e014f	-0.21680187
16	0xbe412225	-0.18860681
17	0xbddbe048	-0.10736138
18	0xbdb61e6c	-0.08892521
19	0x3df1fea3	0.11816146
20	0xbe804691	-0.25053838
21	0xbe22b98c	-0.15891093
22	0xbe0e7f39	-0.13915719
23	0xbdeb238e	-0.11481391
24	0x3b78bedd	0.003795556
25	0x3ddbaec7	0.107266955
26	0x3de0e8bb	0.1098189
27	0x3ca308d2	0.019901667
28	0xbd1fcf5a	-0.039016105
29	0xbe142013	-0.1446536
30	0x3e5b8aa6	0.21439609
31	0x3d4355ad	0.04768913
32	0x3d9e1e28	0.077205956
33	0xbd85352d	-0.06504283
34	0xbdb3e927	-0.08784705
35	0x3e5eb3aa	0.21748224
36	0x3dc7f98b	0.097643934
37	0x3e1330b7	0.14374052
38	0x3da247ac	0.079238266
39	0x3c0194da	0.007909024
40	0x3e0e521e	0.13898513
41	0x3dee8ab9	0.11647553
42	0xbcd930bc	-0.026512496
43	0x3d2e61c8	0.04257372
44	0x3c0ff60f	0.008786692
45	0x3e018b08	0.12650692
46	0x3e1d9b7b	0.15391342
47	0x3c9004d6	0.017580431
48	0xbd47ef0f	-0.04881197
49	0xbb928460	-0.0044713467
50	0x3c4da018	0.012550376
51	0xbc0504fe	-0.008118866
52	0xbd38b07f	-0.045090195
53	0xbd9b302a	-0.07577546
54	0xbdfdc61f	-0.12391304
55	0x3cfbc3a6	0.03073294
56	0x3d6c2e62	0.05766142
57	0xbcbd3e93	-0.023101127
58	0x3dc50c44	0.0962148
59	0xbbff52e6	-0.0077918647
60	0x3d865bb6	0.06560461
61	0x3b8def24	0.0043314863
62	0x3ddd4967	0.10805016
63	0x3db1c888	0.086808264
64	0xbd1cb079	-0.038254235
65	0x3d2651fc	0.04060553
66	0xbc75b344	-0.014996354
67	0x3d8b72df	0.06809019
68	0x3c390e00	0.011294842
69	0x3a064462	0.0005121884
70	0xbd04b3da	-0.032398082
71	0x3b3f8611	0.0029224197
72	0x3cfb6c32	0.03069124
73	0x3dd1bd08	0.10241133
74	0xbd9325d9	-0.07184953
75	0xbd2dc24a	-0.042421617
76	0xbdb30d13	-0.08742728
77	0xbd62109c	-0.05519162
78	0xbcaf9efa	-0.02143811
79	0xbc7c0cf4	-0.015383948
80	0xbdd33e2e	-0.10314594
81	0xbdd217a6	-0.10258417
82	0xbdc636a3	-0.0967839
83	0xbd34edda	-0.044172145
84	0xbdc97c1d	-0.09838126
85	0xbc2c4f6f	-0.010516985
86	0xba379d97	-0.0007004379
87	0x3bd23bb7	0.00641581
88	0x3cf19a50	0.029492527
89	0xbdbbb8c6	-0.09166102
90	0x3da95924	0.08268955
91	0x3ddba047	0.1072393
92	0x3d8db1f3	0.06918707
93	0xbaf24122	-0.0018482546
94	0x3dd8382c	0.10557589
95	0x3e022128	0.1270796
96	0x3dd7f786	0.10545258
97	0x3e06bfc6	0.13159093
98	0x3d90436a	0.07044108
99	0x3df4b7e2	0.11949135
100	0xbd2fc4ea	-0.0429124
101	0xbd137540	-0.03600049
102	0xbda26460	-0.07929301
103	0xbd2263b1	-0.039645854
104	0xbcd88528	-0.026430681
105	0x3d9a3c83	0.07531073
106	0xbbd975ce	-0.006636358
107	0xbdbb7ebf	-0.09155034
108	0x3cd3262d	0.02577504
109	0xbd93737a	-0.0719976
110	0x3d7ddbc1	0.06197715
111	0xbcdc0eb5	-0.026862482
112	0xbdb2048e	-0.08692275
113	0xbdcd6684	-0.10029319
114	0xbab53f84	-0.0013828133
115	0x3e13e49a	0.14442673
116	0x3d7596d9	0.059958313
117	0xbd9213c3	-0.071326755
118	0xbd29118a	-0.041276492
119	0xbd5316bc	-0.051535353
120	0x3e0d1fc0	0.13781643
121	0x3da75527	0.081705384
122	0xbd7447ac	-0.059638664
123	0xbc68fb5f	-0.014220088
124	0xbc9dfd51	-0.01928583
125	0xbd9bb3ec	-0.07602677
126	0xbd675a06	-0.056482337
127	0xba785b03	-0.0009474011
128	0xbcedcab8	-0.029027328
129	0xbce0dd1c	-0.027449183
130	0xbd25fa31	-0.040521804
131	0xbd660a8f	-0.056162413
132	0xbd25ea77	-0.040506806
133	0xbb9f0261	-0.0048525785
134	0xbd4c4a71	-0.04987568
135	0xbdf035ba	-0.117289975
136	0xbe1250be	-0.14288613
137	0x3b9e671e	0.00483407
138	0x3c952971	0.018208237
139	0x3d4153c0	0.04719901
140	0xbe18d475	-0.14924796
141	0xbcd83225	-0.026391098
142	0xbdaa602a	-0.08319123
143	0xbdd2c87d	-0.10292146
144	0xbc76377b	-0.015027876
145	0xbbf23726	-0.007391828
146	0xbd1f948e	-0.038960032
147	0xbc096bd6	-0.0083875265
148	0xbd3ac6cc	-0.045599744
149	0x3d4a7b68	0.049434096
150	0xbe098c9d	-0.13432546
151	0xbe32ef9b	-0.17474215
152	0x3e42c322	0.1901975
153	0x3e918734	0.28423464
154	0x3e48146a	0.19539037
155	0xbd9098cd	-0.070603944
156	0xbdf8d7a6	-0.12150507
157	0xbd304407	-0.043033626
158	0x3e1ec736	0.1550568
159	0x3e1e00b9	0.15429963
160	0x3c00a8fd	0.00785279
161	0xbdcde582	-0.10053541
162	0xbd8d736f	-0.06906783
163	0x3db0c7d3	0.086318634
164	0x3e27a1be	0.16370293
165	0xbd21399d	-0.039361585
166	0xbd0a329a	-0.033739664
167	0xbdc8df30	-0.09808195
168	0x3cc59801	0.024120333
169	0x3ddc0e2c	0.107448906
170	0xbdbefa59	-0.09325094
171	0xbd8c0783	-0.0683737
172	0xbdd86975	-0.10566989
173	0x3d3d50b8	0.046219558
174	0x3e1e6975	0.15469916
175	0xbdc2b4f8	-0.09507173
176	0xbd6e473f	-0.058173414
177	0xbddc6b5f	-0.10762667
178	0xbd77fe36	-0.06054517
179	0xbd5a4b2c	-0.053294346
180	0xbdf9db6a	-0.12200053
181	0xbd029725	-0.031882424
182	0xbe04ab6a	-0.12956014
183	0xbd6cfe73	-0.05785985
184	0x3c086b6d	0.008326394
185	0xbd5badc2	-0.053632505
186	0xbd0c682b	-0.03427903
187	0xbde25fa4	-0.11053398
188	0xbbd058b5	-0.006358231
189	0x3ca801ff	0.020508764
190	0xbd8f5d2c	-0.07000193
191	0xbe061ef7	-0.1309775
192	0xbdc15559	-0.09440107
193	0x3c507ef7	0.012725583
194	0x3ba3cd9b	0.0049988753
195	0xbcfb18c4	-0.030651458
196	0xbdc70889	-0.09718425
197	0xbe0956e3	-0.13412051
198	0xbd86bc42	-0.06578876
199	0xbcfeb288	-0.03109099
200	0x3c5e47f7	0.013566962
201	0x3d5078c0	0.050896406
202	0xbda43cd5	-0.08019415
203	0xbd14351d	-0.036183465
204	0x3d2ecdef	0.042676862
205	0x3b88c257	0.0041735577
206	0xbd9e5c9b	-0.07732507
207	0xbd839401	-0.06424714
208	0xbdc97612	-0.09836973
209	0x3ae9cf5b	0.0017838286
210	0xbd098e18	-0.033582777
211	0xbdfebdb1	-0.124385245
212	0xbd59a057	-0.053131428
213	0xbe2c63e8	-0.16834986
214	0xbcf65655	-0.030070463
215	0xbd8b7a10	-0.06810391
216	0xbe03f308	-0.12885678
217	0xbde7bb7a	-0.11315055
218	0xbdb02b78	-0.08602041
219	0x3c3d43f7	0.011551849
220	0xbd317ca7	-0.04333177
221	0xbdd2a5d5	-0.10285536
222	0xbdaa5981	-0.08317853
223	0xbcb6a394	-0.022294797
224	0xbe005fed	-0.12536593
225	0x3d8f817f	0.07007121
226	0x3d8fac46	0.070152804
227	0x3d03a0c8	0.032135755
228	0x3d4280a9	0.04748598
229	0xbccfe0f3	-0.025375819
230	0x3d31417e	0.04327535
231	0xbd5d05df	-0.053960677
232	0x3bea4897	0.0071497667
233	0xbe02852a	-0.1274611
234	0xbd8faeea	-0.07015784
235	0xba40c3ed	-0.0007353414
236	0xbd352a13	-0.04422958
237	0xbdc912e8	-0.09818059
238	0xbc897f54	-0.016784348
239	0xbe1ec695	-0.1550544
240	0x3a05a467	0.0005098045
241	0xbe024f26	-0.12725505
242	0xbd998baa	-0.07497342
243	0xbda66c83	-0.08126166
244	0xbd88adc7	-0.066737704
245	0xbdc22ca8	-0.09481174
246	0xbd6d4994	-0.057931498
247	0xbdb22f65	-0.08700446
248	0xbde29fdc	-0.11065647
249	0xbc51e49a	-0.0128108505
250	0xbb8d204e	-0.0043068295
251	0xbd66eac8	-0.05637625
252	0xbd34688d	-0.04404502
253	0xbe1f84ba	-0.15577975
254	0xbdcd1443	-0.1001363
255	0x3c2f147e	0.010686038

conv2.bias f4 [16]
0	0x3dc83d92	0.097773686
1	0x3c1ce756	0.009576639
2	0xbed892c5	-0.42299476
3	0x3f41a5e4	0.75643754
4	0x3ea2a0e9	0.3176339
5	0x3f3bdd5a	0.7338463
6	0xbf1ea867	-0.6197571
7	0x3d3a7f8b	0.04553179
8	0xbb213743	-0.002459959
9	0xbeda6b3e	-0.42659944
10	0x3bb2675a	0.0054444494
11	0x3ea049f3	0.3130642
12	0x3f2802cd	0.65629274
13	0x3f370f18	0.71507406
14	0xbe102be3	-0.14079241
15	0xbd5dc9f6	-0.054147683

fc1.weight f4 [120, 400]
0	0xbc3a7107	-0.011379487
1	0x3ced0e2b	0.02893742
2	0xbd7d139b	-0.061786275
3	0xbd1f4b0f	-0.03888994
4	0xbc7fa7ca	-0.015603969
5	0x3d0fd015	0.035110552
6	0x3d38b11e	0.045090787
7	0x3c8167f8	0.015796646
8	0xbbd44afe	-0.0064786663
9	0xbd10a080	-0.035309315
10	0xbb01bc12	-0.0019795937
11	0x3c4fe1f2	0.012688147
12	0x3bd77080	0.0065746903
13	0xbc9a5fe2	-0.018844549
14	0x3d30dfdb	0.043182235
15	0x3d8f155c	0.06986496
16	0x3d768e4c	0.0601943
17	0x3d59b90e	0.053154998
18	0xbc417e1f	-0.011809855
19	0xbce15300	-0.027505398
20	0x3df9d502	0.12198831
21	0x3daa855a	0.08326216
22	0xbc4c83dd	-0.0124826105
23	0x3d850cdd	0.06496594
24	0x3d51dfc6	0.051238798
25	0xbd5eb9a7	-0.05437627
26	0x3ca663ef	0.020311324
27	0x3d9c334a	0.0762697
28	0x3da346ba	0.079724744
29	0x3df8aaf3	0.12141981
30	0xbd558810	-0.052131712
31	0xbd3d04a4	-0.046147004
32	0x3d55af53	0.052169155
33	0x3da33b85	0.07970337
34	0x3d6e63dc	0.058200702
35	0xbd9c2630	-0.07624471
36	0xbc1420cb	-0.009041022
37	0x3d6e8b5e	0.05823838
38	0x3da46532	0.08027114
39	0x3d457c37	0.048214164
40	0xbd9241de	-0.071414694
41	0xbd669a68	-0.056299597
42	0xbbbe217e	-0.0058023324
43	0x3cdeeef3	0.02721355
44	0x3c248316	0.010041019
45	0xbd8f07aa	-0.06983884
46	0xbd1177fb	-0.035514813
47	0x3d096112	0.03353984
48	0x3b5b19c4	0.0033432106
49	0xbcb20bb1	-0.02173409
50	0xbd8385cb	-0.06422003
51	0xbd8d4fa7	-0.06899958
52	0xbdd132da	-0.10214777
53	0xbd0ddce2	-0.03463448
54	0x3e06c2ba	0.1316022
55	0xbd851946	-0.06498961
56	0x3d1e48b2	0.038643546
57	0x3bd2e5dc	0.006436093
58	0x3c1b3047	0.009471959
59	0xbc195d5f	-0.00936064
60	0xbcf61df8	-0.030043587
61	0xbd12944c	-0.03578596
62	0xbba8d5a7	-0.0051524225
63	0x3d04f5a9	0.032460842
64	0xbb74ac7a	-0.003733425
65	0xbd94019a	-0.07226868
66	0xbb5642ca	-0.0032693618
67	0xbd0d9472	-0.034565397
68	0xbd648791	-0.05579335
69	0xbd2e1a67	-0.042505648
70	0xbdc7aeec	-0.097501606
71	0xbd12ad05	-0.035809536
72	0xbd982981	-0.07429791
73	0xbd1d641f	-0.03842556
74	0xbc849fa0	-0.016189396
75	0x3c5019ea	0.012701491
76	0xbab0cec2	-0.0013489353
77	0xbc080ce4	-0.008303855
78	0x3d1c29a7	0.03812566
79	0x3d9c0b6a	0.076193646
80	0xbd54b088	-0.051926166
81	0xbc171654	-0.009221632
82	0x3c0705c2	0.008241119
83	0x3d98af64	0.07455328
84	0x3d23b8cd	0.03997116
85	0x3ca50953	0.020146048
86	0x3c738589	0.01486338
87	0x3da1357b	0.07871529
88	0x3db5e56b	0.08881649
89	0x3d84f68f	0.0649234
90	0x3b108994	0.002205466
91	0x3ccdfe34	0.025145628
92	0xbd2146cc	-0.039374158
93	0x3d30a67c	0.043127522
94	0x3d843796	0.06455915
95	0xbc0bba2e	-0.008528275
96	0x3cb5beb4	0.02218566
97	0x3d2b3167	0.04179516
98	0x3ccaa74d	0.024737978
99	0xbc55c759	-0.0130480165
100	0xbdc73ae2	-0.09728028
101	0xbd3587a5	-0.044318814
102	0x3cf916f9	0.030406462
103	0x3cf450f4	0.029823758
104	0x3d4176e8	0.04723254
105	0xbc9a5398	-0.018838689
106	0xbd63134d	-0.05543833
107	0xbce30d68	-0.027716354
108	0xbcfbc6fb	-0.03073453
109	0xbca3d205	-0.019997606
110	0xbcef18e2	-0.02918667
111	0xbd22b126	-0.039719723
112	0x3b993ed1	0.0046766778
113	0x3cefce5f	0.02927321
114	0xbc2cd6bd	-0.0105492445
115	0xbcbaf472	-0.022821639
116	0xbd233b80	-0.039851665
117	0xbd004354	-0.03131421
118	0xbd04a0d1	-0.03237993
119	0xbd0456ea	-0.03230945
120	0xbd1129bb	-0.035440188
121	0xbd515a60	-0.05111158
122	0xbcf649c9	-0.03006448
123	0x3c8b1cd0	0.016981512
124	0xbcdda737	-0.027057273
125	0xbb992724	-0.0046738554
126	0x3d780ebe	0.060560934
127	0xbd0e2c11	-0.034709994
128	0xbcf4d165	-0.029885003
129	0xba4c2c17	-0.00077885523
130	0x3d0899e5	0.03334989
131	0x3d13dbf0	0.03609842
132	0x3d000418	0.031253904
133	0xbd9a393c	-0.07530448
134	0x3bd23bd7	0.006415825
135	0x3de644b4	0.11243573
136	0x3d9e3258	0.07724446
137	0xbbc275eb	-0.005934467
138	0xbda31bc5	-0.07964281
139	0x3d01cc0f	0.031688746
140	0x3db89014	0.09011856
141	0x3d1e239e	0.038608186
142	0x3cc59066	0.024116706
143	0x3c8e82b1	0.017396303
144	0x3d486771	0.048926774
145	0x3d4272ab	0.047472637
146	0xbc811782	-0.01575828
147	0x38025fe7	3.108373e-05
148	0x3d501471	0.050800744
149	0x3d435aef	0.047694143
150	0xbdb1ba79	-0.08678145
151	0xbc95f467	-0.018305017
152	0x3dad1dc1	0.08452941
153	0x3d636137	0.055512633
154	0xbdccfee9	-0.10009558
155	0xbd730300	-0.059329033
156	0x3d978bad	0.07399688
157	0x3d30d1b1	0.043168727
158	0xbc8dd1b9	-0.017311918
159	0xbd9ea11b	-0.07745572
160	0xbd0a56a7	-0.033774044
161	0x3c0e5de1	0.008689375
162	0xbbda31a9	-0.006658752
163	0xbd114b09	-0.03547195
164	0xbda3561c	-0.079754084
165	0xbdb80d05	-0.08986858
166	0x3d0efc29	0.034908447
167	0x3cb2ac7e	0.021810766
168	0x3d27d24d	0.040972043
169	0xbbc133c4	-0.0058960635
170	0xbd969d19	-0.07354183
171	0xbcb011a9	-0.021492796
172	0x3bb00c86	0.0053725867
173	0x3d903f86	0.07043366
174	0xbd471873	-0.0486073
175	0xbc441afb	-0.011969323
176	0x3d1da123	0.03848375
177	0x3c8677bc	0.016414516
178	0xbcb8aa79	-0.022542225
179	0xbbab7c9f	-0.005233362
180	0x3c82e7a2	0.015979592
181	0xbcbac98a	-0.02280118
182	0x3bd2aed8	0.0064295344
183	0x3c79bfc9	0.015243479
184	0x3bc38df5	0.0059678503
185	0x3c6692e2	0.0140731055
186	0x3ce7a554	0.028277077
187	0x3b840b8d	0.0040296973
188	0xbc42e614	-0.011895675
189	0xbd3145d1	-0.043279473
190	0x3a0a09c6	0.00052657386
191	0xbcbc91aa	-0.023018677
192	0xbcb20534	-0.021730997
193	0xbcc545ef	-0.024081198
194	0xbd8c72ae	-0.06857811
195	0x3bf924c3	0.0076032593
196	0x3c4e5a3a	0.012594754
197	0x3c55121f	0.013004809
198	0xbd2612cd	-0.040545274
199	0xbb4a6471	-0.0030882622
200	0xbd1167eb	-0.035499495
201	0x3c8e88cb	0.017399212
202	0xbd0e8ce4	-0.034802333
203	0x3c6e701b	0.014553095
204	0x3c1b68d5	0.009485443
205	0xbcfdc1d4	-0.030976214
206	0xbc3005e0	-0.010743588
207	0xbc8b898c	-0.01703336
208	0xbc6aa763	-0.014322135
209	0xbc5598c3	-0.0130369095
210	0xbd898f9b	-0.06716844
211	0x3849485e	4.798953e-05
212	0xbce820dc	-0.028335981
213	0x3c6c2ef5	0.014415492
214	0xbd7b1246	-0.061296724
215	0xbd1fefe9	-0.039047156
216	0xbd2a7c56	-0.041622482
217	0xbd1367fa	-0.03598783
218	0xbd1a8412	-0.03772361
219	0xbdec0c94	-0.115258366
220	0x3bf3dbcc	0.0074419733
221	0xbd8d11da	-0.068881705
222	0xbd0c5441	-0.03426004
223	0xbd1d6e79	-0.038435433
224	0xbd83b938	-0.06431812
225	0xbd77e0f0	-0.06051725
226	0xbca7829a	-0.020448018
227	0x3bf87602	0.007582427
228	0x3d622144	0.055207506
229	0x3c9c1b90	0.019056112
230	0xbc2936fa	-0.010328049
231	0x3c9b7d3c	0.018980615
232	0xbd8436ae	-0.06455742
233	0xbd03e85b	-0.032204013
234	0xbcec7b2c	-0.028867327
235	0x3bbda11b	0.0057870275
236	0xbd449ea1	-0.048002843
237	0xbd24546f	-0.040119585
238	0xbdacf671	-0.084454425
239	0xbd96427a	-0.07336898
240	0xbacb2ed7	-0.001550163
241	0x3cc2c0c3	0.023773557
242	0xbd41710f	-0.04722696
243	0x3d08aa63	0.03336562
244	0x3be31f4b	0.0069312206
245	0xbd0026d2	-0.031287022
246	0xbd1d55d2	-0.038411923
247	0x3c6b2ca9	0.0143539095
248	0x3d8450ec	0.06460747
249	0x3d4695ae	0.04848259
250	0xbce67cca	-0.028135676
251	0x3d53c1c1	0.05169845
252	0x3b909029	0.0044117165
253	0xbb81f15e	-0.003965541
254	0xbdb0a119	-0.08624477
255	0x3ca65f61	0.020309152

fc1.bias f4 [120]
0	0xbbb05946	-0.005381736
1	0x39263768	0.00015851634
2	0x3d210c8d	0.03931861
3	0x3da54063	0.080689214
4	0xbd8b77ec	-0.06809983
5	0x3dda3d0f	0.10656177
6	0x3d9f0063	0.07763746
7	0x3e4f4978	0.2024287
8	0xbd2c7f7b	-0.042113762
9	0x3d615ff7	0.05502316
10	0xbde97f2f	-0.114012115
11	0x3bab87d3	0.0052346974
12	0x3db0d853	0.086350106
13	0xbd1c115f	-0.038102504
14	0xbc4164ff	-0.0118038645
15	0x3d07806a	0.03308145
16	0xbdb75860	-0.08952403
17	0xbcc2c0d7	-0.023773594
18	0xbb54bc2b	-0.003246079
19	0x3ddfc52b	0.10926279
20	0xbafee172	-0.001944585
21	0x3e0e9f53	0.13927965
22	0xbdb0404f	-0.08606016
23	0xbd75e5d1	-0.060033623
24	0xbcc3003d	-0.023803825
25	0x3d50ea5e	0.05100476
26	0xbd42ea3f	-0.047586676
27	0x3dab4688	0.08363062
28	0xbc2398a1	-0.00998512
29	0xbbc54053	-0.006019631
30	0xbd528d7e	-0.05140447
31	0x3d894f11	0.06704534
32	0x3dee6a7c	0.11641404
33	0x3cfed240	0.031106114
34	0xbba41158	-0.0050069503
35	0xbcb336c6	-0.021876704
36	0xbcd70a79	-0.026250111
37	0x3d95dd86	0.07317643
38	0x3d59efe6	0.0532073
39	0xbc05b6d7	-0.008161268
40	0xbcd1418c	-0.02554395
41	0x3ea3ae07	0.3196871
42	0x3dd2296c	0.10261807
43	0x3e0df33e	0.13862321
44	0x3ddb825d	0.10718224
45	0xbc92b652	-0.017909203
46	0xbcdf4faf	-0.027259676
47	0xbba86ea8	-0.0051401444
48	0x3cad370b	0.02114441
49	0xbcffcca5	-0.031225512
50	0x3d47974b	0.04872827
51	0xbd204d72	-0.039136358
52	0xbc3d88e6	-0.011568284
53	0x3cd26ede	0.025687631
54	0xbcd064a7	-0.02543862
55	0x3cec08df	0.028812824
56	0x3cbf93e6	0.023385953
57	0x3de79ec7	0.11309581
58	0x3ca04a80	0.019566774
59	0x3d1921dc	0.037385806
60	0xbd0e0ec3	-0.034682047
61	0xbd1810dc	-0.037125453
62	0xbe0bb4c7	-0.1364318
63	0x3e26b609	0.16280378
64	0xbd141974	-0.036157086
65	0xbb3d5710	-0.0028891005
66	0x3c91486b	0.017734727
67	0x3d278219	0.040895555
68	0x3d00159e	0.031270616
69	0x3d975596	0.07389371
70	0x3c091dd5	0.008368929
71	0xbda89020	-0.08230615
72	0x3c972f3c	0.01845514
73	0xbd17f72d	-0.03710096
74	0x3d489208	0.04896739
75	0x3c7f5a99	0.015585565
76	0x3d078e71	0.033094827
77	0x3c96d20a	0.018410701
78	0xbd1f5b01	-0.038905147
79	0xbd463c04	-0.04839708
80	0xbd74db2a	-0.059779324
81	0xbd6f10d9	-0.058365677
82	0x3d9ad724	0.07560566
83	0x3de94d85	0.11391739
84	0x3d909df6	0.07061379
85	0xbae9d9f8	-0.0017841449
86	0x3dc6e1c7	0.09711032
87	0xbc5d53b8	-0.01350873
88	0x3db2d3c2	0.08731796
89	0x3d815a16	0.06316011
90	0x3d8cfb83	0.068839096
91	0xbc24f5b7	-0.010068349
92	0x3cf901cb	0.030396363
93	0x3d666ef1	0.056258146
94	0xbc929103	-0.017891413
95	0x3d7070da	0.058701374
96	0xbc97f26d	-0.018548215
97	0xbd33664f	-0.04379874
98	0x3d2e8712	0.04260928
99	0xbcb61d7b	-0.022230854
100	0x3dce8393	0.100836895
101	0xbbb3b249	-0.0054838997
102	0xbe009243	-0.12555794
103	0x3d6b0981	0.05738211
104	0xbd4d11fc	-0.05006598
105	0x3d02bd99	0.031919096
106	0xbc7d9944	-0.015478436
107	0x3d3c436f	0.045962747
108	0xbda15381	-0.07877255
109	0x3dfc7b57	0.12328213
110	0x3bd257a2	0.006419138
111	0xbcae8ea5	-0.021308253
112	0xbc47ef44	-0.012203041
113	0xbc0a67aa	-0.008447567
114	0x3d32e974	0.04367967
115	0x3ce79565	0.028269479
116	0x3d876b74	0.06612292
117	0x3c578467	0.013154126
118	0x3c46bc3e	0.012129841
119	0x3d0d0c00	0.034435272

fc2.weight f4 [84, 120]
0	0x3db2387a	0.08702178
1	0xbcf6f531	-0.030146213
2	0xbb21e208	-0.0024701376
3	0x3cd3bbc2	0.025846366
4	0xbd4e5071	-0.050369684
5	0x3dd4751b	0.103738986
6	0x3daa1167	0.083041005
7	0xbcf39bf3	-0.029737448
8	0xbdb7981c	-0.089645594
9	0x3cbc6294	0.022996224
10	0xbdba2d3c	-0.09090659
11	0x3d5588f9	0.05213258
12	0x3c5102d5	0.012757023
13	0xbdac16a2	-0.08402754
14	0xbe092a3c	-0.13395017
15	0xbc1b011a	-0.009460712
16	0xbe2406e2	-0.1601825
17	0xbda6ad69	-0.08138544
18	0xbd70471c	-0.058661565
19	0xbb9c3410	-0.0047669485
20	0xbdc033a6	-0.09384851
21	0x3c505bef	0.012717231
22	0xbe1ab3f4	-0.15107709
23	0x3de0f5a8	0.10984355
24	0xbd81e31b	-0.06342145
25	0xbdaf1bdf	-0.08550238
26	0xbe2cf552	-0.16890457
27	0x3c418d06	0.011813408
28	0xbd845674	-0.06461802
29	0xbca3cefd	-0.01999616
30	0xbcd53d23	-0.026030129
31	0x3de680bc	0.11255023
32	0x3cfb0fbf	0.030647157
33	0xbc619857	-0.013769231
34	0x3d7a4983	0.061105262
35	0xbc285574	-0.01027428
36	0xbce21af9	-0.027600752
37	0xbd3c0c94	-0.045910433
38	0x3bd03bc3	0.0063547804
39	0x3be4fb9a	0.006988001
40	0x3d3bfe4f	0.045896824
41	0x3dcf2b56	0.101156875
42	0x3d0a02c6	0.03369405
43	0xbc98522d	-0.018593872
44	0x3c3c9528	0.011510171
45	0x3a519652	0.0007995117
46	0x3cbd6e99	0.023124026
47	0x3c05c895	0.008165498
48	0xbe3f8654	-0.18703586
49	0xbdc54498	-0.09632224
50	0xbc29e947	-0.010370559
51	0x3c9a677d	0.018848175
52	0x3d295a11	0.04134566
53	0x3d8818bb	0.06645342
54	0x3ba90cc0	0.0051589906
55	0x3b8a0a8a	0.004212682
56	0x3dba535e	0.09097932
57	0xbac27939	-0.0014837153
58	0x3be0bcf2	0.0068584615
59	0x3d67334b	0.0564454
60	0xbd39ee20	-0.04539311
61	0x3c74a3ab	0.0149316
62	0xbdd369bd	-0.10322902
63	0xbd9ae4a0	-0.07563138
64	0xbd24639b	-0.040134054
65	0x3ba1053f	0.0049139555
66	0xbce07d98	-0.027403638
67	0xbce3a50b	-0.02778866
68	0xbd847437	-0.06467479
69	0x3cea4ee8	0.028602079
70	0x3d890ef9	0.06692309
71	0xbdb16183	-0.08661177
72	0xbd5b09c5	-0.053476114
73	0xbd284e85	-0.041090507
74	0xbd020663	-0.031744372
75	0x3c873be3	0.016508048
76	0x3d8fb2a2	0.070164934
77	0xbdd3544d	-0.103188135
78	0xbd52dccc	-0.0514801
79	0xbdbebee6	-0.09313755
80	0xbd80bb05	-0.06285671
81	0x3d18a74e	0.03726893
82	0x3da04ae6	0.07826786
83	0xbc78c00e	-0.015182508
84	0x3ced0181	0.028931381
85	0xbd115f22	-0.035491116
86	0xbc0a0d35	-0.008426
87	0xbe0dfbe9	-0.13865627
88	0x3e0f97f4	0.1402281
89	0xbd775f98	-0.0603939
90	0x3cc0e449	0.023546355
91	0xbcee7c81	-0.029112102
92	0xbcfbbbd3	-0.03072921
93	0xbd994aca	-0.07484968
94	0xbd8910f4	-0.06692687
95	0xbd234121	-0.039857034
96	0xbd8ec812	-0.06971754
97	0x3b915d69	0.004436184
98	0xbd53438c	-0.05157809
99	0xbe293028	-0.16522276
100	0x3a80c251	0.0009823536
101	0xbc98f9aa	-0.018673737
102	0x3cd09b45	0.025464663
103	0xbdbc6584	-0.0919905
104	0xbd6112e6	-0.054949664
105	0xbcc8c0d4	-0.02450601
106	0xbd10ce93	-0.035353255
107	0x3c7419ab	0.014898698
108	0xbdb9408b	-0.09045514
109	0x3d15d346	0.03657844
110	0x3d8e86cf	0.069593064
111	0xbdb928b7	-0.09040969
112	0x3d076381	0.03305388
113	0xbdf5cf12	-0.12002386
114	0x3d6246e5	0.05524339
115	0x3d77d56c	0.06050627
116	0xbda00904	-0.078142196
117	0x3bea97c2	0.007159204
118	0x3dbdfbe7	0.09276562
119	0x3dc310b4	0.0952467
120	0x3c6c00a8	0.014404453
121	0x3d866b08	0.06563383
122	0xbcf7c5ff	-0.03024578
123	0x3ccfe2e0	0.025376737
124	0xbd1dcaa8	-0.038523346
125	0x3d605c63	0.054775607
126	0xbb357971	-0.0027690793
127	0xbd8ed629	-0.069744416
128	0xbd612965	-0.054971118
129	0x3d16709f	0.036728498
130	0xbc8ed54d	-0.017435694
131	0x3daac0c0	0.083375454
132	0x3d60a2f1	0.054842893
133	0x3b5ec955	0.0033994515
134	0xbced11a7	-0.028939081
135	0xbcc4bb16	-0.02401499
136	0x3d6fb3ee	0.058521204
137	0x3d258209	0.040407214
138	0xbdb1dffa	-0.08685298
139	0x3d556b1b	0.052104097
140	0x3c7dd319	0.015492224
141	0x3d87815c	0.0661647
142	0xbcae19c6	-0.021252524
143	0x3cbe5456	0.023233574
144	0xbddca36a	-0.10773356
145	0x3cbb518f	0.022866039
146	0xbd344933	-0.04401512
147	0xbdce66fb	-0.10078236
148	0xbd359b3f	-0.044337507
149	0x3da60d29	0.08107979
150	0xbd0b4ea5	-0.03401055
151	0x3d85d9ea	0.065357044
152	0x3bf2b01e	0.0074062487
153	0x3d19ad2a	0.037518658
154	0x3d745aca	0.059656896
155	0xbd089e4f	-0.0333541
156	0xbc8db129	-0.01729639
157	0xbdd91d3d	-0.1060128
158	0xbbe11009	-0.0068683666
159	0xbcb07040	-0.0215379
160	0xbd882dd0	-0.06649363
161	0x3c95e94d	0.018299723
162	0x3d240c65	0.040050883
163	0x3bb7e606	0.0056121377
164	0xbcc1e834	-0.023670293
165	0xbdb958f1	-0.09050167
166	0x3d73854b	0.05945329
167	0x3d85b12c	0.065279335
168	0xbd419d7e	-0.047269337
169	0x3d22b684	0.03972484
170	0x3a93c217	0.0011273053
171	0xbd04548a	-0.032307185
172	0x3d870593	0.0659286
173	0x3da4f6d4	0.08054891
174	0x3da64faa	0.081206635
175	0xbc6279d0	-0.013822988
176	0xbd792f72	-0.060836263
177	0xbb488e88	-0.0030602533
178	0x3a885f4f	0.0010404381
179	0xbd5f5069	-0.054520044
180	0x3d574bd6	0.052562557
181	0xbda594d6	-0.08085029
182	0x3c0b9f3e	0.008521853
183	0xbd145695	-0.036215384
184	0xbd87ea20	-0.06636453
185	0xbca99e0a	-0.020705242
186	0xbd53ecae	-0.051739387
187	0xbdbfc5b5	-0.093638815
188	0x3d666cfe	0.056256287
189	0x3c11c453	0.008896905
190	0x3d3ca527	0.04605594
191	0xbd3d8d62	-0.04627741
192	0x3d5f857f	0.05457067
193	0xbc9b8c9e	-0.01898795
194	0xbd5a2dd1	-0.05326635
195	0x3db86c7f	0.09005069
196	0xbd87dbbd	-0.066337086
197	0x3be6c19a	0.007042122
198	0x3d854a2c	0.06508288
199	0xbbbd0aba	-0.005769101
200	0x3dcf15fd	0.10111616
201	0xbd721242	-0.059099443
202	0x3d472572	0.048619695
203	0x3da4d19b	0.080477916
204	0xbd4a880a	-0.049446143
205	0x3d90981e	0.07060264
206	0xbd8ea38e	-0.06964789
207	0xbd6a87d5	-0.057258446
208	0x3d147a2d	0.03624933
209	0x3d2678ad	0.04064243
210	0xbdc28047	-0.09497123
211	0xbc2397a5	-0.009984885
212	0xbd72f3f6	-0.05931469
213	0x3be38e21	0.0069444333
214	0x3be31fb2	0.0069312686
215	0x3d877ccf	0.06615602
216	0x3db510c1	0.08841086
217	0xbbcb89e6	-0.006211507
218	0xbd34c86f	-0.04413646
219	0x3d0e845d	0.0347942
220	0x3d0fe896	0.03513392
221	0x3d23a383	0.03995086
222	0xbd8142ac	-0.06311545
223	0x3d04d926	0.03243365
224	0xbd1c4b3f	-0.038157698
225	0x3c066404	0.0082025565
226	0x3d90cbac	0.07070097
227	0x3cb4cc7b	0.02207016
228	0x3d943985	0.072375335
229	0xbd9f1670	-0.077679515
230	0x3b4e3508	0.0031464715
231	0xbd07a454	-0.0331157
232	0x3d07f7cd	0.033195306
233	0x3d670fc8	0.056411535
234	0xbd66ee35	-0.056379516
235	0xbda7dac6	-0.081960246
236	0x3b12a51c	0.0022376245
237	0xbca368ac	-0.019947372
238	0xbda7eac0	-0.08199072
239	0xbd03f2c6	-0.03221395
240	0xbde395c2	-0.111125484
241	0xbd8f820e	-0.07007228
242	0x3cd4b718	0.025966212
243	0x3dbd199c	0.092334
244	0xbd82c44b	-0.06385096
245	0x3dddfa45	0.10838751
246	0xbc25fd3c	-0.010131177
247	0xbd229f9b	-0.039702993
248	0xbd80f6b2	-0.062970534
249	0x3cc2ebe7	0.023794128
250	0xbd84b604	-0.06480029
251	0x3db68304	0.08911708
252	0xbd68399d	-0.05669557
253	0x3da27dcc	0.0793415
254	0x3d84e260	0.0648849
255	0x3de45a15	0.11149994

fc2.bias f4 [84]
0	0x3ea6ae76	0.32554978
1	0xbd157dec	-0.03649704
2	0xbb8546ae	-0.0040672636
3	0x3e68e061	0.22741844
4	0x3d6e8698	0.058233827
5	0x3e06c41e	0.1316075
6	0x3c82b529	0.015955525
7	0x3e73e06f	0.23816083
8	0xbbcc7dd2	-0.006240585
9	0xbd0aa66b	-0.033850115
10	0x3df26cfd	0.11837194
11	0x3e88d85e	0.26727575
12	0x3eb8f39e	0.36123365
13	0x3c9936bf	0.018702863
14	0x3dd8ae94	0.10580173
15	0x3dd0fe45	0.10204748
16	0x3caa62c8	0.020799056
17	0xbd59d52d	-0.053181816
18	0xbdee1f76	-0.116270944
19	0xbd009dde	-0.031400554
20	0x3d649f3b	0.055815917
21	0xbd60c862	-0.0548786
22	0xbdb19047	-0.08670097
23	0x3e8a0828	0.26959348
24	0xbded752c	-0.115946144
25	0xbd348f89	-0.0440822
26	0x3e09b05c	0.13446182
27	0xbd45131d	-0.04811393
28	0xbd544724	-0.051825657
29	0x3e5f03c9	0.21778788
30	0xbb8e7563	-0.0043474897
31	0x3e30ef87	0.17278872
32	0xbd23a757	-0.03995451
33	0xbc9e5602	-0.019328121
34	0xbd87c33c	-0.06629035
35	0x3db8e453	0.090279244
36	0x3ca477cf	0.02007666
37	0x3e03a0a6	0.12854251
38	0x3d5afb1d	0.053462137
39	0xbc800ecd	-0.015632058
40	0x3e8c4138	0.27393508
41	0x3e36561e	0.17806289
42	0x3e08bdb5	0.13353617
43	0xbcfcfc2a	-0.03088196
44	0xbdb910c3	-0.090364
45	0xbdbb1abe	-0.0913596
46	0xbd17fef9	-0.037108395
47	0x3d872bc6	0.06600146
48	0x3e81a0da	0.25318033
49	0x3e7fe9e2	0.24991563
50	0xbd7e887f	-0.06214189
51	0x3df1fc26	0.118156716
52	0x3df70774	0.120619684
53	0x3e43ecf4	0.19133359
54	0xbd032378	-0.032016248
55	0xbda4e00a	-0.080505446
56	0x3cfd56ba	0.030925144
57	0x3c916b09	0.017751234
58	0xbdea280f	-0.11433422
59	0xbc98d515	-0.018656293
60	0xbcca8c5e	-0.024725135
61	0x3dcaaa09	0.09895713
62	0x3e3b1215	0.18268616
63	0xbd961886	-0.07328896
64	0xbda93b7c	-0.08263299
65	0x3d1fecdf	0.039044257
66	0xbd195ed4	-0.03744395
67	0x3e41a160	0.18909216
68	0x3d8abb69	0.06774027
69	0xbcdf7779	-0.027278649
70	0x3cac279c	0.021014981
71	0x3cd0356d	0.0254161
72	0x3eaba00a	0.33520538
73	0x3cd2ec6e	0.025747504
74	0x3e4177b2	0.18893316
75	0xbe47a6b7	-0.1949719
76	0x3db03a64	0.08604887
77	0x3ce14036	0.027496438
78	0xbd59c263	-0.053163897
79	0xbd8c6aea	-0.0685633
80	0xbd147e8f	-0.03625351
81	0xbdb52e89	-0.088467665
82	0xbc314661	-0.010820002
83	0x3e549ca7	0.20762883

fc3.weight f4 [10, 84]
0	0xbe430420	-0.19044542
1	0xbe1fcaa2	-0.15604642
2	0x3e183e65	0.14867552
3	0xbe33ac13	-0.1754611
4	0xbcd67413	-0.026178395
5	0xbc969d6b	-0.01838561
6	0x3e7c3a75	0.24631675
7	0x3cccedba	0.0250157
8	0x3d6f0071	0.05835003
9	0xbdbe33a5	-0.09287194
10	0xbcbf2560	-0.023333251
11	0xbd8f15d3	-0.069865845
12	0xbe0a94a2	-0.13533261
13	0x3e1e4133	0.15454559
14	0x3cee1c8f	0.029066352
15	0xbe372455	-0.17884953
16	0x3db36383	0.08759215
17	0xbd9c161f	-0.07621407
18	0xbc526fc3	-0.012844029
19	0x3d7a2f5d	0.061080325
20	0x3e44c11d	0.19214292
21	0x3db031c9	0.08603246
22	0x39a87725	0.00032132227
23	0x3e33d5af	0.17561983
24	0x3d4c3ce5	0.04986276
25	0xbdff60c5	-0.12469629
26	0x3e3cbc91	0.18431307
27	0x3dc680d9	0.096925445
28	0x3daa5e4e	0.083187684
29	0xbda9f03a	-0.08297773
30	0x3c9d4c19	0.019201325
31	0x3df0eabb	0.11763521
32	0x3e1fbdbe	0.15599725
33	0x3d8595e4	0.0652273
34	0xbdd20e31	-0.10256613
35	0xbcba08ba	-0.02270924
36	0xbd67d498	-0.05659923
37	0x3e3398d1	0.17538764
38	0xbdcf6122	-0.101259485
39	0x3da775a0	0.08176732
40	0x3e81d965	0.2536117
41	0xbdb1676a	-0.08662303
42	0x3e813ad4	0.25240195
43	0xbdd58c5e	-0.104271635
44	0xbcb5d234	-0.02219496
45	0x3d5f34bd	0.054493655
46	0xbdbaf881	-0.091294296
47	0xbe6f6c3d	-0.23381133
48	0xbe129975	-0.14316352
49	0xbd08f28f	-0.033434447
50	0xbd4c3202	-0.04985238
51	0xbc95a0fd	-0.018265242
52	0xbc37fbf8	-0.011229508
53	0xbcbcd7ce	-0.023052122
54	0x3e4e1444	0.20124918
55	0xbd4a88be	-0.049446814
56	0x3e9c337a	0.30508024
57	0x3e502d9c	0.20329899
58	0x3ce1280a	0.027484912
59	0xbcdc0a22	-0.0268603
60	0xbd655cd0	-0.055996716
61	0x3e8163e5	0.25271526
62	0x3e12a21b	0.14319651
63	0x3d76ca9e	0.060251825
64	0xbdb56da0	-0.088588
65	0x3e1b31c6	0.15155706
66	0xbdcc31ac	-0.09970412
67	0x3b4e5afe	0.003148734
68	0x3e1e5c4c	0.15464896
69	0xbcb91d1f	-0.022596894
70	0xbd37cf90	-0.04487568
71	0x3d95acc7	0.07308345
72	0x3e1d7ffd	0.15380855
73	0xbde7d099	-0.11319084
74	0xbe782c4a	-0.24235645
75	0x3e038917	0.12845264
76	0xbd1d33f1	-0.038379613
77	0xbc0151a9	-0.007893004
78	0xbe3ad317	-0.18244587
79	0x3e0937b6	0.13400158
80	0x3db03515	0.086038746
81	0x3c88fa6e	0.016720977
82	0x3d43f2d8	0.047839016
83	0xbe65529d	-0.22394796
84	0xbe92edf6	-0.28697175
85	0x39888410	0.00026038336
86	0x3d2594b4	0.040425017
87	0xbe87bd8e	-0.26511806
88	0x3dd1d420	0.10245538
89	0xbe2cc12d	-0.16870566
90	0xbdec82d4	-0.11548391
91	0x3c7fd148	0.015613861
92	0x3b243219	0.0025054275
93	0xba7c1c5a	-0.0009617262
94	0x3e120374	0.1425913
95	0xbdd85640	-0.10563326
96	0xbd8cdde8	-0.06878263
97	0xbdb424f5	-0.087961115
98	0xbcb44b6f	-0.022008626
99	0xbcd68bea	-0.026189763
100	0x39ca9671	0.0003864053
101	0x3d850e7d	0.06496904
102	0xbe44aa3b	-0.19205563
103	0xbaa7a5b3	-0.0012790471
104	0xbdf9b145	-0.121920146
105	0xbcc3958d	-0.023875022
106	0x3cc8b552	0.024500523
107	0xbe2f2f29	-0.17107834
108	0x3d8793ad	0.06619964
109	0x3d2d70a1	0.04234374
110	0x3e78b17f	0.2428646
111	0xbdefd243	-0.11710026
112	0x3c3d9bfb	0.011572833
113	0x3dd2b979	0.10289282
114	0xbdcb7e1c	-0.09936163
115	0x3c1f599f	0.009725957
116	0x3ea35d8f	0.31907317
117	0x3caebeb4	0.021331169
118	0xbdb4f166	-0.088351056
119	0xbde2056f	-0.110361926
120	0xbda936a8	-0.08262378
121	0xbc3d5bf4	-0.011557568
122	0x3d08be80	0.0333848
123	0xbbd5ca9f	-0.0065243985
124	0xbe105f3e	-0.14098832
125	0xbd1ad142	-0.03779722
126	0x3d59c856	0.05316957
127	0x3ea11cc4	0.3146726
128	0x3dbc0bce	0.09181939
129	0xbdd391af	-0.10330521
130	0x3e434680	0.19069862
131	0x3e19ab24	0.15006691
132	0x3c89c223	0.016816204
133	0xbe6f4f10	-0.23370004
134	0xbcf84129	-0.030304508
135	0x3e028c7d	0.12748905
136	0xbd10f20a	-0.035387076
137	0xbe8d6d4d	-0.27622452
138	0x3dca1dc4	0.098689586
139	0x3c5ce117	0.0134814
140	0xbe6a35b1	-0.22872044
141	0x3a7202cb	0.00092319836
142	0xbdd7625f	-0.1051681
143	0x380da459	3.377008e-05
144	0x3d93210f	0.0718404
145	0x3e4e8158	0.20166528
146	0x3ebecfaa	0.3726781
147	0x3d00955c	0.03139244
148	0x3dc8ba56	0.09801166
149	0x3e03239a	0.1280655
150	0xbc9f7808	-0.019466415
151	0xbc848730	-0.016177744
152	0x3d9fc5b0	0.07801378
153	0xbd97de77	-0.07415479
154	0xbe1d39cd	-0.1535408
155	0xbd8e3f2c	-0.06945643
156	0xbe4a1cf5	-0.19737609
157	0xbd683f74	-0.05670114
158	0xbec5becf	-0.38622138
159	0x3e34ba4b	0.1764919
160	0xbcab1e1f	-0.020888386
161	0xbe1a5905	-0.15073021
162	0x3e88fed0	0.26756907
163	0x3d3cdcf4	0.046109155
164	0xb962c91c	-0.00021627959
165	0x3dc4d105	0.0961018
166	0x3a491b78	0.00076716347
167	0xbe263be3	-0.16233782
168	0x3cd30c2d	0.025762642
169	0xbd883b31	-0.06651915
170	0xbde50846	-0.11183219
171	0x3e419777	0.18905436
172	0xbb99ef1a	-0.0046976926
173	0x3e1ecf69	0.15508808
174	0x3e1d1860	0.1534133
175	0xbd5b7895	-0.053581793
176	0x3d5c3b58	0.053767532
177	0xba0a01b2	-0.0005264535
178	0xbc674fe4	-0.0141181685
179	0x3e5089a9	0.20365013
180	0x3dcf335f	0.1011722
181	0x3e60aa0c	0.21939868
182	0x3deab73e	0.11460732
183	0x3e137659	0.14400615
184	0x3c9a3517	0.018824143
185	0xbc0c1fa3	-0.008552465
186	0x3dbf7926	0.09349279
187	0xbd7c2fd3	-0.061569046
188	0x3dc20897	0.09474295
189	0xbd17e2d7	-0.037081566
190	0x3db0772b	0.086164795
191	0x3e71055a	0.23537198
192	0x3ce69352	0.02814642
193	0x3d11e52b	0.035618942
194	0xbe87e929	-0.26545075
195	0x3dbd041c	0.092292994
196	0x3dee9b2d	0.11650691
197	0x3e2bdaaf	0.1678264
198	0x3e98a095	0.29810014
199	0x3ea6f229	0.3260663
200	0xbe821d72	-0.2541309
201	0x3e1031b4	0.1408146
202	0xbd1657ff	-0.036705013
203	0xbd927fa1	-0.071532495
204	0xbe04c51b	-0.12965815
205	0xbdc3fc74	-0.09569636
206	0xbcd8ced1	-0.026465805
207	0xbda7728d	-0.08176146
208	0x3de86a05	0.113483466
209	0x3e86172b	0.2618955
210	0xbdd0225c	-0.101628035
211	0xbe30b8db	-0.17258017
212	0xbc7acd4f	-0.015307738
213	0x3de6f378	0.11276907
214	0xbde91643	-0.11381199
215	0xbc5334bb	-0.01289099
216	0xbdcf091e	-0.10109161
217	0x3e5a50d0	0.2131989
218	0x3e3f0d86	0.18657503
219	0xbcba4476	-0.022737723
220	0xbde43196	-0.1114227
221	0x3e7d3d3a	0.24730387
222	0x3df10220	0.117679834
223	0xbb375fd0	-0.0027980693
224	0x3e35db91	0.17759539
225	0x3dee04dc	0.116220206
226	0x3dc757e9	0.097335644
227	0xbdd13c13	-0.102165364
228	0xbddffee0	-0.109372854
229	0x3d221639	0.039571974
230	0xbe696775	-0.22793372
231	0xbd8f55ec	-0.0699881
232	0x3d247bc0	0.04015708
233	0x3ca72473	0.020403123
234	0x3e103202	0.14081576
235	0xbdf65356	-0.12027614
236	0xbd753956	-0.059869133
237	0xbde28689	-0.11060817
238	0xbd825abf	-0.06364965
239	0x3d2a4944	0.041573778
240	0x3d4b9d6b	0.049710672
241	0xbdb6ad35	-0.08919755
242	0x3e778fe8	0.2417599
243	0xbd6e702f	-0.058212455
244	0xbd513f54	-0.051085785
245	0xbdd8cbf4	-0.10585776
246	0xbd274ff1	-0.040847722
247	0x3ddf2eee	0.10897623
248	0xbd7cd472	-0.06172604
249	0xbd0f8424	-0.03503813
250	0xbd0ec460	-0.034855247
251	0xbe166c21	-0.14689685
252	0x3e2f4738	0.17117012
253	0xbdb3e573	-0.08783998
254	0xbce1dca2	-0.027571026
255	0x3e4393a2	0.19099286

fc3.bias f4 [10]
0	0xbd4f06cc	-0.05054359
1	0xbf1b7786	-0.60729253
2	0x3da1f5a6	0.07908182
3	0x3e83a961	0.25715163
4	0x3eb8d53a	0.3610018
5	0xbd7bcd77	-0.061475243
6	0x3e94e894	0.29083693
7	0xbea67106	-0.32508105
8	0x3ebf9672	0.37419468
9	0xbe97ed43	-0.29673204
