lightning_workspace/server/simulate_job/app_server/best_FL_global_model.pt (torch, 251758 bytes, 10 tensors)

model.conv1.weight f4 [6, 3, 5, 5]
000000 c0 93 3a 3d 6c 7c 60 3e 4d 0e 15 3f 82 15 97 3e
       0.04555106 0.21922463 0.58224946 0.29508597
000010 de 42 5f 3e bf 01 d1 3d 4a b8 82 be 1f 3c 92 3e
       0.21802852 0.10205411 -0.25531226 0.28561494
000020 63 3b 92 3e 8c 5c 00 3e d4 09 65 bd 77 39 a8 be
       0.28560933 0.12535304 -0.055917576 -0.32856342
000030 89 d7 61 be 16 2e 51 3c f1 cb f8 3d 05 91 c2 bc
       -0.22054876 0.012767335 0.12148274 -0.023750791
000040 4a aa a2 be ec 32 cc be 5d 80 9d be 64 55 58 bd
       -0.31770545 -0.398826 -0.30761996 -0.05281581
000050 9f f4 c5 3d b7 c0 6e 3d 6f 29 34 be e2 96 d0 be
       0.096657984 0.058289256 -0.1759393 -0.40740114
000060 94 73 da be df 3a 93 be 05 7f b7 be 13 6d 3f be
       -0.42666304 -0.28755853 -0.35839096 -0.18693952
000070 41 c3 8c be a7 3c 2e be d3 a8 7d be 73 0f c8 be
       -0.27492717 -0.17015325 -0.24771433 -0.39074287
000080 f3 1e 94 be 4d f6 1f be b3 a9 02 bc 1c aa db 3d
       -0.28929862 -0.156213 -0.00797503 0.10725805
000090 c9 7b a7 be cf fc 8c be 99 26 22 3e 23 28 07 3e
       -0.32711628 -0.27536628 0.15835036 0.13198905
0000a0 fa 61 41 3e e3 e1 81 bd f6 73 d5 be 44 25 fd bd
       0.18885031 -0.063419126 -0.41690034 -0.123606235
0000b0 c7 78 8d 3e f7 1c a6 3e 8b 81 ba 3d e7 2b 69 bd
       0.27631208 0.32443973 0.091067396 -0.056926634
0000c0 67 71 12 be 0b fe 3c be be 2f b2 3d b0 ee b9 bd
       -0.14301072 -0.18456285 0.08700512 -0.09078729
0000d0 26 24 4e 3d 52 9d 70 bd 27 78 50 bd 77 9a 3d 3e
       0.050327443 -0.058743782 -0.050895836 0.18515955
0000e0 49 12 cb bd 22 aa 4a 3e 74 b9 4f 3e 50 55 cb bc
       -0.09915597 0.19791463 0.20285589 -0.024820954
0000f0 ac c0 78 3e f7 f4 2f be de 0c 93 bd a3 89 89 3e
       0.24292248 -0.1718329 -0.071801886 0.2686282
000100 e0 c6 89 3e 66 92 b0 3e aa 72 1b be a7 64 3c be
       0.26909542 0.34486693 -0.1518046 -0.18397771
000110 66 d5 4e be 1f 59 0a 3c 92 be c9 3e b7 d7 4f 3e
       -0.20198593 0.0084441 0.39403206 0.20297132
000120 b7 3f 28 be 8e 68 9a be 54 ec 8c be ab 03 60 3e
       -0.16430555 -0.30157894 -0.27524054 0.21876399
000130 20 05 ec 3e 3b 85 05 3f d9 cd 18 3f 3d a5 35 3e
       0.4609766 0.5215642 0.596891 0.17738815
000140 20 d5 ac 3e 50 88 18 3f ab 79 09 3f 1f b1 d0 3e
       0.3375635 0.59582996 0.53701276 0.40760133
000150 f3 c9 82 3e 9f 3d 11 3e 5c 6b 14 3d 86 e2 fe be
       0.255447 0.14183663 0.0362352 -0.497822
000160 cb b5 13 bf f7 4c 82 be 9e 95 56 bd 3c 06 b7 be
       -0.5769927 -0.25449345 -0.05238878 -0.35746944
000170 19 68 e2 be fb 3a 42 be ba 41 be bc 70 0d 81 be
       -0.44220045 -0.18967812 -0.0232247 -0.25205564
000180 41 f4 1d be 83 d6 a9 3c 34 9b e2 bd 73 da e2 bd
       -0.15425207 0.02073217 -0.11064759 -0.11076822
000190 88 9f 80 be 82 1b 83 bd 7f f5 1d be ff 45 71 3c
       -0.25121713 -0.06401731 -0.1542568 0.014726161
0001a0 da 06 88 be 6d bd c1 bc 73 10 47 3e b1 d5 37 3e
       -0.26567727 -0.023649896 0.19439869 0.1795261
0001b0 7c 5a 2b bd e3 dc 90 be da 25 03 be 0e bc b4 be
       -0.04183434 -0.28293523 -0.12807408 -0.35299724
0001c0 64 43 19 bf 7c 30 23 bf ac 70 cd be 47 17 a4 bd
       -0.59868455 -0.63745856 -0.40125024 -0.08012252
0001d0 5e f0 83 be 73 9c 5f be 79 b1 c0 bd a8 47 65 3e
       -0.25769323 -0.21837024 -0.0940885 0.22390616
0001e0 91 cb b0 bd 09 ac 6f 3e 5f 56 0a 3f 3b 05 cc 3e
       -0.08632577 0.2340547 0.5403804 0.3984774
0001f0 da c0 93 3e 57 9c 91 be 8f 8a d2 bd 80 ff 54 bc
       0.28858072 -0.2843959 -0.10280334 -0.013000369
000200 e4 da 07 3e 8e 1f cb bc 82 bf 22 be a3 1e b3 3d
       0.13267094 -0.02479532 -0.15893367 0.08746078
000210 2d 07 2e 3d 58 1c 91 3b a1 72 f6 bd f6 94 f5 bd
       0.042487312 0.0044284277 -0.120335825 -0.11991303
000220 24 69 4d be 5f d7 88 be 10 d7 bc be 22 90 63 bd
       -0.20059639 -0.26726815 -0.3688283 -0.055557378
000230 36 c4 d5 3d b0 3e f1 bd c9 b4 92 bd 4a f8 20 3e
       0.10437815 -0.11779535 -0.07163388 0.15719715
000240 5e 84 b1 3e 18 36 2c 3e a4 3b dd 3e 4d 13 ca 3e
       0.346713 0.1681751 0.43209565 0.3946785
000250 4c 31 fc 3e 3c 5e 07 3e e4 b8 8f bc 0a b8 fc bd
       0.4925636 0.13219541 -0.017544217 -0.1233979
000260 c2 55 dc bd b2 1c ce bd aa e7 26 3e a8 e9 74 be
       -0.107585445 -0.10064067 0.1629931 -0.23917258
000270 cc 85 81 be dc ae 17 be 4f c5 6c be 5f 94 ae bd
       -0.2529739 -0.14812797 -0.23122142 -0.08524393
000280 c8 1c a8 be 29 f2 8a be 39 f1 98 be 2f 63 2c be
       -0.32834458 -0.2713788 -0.29871538 -0.1683471
000290 0c cb 0d be 9e 8d b4 be 43 0e a8 be 7b 8c 20 be
       -0.13846987 -0.35264295 -0.3282338 -0.15678589
0002a0 2e 32 f1 bc fa e1 9c bd 50 e4 59 be a7 cb 5a be
       -0.029442873 -0.07660289 -0.212785 -0.2136675
0002b0 17 af 62 bd 86 77 c6 3d 54 b5 e2 3d 18 47 d9 3d
       -0.05534276 0.09690766 0.11069742 0.10609263
0002c0 f5 d2 37 3e 9e 07 9b 3d 52 07 c7 bc 52 13 c1 3c
       0.17951567 0.07569812 -0.024295483 0.023568783
0002d0 0a 8a e4 3c b1 5f 94 3d ee 2e ac 3d 5e 28 67 3d
       0.027897853 0.07244814 0.08407389 0.05643498
0002e0 ae 74 40 3d e0 9e fc 3d c1 ca 23 bc 3a d5 7a bc
       0.046986274 0.123349905 -0.009997071 -0.015309626
0002f0 e2 c7 98 bd 9a 6e 9d bd 8a 23 1c 3d 12 6f ec 3d
       -0.074599996 -0.07687111 0.03811983 0.115446225
000300 9d 40 bc 3d d0 a5 90 3c ab dc 03 bd 28 ab 78 bc
       0.091920115 0.01765719 -0.032192867 -0.015177526
000310 17 ea 41 bd 40 49 8e 3c 0f 4a f0 bd 29 be ce bc
       -0.047342386 0.017368913 -0.117328756 -0.02523716
000320 4c 9e ee 3d ef 58 aa 3c 3d 57 f5 3d d8 a4 f0 3c
       0.116512865 0.02079436 0.1197953 0.029375479
000330 8b 12 da bd 9c 43 34 3e 06 a8 82 3e 68 75 6b 3d
       -0.10648068 0.17603916 0.25518817 0.057485014
000340 c8 b8 18 3e 6a 17 91 bd dd e3 20 3e 30 ae 87 3e
       0.14914238 -0.07084544 0.15711923 0.26500082
000350 5f 88 53 3e ba cb 59 3e bc a9 be 3d e9 8e 7c 3e
       0.2065749 0.21269122 0.09309718 0.24663891
000360 b1 26 95 3e cf 82 a7 3e f3 6c 97 3e 6f 47 7f 3e
       0.29131082 0.32716987 0.2957531 0.24929594
000370 bd 1f 54 3d 9f 5e 69 3e 10 b1 37 3e 79 3a 2d 3e
       0.05178808 0.22790001 0.17938638 0.16916837
000380 60 7b eb 3d 7b 30 aa 3d 80 6f 47 3e d4 d7 8c 3e
       0.11498141 0.08310028 0.19476128 0.27508414
000390 2e 8a 74 3e 40 bb db 3b 41 6f 54 3e 6e af 40 3e
       0.23880836 0.0067056715 0.20745565 0.18816921
0003a0 9b 9a 88 3e 67 fd 16 3e cd 24 ff 3c 84 a2 86 be
       0.26680455 0.14745103 0.031145478 -0.26295865
0003b0 b8 53 6b be 8c 8b 84 be 79 80 f7 bd c4 90 28 3d
       -0.22981155 -0.25887716 -0.12085051 0.041153684
0003c0 f1 cd 6b be 46 dc bf be 84 c7 84 be 4b 70 ac bd
       -0.23027779 -0.37472743 -0.25933468 -0.08419856
0003d0 a0 50 b0 bd d4 a5 f2 3c 40 3d f7 3a 13 a4 3f be
       -0.08609128 0.029620089 0.0018862858 -0.18714933
0003e0 a9 27 d2 bd 8c 7a 27 bd f1 ed 25 3e 19 96 a9 3e
       -0.10261471 -0.040888354 0.16204049 0.33122328
0003f0 ee 93 d9 3e e6 08 82 3e b3 44 05 3e c5 e9 48 3e
       0.42495674 0.25397414 0.13014488 0.19620426

model.conv1.bias f4 [6]
000000 29 f3 82 be af 7c dc be ee e7 fd 3e f4 61 01 bf
       -0.2557614 -0.43063876 0.4959101 -0.5054009
000010 4a 67 61 be 64 6c eb bc
       -0.22012058 -0.028738208

model.conv2.weight f4 [16, 6, 5, 5]
000000 01 42 16 3e 19 43 56 3e 07 0a 5c 3e e6 a5 71 be
       0.14673616 0.20924033 0.214882 -0.23598441
000010 50 28 57 bb 5e 8b 83 3d 6f 2e e1 bc 31 fc 0c 3e
       -0.0032830425 0.064230666 -0.027487962 0.13768078
000020 bb 5a 5a be 2d 6c a2 bd 7e c2 6d 3d 32 64 cf bd
       -0.21323673 -0.07930789 0.05804681 -0.101265326
000030 12 a4 45 3e 6e 16 48 3e 0b 1c fc bd a9 61 8e 3e
       0.19300869 0.19539806 -0.12310036 0.27808884
000040 c0 f2 28 3e 2a 56 6e 3d 55 f7 0e 3e 75 36 a4 bd
       0.16498852 0.05818764 0.13961537 -0.08018199
000050 4d 9c 23 3e c4 d0 4b 3e 84 6e 5a 3c 63 69 39 bc
       0.15977593 0.19903857 0.013332013 -0.01131663
000060 d9 81 37 be 19 b2 61 bd 88 0c 9f bd 94 40 33 be
       -0.17920627 -0.055101488 -0.07766062 -0.17505103
000070 07 f1 a4 bd 92 74 aa bd 79 36 24 be 8d 97 22 be
       -0.08053785 -0.08323015 -0.16036405 -0.15878125
000080 ca c9 b3 bd 55 4f 9d 3d ca 39 1e 3c 9f 39 58 bd
       -0.087787226 0.07681147 0.009657333 -0.052789327
000090 02 92 f3 bd 0f 3d 13 be 1f 06 34 bc 68 14 a9 3d
       -0.11893083 -0.14378761 -0.0109877875 0.08255845
0000a0 e3 c8 10 be 3e a0 ad 3c de f6 8d bd c2 72 87 3d
       -0.14139132 0.021194573 -0.06931852 0.06613685
0000b0 80 f0 b8 ba 7a 28 7a bc 4a d2 ad 3d 98 db 37 3d
       -0.001410976 -0.015268439 0.08487375 0.044887155
0000c0 58 bf 59 bd 00 62 df b8 22 e9 8d 3e ba e3 5b bd
       -0.053160995 -0.000106517226 0.2771693 -0.053683974
0000d0 b5 0d d5 bd 1c 0e 12 be 7e 01 55 be 72 4f 92 3e
       -0.10403005 -0.14263195 -0.2080135 0.28576237
0000e0 19 af c3 3b d3 d5 0c be eb 64 7d bd 51 95 7b be
       0.005971801 -0.13753442 -0.06186382 -0.24568678
0000f0 3f 4c 9b 3e aa 1c f5 3d 59 64 0b 3d 00 39 9b bd
       0.3033161 0.11968358 0.034031246 -0.07579231
000100 e0 cd 98 be 70 d8 90 3e b4 07 1d 3d 90 dc 90 ba
       -0.2984457 0.2829013 0.038337424 -0.0011052061
000110 ea 5c fd bd ad c6 9e be 34 4c a7 3e 66 a4 47 3d
       -0.123712376 -0.31010953 0.32675326 0.048740767
000120 ed d9 cc 3c 4d 15 78 bd 1e 24 cb be ec 6d 98 be
       0.025006259 -0.06056719 -0.39675993 -0.29771364
000130 cc c2 d7 bd d4 2f 63 be f4 a0 48 bd 11 27 57 be
       -0.105352014 -0.22186214 -0.04898162 -0.21010996
000140 d2 71 23 be 8d 71 60 be f2 ca 07 bd 73 31 1a 3d
       -0.15961388 -0.21918316 -0.033152528 0.037644815
000150 e0 02 b0 3b 7f 7e 1f be ae e1 20 be 25 d9 ce bc
       0.0053714365 -0.15575598 -0.1571109 -0.025250027
000160 08 99 bb bd 63 0c 84 3c 50 56 41 be 53 3c e0 bc
       -0.09160048 0.016119188 -0.18880582 -0.027372515
000170 60 05 9d bc 1c 1a 99 bb ad 91 b0 3d c9 d6 c0 bc
       -0.019167602 -0.004672302 0.086215355 -0.023539918
000180 38 2b 90 3d dc 49 c5 3c 12 5d 02 3e 6c 81 b4 3d
       0.07039493 0.02408307 0.12730816 0.08813748
000190 ea 58 af 3e 38 b2 65 bd e7 e3 50 3e cc f3 e1 bd
       0.34247524 -0.056078166 0.20399438 -0.11032829
0001a0 d5 94 a0 3d 78 3c 5a 3e 38 77 2b bd 16 af f7 3d
       0.078408875 0.2131213 -0.041861743 0.12093942
0001b0 ee 67 f2 3d 66 61 36 bd 42 6e 20 3d 18 5c 32 bd
       0.11836229 -0.04452648 0.03916765 -0.04354486
0001c0 34 ac 09 be 9a da 0a 3e d5 8a 96 bd de 6f 7d 3d
       -0.13444597 0.13559952 -0.07350699 0.061874263
0001d0 d5 20 02 3d 39 a5 88 bd c9 6f 8a 3d b8 b8 b5 3d
       0.031769592 -0.06672139 0.067596026 0.08873123
0001e0 6e 3a 4e be 8d 83 41 3d c9 26 03 bd 14 36 26 be
       -0.20139477 0.047244597 -0.03201941 -0.16231567
0001f0 e5 11 62 3d a8 c0 81 3e b3 ae be 3d b6 ac 90 3e
       0.055192847 0.25342298 0.09310665 0.28256768
000200 23 a1 77 be 9d 98 8a 3e bc e9 8e 3d cd 6e 64 3d
       -0.24182563 0.2706956 0.06978175 0.05576973
000210 0b 5d 2e 3e 1d bb 2f be 2c 91 81 3c d9 69 44 3e
       0.1702768 -0.17161222 0.015816294 0.19181003
000220 40 78 41 bb 54 9b 68 3e 9e 36 6a 3d 5e b8 b5 bd
       -0.0029521137 0.22715503 0.057180993 -0.08873056
000230 ab a1 d3 bd 00 0d 0d bd 95 69 b7 bc 6a 75 91 3d
       -0.1033357 -0.034436226 -0.022389213 0.07102473
000240 80 76 b6 bc 7e f4 66 be 4a dd 18 be 90 1e 92 be
       -0.022273302 -0.22554204 -0.14928165 -0.28538942
000250 a7 02 1b be 0b 14 6d be 1b 80 7c be 3b 8c 7e be
       -0.1513773 -0.23152177 -0.24658243 -0.24858181
000260 98 e6 ad be d6 ed 87 be 4b e2 6a be e7 b3 05 be
       -0.33964992 -0.26548642 -0.22937886 -0.13056909
000270 9c bf 15 3c 03 cc fa bc 23 68 22 bd c6 16 ec bd
       0.0091399215 -0.030614858 -0.039650094 -0.11527781
000280 b0 07 34 3c 4f 04 06 bc ef bc b0 3b 5d c8 2e bc
       0.010988161 -0.008179738 0.0053936164 -0.0106678875
000290 fe 4f 00 bd d3 03 8d 3e 6b 1d 3f 3e a4 3e 9b 3d
       -0.031326286 0.2754198 0.18663566 0.07580307
0002a0 06 a4 f7 3d 34 fc da bd 5b 23 c6 3e 1b 34 96 3e
       0.12091832 -0.10692635 0.3869885 0.29336628
0002b0 f9 92 95 3e dd bd 2d 3d d4 8e 9d bd 1e c4 dd 3d
       0.29213694 0.042417396 -0.07693258 0.10828422
0002c0 86 0c a9 3d 8d cc 19 3e 76 26 57 3c b5 90 5d 3e
       0.08254342 0.15019436 0.013131728 0.21637233
0002d0 57 78 0a 3e 8d f6 ff 3d a7 12 25 3e be a6 91 3e
       0.13522469 0.12498198 0.16120397 0.28447527
0002e0 b7 d2 8a 3e d0 99 0e 3d 79 a7 4c 3e 41 97 4d 3e
       0.27113888 0.034814656 0.19985761 0.2007723
0002f0 5a aa dc 3d 72 35 01 3e 15 96 8e 3d b8 a7 9e 3d
       0.107746795 0.12618044 0.069622196 0.077468336
000300 bb 80 22 3e 54 d4 58 3e 7e ec a4 3d ec 5c 02 be
       0.1586942 0.21174747 0.0805292 -0.1273076
000310 c2 46 74 3d 5b 87 8d 3d 5e 50 3f 3d 9c ab ee 3b
       0.059637792 0.06910583 0.046707503 0.007283641
000320 68 c5 0f be 4c 0c d2 3c e3 54 05 3d 8c 36 83 bc
       -0.14040148 0.02564063 0.032551657 -0.01601722
000330 c8 2d c9 3c 7c e4 ab bd c8 44 31 3d a4 0e 80 3d
       0.024557963 -0.08393189 0.043278486 0.062527925
000340 99 d0 d1 3d 86 2a 84 3a 53 a2 27 3d e0 83 35 3d
       0.10244865 0.0010083474 0.04092629 0.04431522
000350 d2 84 93 3c 2e f4 12 3d 63 b4 ef 3d d3 40 e3 bd
       0.01800767 0.0358774 0.11704328 -0.110963486
000360 fd 05 5c bd cc 33 6f 3d 62 09 1c bd 9c 3d dc bd
       -0.05371665 0.058399007 -0.038094886 -0.107539386
000370 ab a4 61 be a3 06 cd bd 28 d8 c7 bd a0 8d c2 bb
       -0.22035472 -0.100110315 -0.097580254 -0.005937293
000380 80 9b 1a 3b 24 2e 2c bd 45 10 aa 3c 3e b4 06 be
       0.002359122 -0.04203619 0.020759711 -0.13154694
000390 dc 61 4d bd 7d 05 c2 3d c7 5a 63 bd 2a c0 d8 bd
       -0.050142154 0.09473703 -0.055506494 -0.105835274
0003a0 f8 de c1 bc 2c c4 ad 3c 99 60 6c 3d d0 23 9b bd
       -0.02366589 0.021211706 0.05770931 -0.0757519
0003b0 7c db 17 3e b6 84 fa 3d 04 0c 74 3d 9e bf 25 3c
       0.1482982 0.12232344 0.05958177 0.010116486
0003c0 a9 28 f7 bd 64 83 08 be bb 22 5c be 96 0e 5f bd
       -0.12068302 -0.13331372 -0.21497624 -0.05445727
0003d0 55 ec 1d bd 88 23 81 bb 87 6d ca 3e 10 40 ae 3e
       -0.038555462 -0.0039410032 0.39536688 0.3403325
0003e0 37 1f 15 3e 7b d7 50 3d 48 0d 22 bc cf 31 b0 3c
       0.14562689 0.05098675 -0.009890862 0.021508126
0003f0 92 9f 88 bd 2e 99 9c 3d a3 84 23 bd 3c ac 83 bd
       -0.066710606 0.07646404 -0.039921414 -0.064293355

model.conv2.bias f4 [16]
000000 32 df fb 3c ee ed e3 be 5e 0a 01 3e ac f3 4c 3f
       0.030746076 -0.44517463 0.12601611 0.80059314
000010 4a 01 b0 3f c4 45 8b be 91 37 36 3e f5 30 58 3f
       1.3750393 -0.27201664 0.17794634 0.844497
000020 47 c6 21 3f 08 9b 7e bd 7f 2e 84 be 17 a4 8c bf
       0.6319317 -0.062159568 -0.25816724 -1.0987576
000030 38 1e b2 bc 95 7d 68 bd 65 99 0b bf e5 d5 9c 3e
       -0.021742925 -0.05676039 -0.54530936 0.3063194

model.fc1.weight f4 [120, 400]
000000 95 df fd bc 0f 51 bb 3c 23 a8 ee bc 2b c3 e6 3b
       -0.030990401 0.0228658 -0.029132908 0.007042309
000010 5b 00 88 bb 04 d4 32 bc 16 39 1c 3c a7 2b 1d bd
       -0.004150433 -0.010914806 0.009535095 -0.03837171
000020 43 e3 4b bc e0 fe c7 ba fc 04 97 bc c2 4c c3 3c
       -0.01244432 -0.0015258454 -0.018434994 0.023840312
000030 99 8d 85 bb 1e f7 b8 3b 28 73 a2 39 06 bc 15 bb
       -0.0040757176 0.005644693 0.00030984846 -0.0022847666
000040 f6 49 02 bd 50 f5 dc 3c 51 d1 06 3d 01 ae d3 bc
       -0.031808816 0.026972443 0.032914463 -0.025839807
000050 8f 46 84 3c 19 56 33 bd 43 e5 c9 bb 2d 29 aa 3c
       0.016146926 -0.04378328 -0.0061613633 0.020771587
000060 c3 29 31 bd dd 86 7d 3c ea 17 cb bc 94 46 4e bd
       -0.043252718 0.015474048 -0.024791677 -0.050360277
000070 f6 fd 21 3d 5e 9a 09 bb ae 54 14 bc ab cd bc 3b
       0.039548837 -0.002099655 -0.009053392 0.005761822
000080 86 88 8e bc 21 3c b8 3c 6f 83 c2 3c 77 19 d2 bc
       -0.017399084 0.02248961 0.023744313 -0.025646908
000090 78 3e 0f bd 5b 79 11 bd e7 e9 e9 bc 78 b1 ed bb
       -0.034971684 -0.035516124 -0.028553916 -0.007253822
0000a0 7c 35 04 bd 1e c4 fe 3c 84 f2 01 bd 34 b0 38 bd
       -0.03227757 0.031099375 -0.03172542 -0.045089915
0000b0 5f b9 e6 bb 93 7f 2b 3d 65 e0 9a 3c ec f9 fe 3b
       -0.007041141 0.04186971 0.018905828 0.007781258
0000c0 0c 83 6f ba 46 83 19 3d b4 49 7d bc cb 91 08 bd
       -0.0009136654 0.037478708 -0.015459467 -0.033342164
0000d0 9d 37 88 3b 29 b4 22 bb 1d c1 a3 3c 38 d8 a3 ba
       0.0041570202 -0.0024826622 0.019989545 -0.0012500351
0000e0 0a d8 aa bc 96 f2 2e bd 86 47 5e bc 83 e4 03 bc
       -0.020854969 -0.042711817 -0.013566857 -0.008050087
0000f0 59 91 08 3d e8 13 3f bb 8a 3c 44 3d ac af 42 bc
       0.03334174 -0.0029156152 0.047909297 -0.011882704
000100 5e 0b 20 bc d7 9a 5f bc ce 11 1c bc 18 99 1b 3d
       -0.009768335 -0.013647757 -0.009525729 0.0379878
000110 fd cd 15 3c 81 64 a4 3c d9 24 04 bc 8d 60 93 bc
       0.00914335 0.020067455 -0.008065426 -0.017990375
000120 ed 53 08 bd 7a 1a 9a 3b 90 d9 91 39 d0 f8 02 3d
       -0.033283163 0.0047028633 0.00027818652 0.031975567
000130 16 d8 a2 3a da 2c 14 bc 52 1e 0b 3b c1 6e bc bb
       0.0012424018 -0.009043897 0.002122779 -0.0057505076
000140 60 45 34 bd af 20 1c 3d 88 09 1a bc 6d 00 81 3b
       -0.044011474 0.038117107 -0.0094016865 0.0039368183
000150 a8 f5 3c 3d a4 3c 95 3a 74 cb 62 3b e1 a0 f0 bc
       0.046132714 0.001138587 0.003460613 -0.029373588
000160 c2 06 36 3d e9 93 9f bb ee 93 50 bc 81 7a 02 bd
       0.04444004 -0.004869927 -0.012730582 -0.03185511
000170 b7 89 2c 3d 49 a6 2c bc f9 4d 2d bd f0 08 94 bc
       0.042123523 -0.010537692 -0.04231069 -0.018070668
000180 36 66 f9 3b a2 08 11 bd 66 10 e1 ba 16 c4 fa bc
       0.0076110614 -0.035408624 -0.0017171025 -0.03061108
000190 45 0d 41 bc c8 56 53 bb 0a 96 cb 3b dc 40 b3 bc
       -0.011782949 -0.003224777 0.0062129544 -0.021881513
0001a0 dd 83 58 bd 51 d6 10 bc c4 2b e6 bc 51 b9 33 3c
       -0.05286013 -0.0088401595 -0.028097041 0.010969476
0001b0 03 bb e9 3c 44 5a 85 3c 67 ce 2e bc d4 16 a9 bc
       0.028531557 0.016278394 -0.010669327 -0.020640768
0001c0 67 92 a5 3c 6e 74 ac bc ab 99 07 3d d2 77 94 bb
       0.020211412 -0.021051612 0.033105534 -0.0045308853
0001d0 8d f8 fd bc 82 2e 02 3d e8 53 29 3c a9 33 05 bc
       -0.031002307 0.031782635 0.010334946 -0.0081299925
0001e0 f8 fb 22 bd 28 79 51 bb 3c 20 88 bc 47 7d e6 3c
       -0.039791077 -0.0031963084 -0.016616933 0.028135909
0001f0 50 b1 dc 3c 00 6e 6f 3c fd 60 29 3c b5 96 b6 3b
       0.026940018 0.014613628 0.010338065 0.005572165
000200 35 a5 c2 3c 7c 92 9a 3c 12 91 5a bc 71 5c 0a bd
       0.023760417 0.018868677 -0.0133402515 -0.033779565
000210 73 c7 2f bd a8 90 28 bc 75 c9 04 3b ed 89 85 bc
       -0.04291482 -0.010288395 0.002026168 -0.01630112
000220 f5 fc ae 3c 5d d1 0b bd f2 84 94 bb e2 60 a5 bb
       0.021360854 -0.03413521 -0.00453245 -0.0050469497
000230 09 04 32 bd 43 06 c4 bc 95 be 34 bd ef 5d 3c bd
       -0.04346088 -0.023928767 -0.044127066 -0.04598802
000240 5d ef 22 3d ef a6 05 bc a0 e4 a0 bc a8 98 b2 3b
       0.039779056 -0.008157476 -0.019640267 0.005450327
000250 60 f2 27 bd 8c 4f 7b 3b 51 59 08 3d 8d c7 53 bc
       -0.04100263 0.0038346974 0.033288304 -0.012925995
000260 06 ea 85 bc 18 71 11 3a 12 3d 0d bd 00 af bb bb
       -0.016346943 0.00055481633 -0.03448207 -0.0057276487
000270 56 65 a3 bc f5 e8 08 bd c9 0e 20 bd 41 4d 3e bd
       -0.019945782 -0.03342529 -0.0390766 -0.046460394
000280 1b 6f 14 3d 8b d3 3e bd 69 ef 8f 3c df a4 92 bc
       0.03623877 -0.04658846 0.017570214 -0.017900882
000290 8b b8 c5 3a 7e 37 a9 bc c8 cc 41 bc c0 6a 7e 3c
       0.0015084905 -0.020656344 -0.011828609 0.015528381
0002a0 c8 8d 0e 3d f9 0b 4e 3d ab 8e 1c bd 51 37 13 3d
       0.034803182 0.050304387 -0.038221996 0.035941426
0002b0 7c e5 02 3c f8 4c 73 bc 25 d3 6a 3c 19 c0 c5 bc
       0.007989284 -0.014849894 0.014332567 -0.02413945
0002c0 54 cb 01 bd 84 c5 54 bc 44 be 2a bd 45 c2 81 bb
       -0.03168805 -0.0129865445 -0.041685358 -0.0039599263
0002d0 0a 60 f7 bc bf 4f f3 3c 9b d6 28 bd 00 4d 3e 3d
       -0.030197162 0.029701112 -0.04122029 0.04646015
0002e0 d2 7a 28 bc 72 d8 d0 bc 07 c4 63 3c 94 1c 60 3a
       -0.010283189 -0.025493834 0.013901717 0.00085491803
0002f0 ff 8a ab bc d9 d0 03 bd a8 1e 14 bd a2 ce 06 3d
       -0.020940302 -0.032181595 -0.03616205 0.032911904
000300 f6 24 2f 3d 28 72 82 bc 5e b5 97 3c e3 5c f0 bc
       0.042759858 -0.015923575 0.0185191 -0.029341167
000310 73 c0 45 bd 41 d8 bb 3c e9 b1 32 3d c9 44 08 3d
       -0.048279237 0.022930266 0.0436267 0.033268724
000320 88 88 31 3c 2a c5 26 bd 5a ff 90 bc 3d 6a 03 3d
       0.010835774 -0.040715374 -0.017699886 0.03208374
000330 94 69 d2 bc e5 0e 22 3c b1 b8 32 bc c1 2c 42 3d
       -0.02568511 0.009891246 -0.010908292 0.047405962
000340 b4 0c bb bb fa 4c 5c bc 72 2e 06 bc 27 c1 2f bc
       -0.0057083014 -0.013446087 -0.008189784 -0.010727203
000350 0f be 1e 3d 80 da 3a bd 35 19 13 bd 88 51 95 bc
       0.038755473 -0.045618534 -0.03591271 -0.018227354
000360 53 9d 27 bd a0 41 c0 bb 21 23 17 bd 90 8c 56 bd
       -0.04092152 -0.005867198 -0.036898736 -0.052380145
000370 1f 33 07 3d 17 ce ef 3b 10 a5 04 bb 15 bb 18 3d
       0.033007737 0.007318269 -0.0020239986 0.03728779
000380 b9 2f 3c bc 47 39 48 bd 2f da 29 3d d9 25 8d bc
       -0.011485987 -0.04888275 0.04146784 -0.017229961
000390 13 0d 4b bd 4c 95 c7 bc 68 e4 66 3b 83 12 04 bd
       -0.049573015 -0.024363182 0.0035231356 -0.032244217
0003a0 e8 ae 54 bd 75 07 c6 bc 53 70 fc 3c 24 99 2d bd
       -0.051924616 -0.024173478 0.03081528 -0.042382374
0003b0 ae b2 53 bb ba 71 b8 3c 80 ad 0b 39 84 44 b8 3c
       -0.0032302546 0.022515167 0.00013320707 0.022493608
0003c0 b8 57 b7 bc 5a d4 c7 3c 18 d3 be 3a f2 c5 83 bc
       -0.022380695 0.02439325 0.001455876 -0.016085599
0003d0 62 f9 f7 3b 47 70 c5 3c 73 0e ff bc bd b2 6e bb
       0.0075675705 0.02410139 -0.03113482 -0.0036422454
0003e0 45 77 36 3d c9 8c 18 bd 01 94 ed bc 74 12 16 bd
       0.044547338 -0.03724364 -0.029001238 -0.036638692
0003f0 28 00 ec bc 27 48 29 3d d6 d0 f1 bc 82 80 fb bc
       -0.028808668 0.041328575 -0.029518526 -0.030700926

model.fc1.bias f4 [120]
000000 17 ec 4c bd 80 08 b5 3b a8 c0 a9 3c ea 5d 4d bd
       -0.05002984 0.005524695 0.020721748 -0.05013839
000010 f3 f2 f8 3c 49 98 fe 3c 90 3e 81 bd b2 49 de bc
       0.030389285 0.031078475 -0.06310761 -0.02713475
000020 76 da a0 3d 09 81 82 3d 4a 43 7b bd 98 95 5c 3c
       0.07854168 0.06372268 -0.06134347 0.0134634
000030 1b d8 60 bd 0e 47 bb 3d 96 1a c6 3d d1 aa 2b bd
       -0.054893594 0.09144412 0.096730396 -0.04191095
000040 c8 36 6d 3d 51 bf 0c be 62 e7 39 3a ce d1 87 3e
       0.05791357 -0.13744856 0.00070916687 0.26527256
000050 3d 97 63 bd 7f f9 60 3e e5 b6 40 3d a3 13 a5 3d
       -0.055564154 0.21970175 0.04704942 0.08060386
000060 e0 ca f4 3d 04 1f 2f bd 01 6e f4 3c 58 b4 08 be
       0.11952758 -0.04275419 0.02983761 -0.13350046
000070 aa 99 82 bd 9e cf 99 3e f2 b8 40 3e a0 5f 01 3d
       -0.06376965 0.30041212 0.18820551 0.031585336
000080 b5 1e ac 3b d3 51 a3 3d e4 ec 5d 3e 5e a0 85 3c
       0.005252684 0.07974591 0.21672398 0.01631182
000090 48 33 0b 3e 48 72 e9 3d be 71 48 3d 05 d4 2e 3e
       0.13593781 0.113987505 0.048936598 0.17073067
0000a0 0b bb a0 3d 20 ad 8d 3d f3 e3 9f bd 39 46 08 bd
       0.078481756 0.069177866 -0.0780715 -0.033270095
0000b0 84 5d 26 bb ba 8c 24 bd 6b d0 2e 3d 50 19 2a 3e
       -0.002538533 -0.04017327 0.04267923 0.16611218
0000c0 73 6c 12 3e d5 10 1a 3d 12 66 81 3d fa be c5 3c
       0.14299183 0.03761371 0.063182965 0.024138916
0000d0 44 7a 17 3d f7 97 b1 3d a4 99 7f 3d 2a 4e 02 3d
       0.036981836 0.08671563 0.062402382 0.031812824
0000e0 81 d7 80 bd fb 8c 17 3e 6f c1 49 3d 05 1f 00 bd
       -0.06291104 0.14799874 0.04925674 -0.031279583
0000f0 ad ff 2d be 6f ef c5 3d b2 b4 58 3e 49 80 55 bd
       -0.16992064 0.09664809 0.2116268 -0.052124295
000100 0a 1d d4 3c c0 8a 86 3e 7c fa 1f 3e 62 14 3b 3d
       0.025892753 0.26277733 0.15622896 0.045673735
000110 70 af 99 3d cc 02 43 bd 38 ac 50 bd b6 77 99 3d
       0.07504165 -0.04761009 -0.05094549 0.07493536
000120 f8 31 9b 3d 2b 6b 0e bd 88 e6 3c 3c e3 6b 5e bd
       0.0757789 -0.034770172 0.011529572 -0.054302108
000130 d9 b2 b7 ba 07 80 15 bc a4 a0 22 3d f0 e8 51 3c
       -0.0014015093 -0.009124762 0.03970398 0.012811884
000140 1c b4 a0 bd 29 0e 1a 3d bb f7 2d 3c f0 ce 94 3d
       -0.07846853 0.03761116 0.010618146 0.07266033
000150 a1 0f 46 3d aa 00 f9 bc bc be e3 3d a8 f0 35 3e
       0.04835475 -0.030395824 0.11120364 0.17767584
000160 b9 2c 0f 3e 80 d1 b8 3a 51 cc e7 3d 22 ee 2b 3d
       0.13981904 0.0014100522 0.11318267 0.041975148
000170 0e ca 59 3d c7 4e e5 3d bf 7c 76 bd 18 54 25 bc
       0.05317121 0.11196666 -0.06017756 -0.01009085
000180 b0 c7 f9 3c 76 ad 4a bc f3 96 d0 3d 07 55 64 bc
       0.030490726 -0.012370458 0.10185041 -0.013936288
000190 c0 76 ac 3d 6f eb cc 3c 2c 16 fc 3d 12 ae 56 bc
       0.08421087 0.025014607 0.123089164 -0.013103025
0001a0 35 fe 98 3c a5 72 3f bd c1 fb 10 3e 21 84 50 bd
       0.018675903 -0.046740193 0.14158536 -0.050907258
0001b0 f5 2d 85 bd 5b fb 1c be 11 1c 22 bd 50 82 c1 bd
       -0.06502906 -0.1533026 -0.039577547 -0.09448683
0001c0 11 29 ec 3d 91 7e ca bd f8 a5 96 3d 8d 0a b6 3c
       0.1153127 -0.09887422 0.07355875 0.022221828
0001d0 67 69 12 3e ac 29 e7 bd 37 70 85 3d b1 a1 9a bd
       0.1429802 -0.11287245 0.06515544 -0.075503714

model.fc2.weight f4 [84, 120]
000000 25 09 ef bc fa 13 9c 3d f0 aa a7 3d 75 26 ae 3d
       -0.029179165 0.07620998 0.081869006 0.08503429
000010 30 7c 9b bd 6d 44 90 3d 1a fc 8d bd 39 ed 12 3d
       -0.07592046 0.07044301 -0.0693285 0.035870764
000020 63 44 87 3c 59 11 a3 bd b0 75 71 3a 56 e4 a6 bc
       0.016512102 -0.07962293 0.0009210957 -0.020372551
000030 30 3a f9 bd 94 d7 01 bd 94 30 d9 3c bd be 6d 3d
       -0.121693015 -0.031699732 0.026512422 0.05804323
000040 cc 3a 7b bc 43 6c ac 3c 3f 0d 32 3d 3f 0d 9e bd
       -0.0153338425 0.021047717 0.043469664 -0.0771737
000050 c0 0e a0 bc 08 d0 42 bb 81 da 8d bb 73 8b b0 bd
       -0.019538283 -0.0029726047 -0.004329026 -0.08620348
000060 fd 1e f8 3c 11 70 1d bd cb ce 25 bc e8 07 74 bd
       0.030288214 -0.038436953 -0.010120104 -0.059577852
000070 9b c0 4c 3d 52 28 9c bc 26 d4 35 bd 02 9b aa bc
       0.04998837 -0.019062195 -0.044391774 -0.020825867
000080 ca 3c 81 bb 54 8a 42 bd 26 86 64 3d ce d6 82 3d
       -0.003944014 -0.0474952 0.055791996 0.06388627
000090 28 f1 9e 3d 37 46 be bc 99 96 da bd 9a 88 c2 bd
       0.07760841 -0.02322684 -0.106732555 -0.09498711
0000a0 46 32 db bb a4 13 8d 3d 4f b0 25 bd f4 82 20 bd
       -0.0066893427 0.06888512 -0.040451344 -0.039187387
0000b0 2c b7 6f bd eb e5 2d 3d e7 d6 bd bd 62 88 ce 3d
       -0.058524296 0.042455595 -0.09269505 0.10084607
0000c0 a5 0a 93 bd 2b d1 16 3d 98 f7 5b bc 89 54 48 bc
       -0.07179765 0.036820572 -0.01342573 -0.012227186
0000d0 49 85 7f bd dc 00 1d bc 47 70 a7 bc 23 50 b4 bd
       -0.06238297 -0.009582724 -0.02043928 -0.08804347
0000e0 00 e3 29 3b 6d b5 9a bd da e7 eb bc 7e 99 52 3d
       0.0025922656 -0.075541355 -0.028797079 0.051415913
0000f0 ac 53 e1 3c e1 ce b5 3b 98 fe a1 3c fc eb 12 3d
       0.027505718 0.0055483435 0.01977472 0.035869583
000100 37 d6 c6 bd 06 99 2e bd 48 a7 93 bc 40 04 8e 3d
       -0.09708827 -0.042626403 -0.018024102 0.069344044
000110 92 ef 3e bd 90 76 13 bd 54 43 ad bd ba ad ec 3c
       -0.04661519 -0.036001742 -0.084601074 0.028891433
000120 d8 b8 b3 bd 96 4f 96 bd d0 87 50 3d 37 59 93 bd
       -0.087754905 -0.073393986 0.05091077 -0.07194751
000130 f4 c9 71 ba f2 4b a1 3d ea 3a 02 3d 34 fa 29 bd
       -0.0009223514 0.078758135 0.031794466 -0.041498378
000140 88 17 fb 3c 05 62 17 bd a7 7e 45 bd 4c f4 9f bd
       0.030650869 -0.036958713 -0.04821649 -0.07810268
000150 54 ee 88 3d aa c5 7f bd a0 b4 41 bd 20 12 a1 bd
       0.066860825 -0.062444367 -0.047291398 -0.07864785
000160 01 6a a1 bd f7 50 80 bd ed 8a ac 3d 65 2b 66 3d
       -0.07881547 -0.06265443 0.084249355 0.056193728
000170 6d 3d 5e bd 2c 4f 46 bd 7e b5 4d 3d 14 37 5d 3c
       -0.0542578 -0.048415348 0.050221913 0.013501901
000180 fd b6 ae 3d 70 6e cd 3d c6 d2 81 3d 4a 5b 8a bd
       0.08530996 0.1003083 0.0633903 -0.06755693
000190 cb 23 51 bd 57 fa 44 3d c4 c4 0a 3d 3d 3e b0 bd
       -0.051059525 0.048090305 0.033879057 -0.08605621
0001a0 6a 2d 5d 3d 6e b6 d1 bc 3f 65 7f bd cc 1c 2e bd
       0.05399839 -0.025599685 -0.062352415 -0.04250793
0001b0 5e 30 1a 3b e4 6a b6 3c 6f 50 58 bd 7e 63 05 3d
       0.0023527364 0.022267766 -0.052811082 0.032565586
0001c0 5c 3f 12 3d 14 27 b1 bd 96 66 94 3d f9 24 93 bd
       0.035704955 -0.08650032 0.07246129 -0.07184786
0001d0 ab 32 3d bd c9 8c e9 bc 70 f9 cb 3b 1e e2 9a bd
       -0.0461909 -0.028509514 0.0062248036 -0.0756266
0001e0 53 be a9 bd dc 34 6a bc bd 8c d5 3d 9a 77 21 3e
       -0.082882546 -0.014294829 0.10427234 0.1576828
0001f0 74 6d dd 3c 77 2c 53 bd 8d c0 41 bd 5f 19 9b bd
       0.02702973 -0.051556077 -0.04730277 -0.075731985
000200 b5 93 f3 bd 80 3a df bb e6 cc 17 bc c4 0f a9 bc
       -0.11893407 -0.0068123937 -0.00926516 -0.0206374
000210 7c 83 01 3d 4b c7 71 3d b5 c2 6c 3d 4c bf 70 bd
       0.031619534 0.05902795 0.057802875 -0.058776185
000220 09 fe 58 3c 73 7d 41 bd 90 13 43 bd 8f 92 fe bd
       0.01324416 -0.04723878 -0.047626078 -0.124302976
000230 3a 4e 9c bd 0c 1c 4c bd 24 48 43 bc c5 8d ca 3d
       -0.07632108 -0.049831435 -0.011919055 0.09890322
000240 69 99 7a bd 4c f8 80 3d 5e 10 e9 3d 10 96 b9 3d
       -0.06118146 0.06297359 0.11380075 0.09061825
000250 94 d9 44 bc 72 2a a8 bd d5 21 87 bc 9a b6 50 3d
       -0.012014765 -0.08211221 -0.016495625 0.050955392
000260 c8 99 3b bd 54 1c be 3d f8 3b f5 bc eb 08 8e 3d
       -0.045800954 0.09282747 -0.029935822 0.06935295
000270 37 c0 91 bd 97 36 e7 bc fb da c0 bd c7 bc 6f bc
       -0.0711674 -0.028224273 -0.09416767 -0.01463241
000280 ad 8e 56 3d 6f eb e7 bc c0 c7 bc 3b 7f e4 de 3c
       0.05238216 -0.028310506 0.0057611167 0.027208565
000290 22 9a ad 3c 09 7a 12 be 96 c7 e3 bd 34 7e fd bc
       0.02119166 -0.14304365 -0.11122052 -0.030943967
0002a0 98 96 f1 bd 73 48 4a 3d 75 98 c8 3c 2b 0a 91 bd
       -0.117963016 0.0493855 0.02448676 -0.070820175
0002b0 ec 1e 66 bd 14 fe bc 3c ed f7 80 3d 7b d8 09 3e
       -0.056181833 0.023070373 0.06297288 0.13461487
0002c0 29 f1 3c 3c be 94 dc bd c2 58 b1 bd 03 39 7b 3d
       0.011532106 -0.10770558 -0.08659507 0.061333667
0002d0 cb bb fd 3c f1 32 90 3d 78 7e c8 3d d3 c9 86 3d
       0.030973336 0.07040966 0.09789747 0.06581464
0002e0 87 af ed bd 2d d0 bf bd 5d 35 ba 3d 40 8a e2 bb
       -0.11605745 -0.09365878 0.090922095 -0.0069134533
0002f0 b3 98 8e 3d f2 d3 a8 ba 1e 05 fd 3c 07 e7 a7 bc
       0.06962719 -0.0012880547 0.03088623 -0.020495905
000300 2b 74 10 3e ce 39 85 3d f8 d9 9b bd b4 04 31 3d
       0.14106815 0.06505166 -0.076099336 0.043217376
000310 aa 78 54 bd 70 0f 57 3d 51 cb 73 bd c4 44 9f 3d
       -0.051872887 0.052504957 -0.05952007 0.07776788
000320 7c 3a ab 3d 81 76 8f bd 27 7d 5c bd 50 4b d8 3d
       0.083607644 -0.07005025 -0.053830292 0.1056124
000330 cc 2b 8d 3c 58 49 53 3d 32 8c 8d bc 78 6c e2 3c
       0.017232798 0.051583618 -0.017278764 0.027639613
000340 9f 36 f3 3c e9 78 9e bd 83 70 7d 3d 72 21 27 bc
       0.029689131 -0.077379055 0.061874878 -0.010200845
000350 70 88 51 3d 6c c8 43 bc e0 c8 c4 3d ab 06 9b bc
       0.051155508 -0.01194964 0.09608626 -0.018924078
000360 2a 08 52 bd 31 43 9f bd 4a 3e 08 bd 62 36 ad bc
       -0.051277317 -0.077764876 -0.03326253 -0.021144096
000370 85 51 3c 3d eb b7 54 3d ca 18 04 be 6c 3d 5f 3d
       0.04597618 0.05193321 -0.12900081 0.054501936
000380 12 53 e8 bd f1 d6 02 3d c4 ed 2e bd ba 6e b4 3d
       -0.113439694 0.031943265 -0.04270722 0.08810182
000390 89 41 6d bd 50 7d bd 3c 58 49 bf bc a9 c4 de bd
       -0.057923827 0.023131043 -0.023350403 -0.10877354
0003a0 1b 1e 87 3d bf 00 c2 3d fa 7d 71 3c 8b eb 64 bc
       0.06597539 0.094727986 0.014739508 -0.013972173
0003b0 3e 80 b9 bd 54 67 67 bd 8a 43 2f bd 76 dc 0e bc
       -0.090576634 -0.056495026 -0.04278902 -0.008719554
0003c0 a3 6e 6c bd 6a 57 d5 bd 2e 9d 94 bc 49 44 de bd
       -0.0577227 -0.104170635 -0.018141355 -0.10852868
0003d0 22 82 79 bd 6c 03 a3 bc 7c a7 08 be 2e 9c e2 bd
       -0.06091512 -0.019899093 -0.1334514 -0.11064945
0003e0 e7 7d 53 be d7 77 05 be c8 b7 e1 3d 96 ae 93 bb
       -0.20653497 -0.13033997 0.110213816 -0.0045068962
0003f0 bd 12 37 3c 13 b2 db bd 36 24 b1 bd 39 bb 98 3d
       0.011173901 -0.10727324 -0.08649485 0.07457585

model.fc2.bias f4 [84]
000000 dc da ee bc b5 a0 d2 3c 2f 24 58 3e 64 ce 07 bc
       -0.029157095 0.025711397 0.21107553 -0.008288953
000010 a6 16 13 3e 35 e7 a2 bd 26 ed 39 3d 69 e4 0d bd
       0.14364108 -0.079542555 0.045392178 -0.034641657
000020 a6 eb d4 3c b2 de d2 bd 7c b7 85 bd 92 95 40 3d
       0.025991272 -0.10296382 -0.065291375 0.04701764
000030 02 d6 b0 bd f0 dd 14 3e 30 a1 77 3d 88 a2 aa bc
       -0.08634569 0.14537787 0.060456455 -0.020829454
000040 cb 02 0f be 5b 37 0d 3e 57 44 91 3d 0e be 9a bc
       -0.13965909 0.13790648 0.07093113 -0.018889453
000050 a4 cd 67 bc b4 76 d4 3d 2c 1b 88 3c ad 30 32 3d
       -0.01414815 0.10374203 0.016614519 0.043503452
000060 9c 06 7b 3e 55 71 23 3e 15 e9 d7 3d 8d b8 82 bd
       0.2451424 0.15961201 0.10542504 -0.063828565
000070 4d 6f 18 3e d2 ee ab 3d b0 af ef bc ce b1 5b bd
       0.14886208 0.08395161 -0.029258579 -0.053636365
000080 31 2c fe 3c ee 74 a7 3d da af 9d bd 21 8e 06 3e
       0.031026931 0.081765994 -0.07699557 0.13140155
000090 86 13 c5 3d 71 c7 53 3e d2 10 6f bc ac 5f ed 3e
       0.096228644 0.2068155 -0.014591413 0.46362054
0000a0 5b 44 1b 3c c7 c0 28 bd 28 30 43 bb 8e 0b 07 be
       0.009476746 -0.04119947 -0.0029783342 -0.13188002
0000b0 7f 0d 30 bd 83 48 df bd 35 e9 4e bd 9b 74 e9 bd
       -0.04298162 -0.109025024 -0.050515372 -0.11399194
0000c0 e8 e8 d0 3e e4 65 59 3e aa 78 f3 3e d5 8d 1f 3e
       0.40802693 0.21230274 0.47552997 0.15581448
0000d0 61 b0 03 3e 55 3b 8e 3c 52 a7 a9 3c 19 9b 8f 3d
       0.12860252 0.017362276 0.020709667 0.070120044
0000e0 ba a8 c9 3c d8 ab 15 3e 0b 97 6e bd 04 e9 6d bd
       0.024616588 0.14616334 -0.058249515 -0.05808355
0000f0 45 fa d7 bc d9 95 22 3d 3a 05 e2 3d b4 4e 3b 3e
       -0.026364455 0.039693687 0.11036153 0.18291742
000100 3b 81 33 3d 6a df 49 3d ad 3b 05 3f af eb dd bc
       0.043824416 0.04928533 0.52044183 -0.027089922
000110 1d 38 1c bc 66 88 ae bd 1c 8f 13 3e 6d 78 4f 3e
       -0.009534863 -0.0852211 0.1441006 0.20260783
000120 64 9f 47 3e 20 36 ae 3d 03 1e f0 3e 11 7a 9e 3e
       0.19494396 0.08506417 0.46897897 0.30952504
000130 2e 75 99 3d c5 3d bd 3e 94 dc 00 3b 43 ca 4a 3d
       0.074930534 0.3696119 0.0019662725 0.049509298
000140 54 96 5c 3e 5a 36 18 3e 0a d9 5c 3d 7a 06 8e bc
       0.2154172 0.14864483 0.053917922 -0.017337073

model.fc3.weight f4 [10, 84]
000000 f0 c1 8b 3c 31 f2 26 bc c8 a3 97 bc 93 cc 2f 3e
       0.01706025 -0.010189579 -0.018510714 0.17167883
000010 0e 96 6b bd f5 0f 1e 3d 66 ff 56 bc b5 1e aa 3d
       -0.05751615 0.038589437 -0.013122415 0.08306638
000020 cd 55 89 bc 81 9b ee bd 0e e5 2c bd e0 2b 03 3e
       -0.016764546 -0.11650754 -0.04221063 0.12809706
000030 7d bb 71 bd 3f 42 29 3e 5f e1 22 bc 85 84 ee 3d
       -0.059016693 0.16529177 -0.009941428 0.1164637
000040 5f 66 1a 3e 6b c1 2e be 56 79 0b 3d c0 07 75 3d
       0.15078114 -0.1706597 0.03405126 0.059821844
000050 19 db 03 3e 14 71 ad 3d 9d cd a2 3e 1c 1c a9 3b
       0.12876548 0.084688336 0.31797495 0.0051608216
000060 2a 42 f9 bc 6d 1e 96 3d 2f 00 05 be 2a 94 ff 3d
       -0.030427057 0.07330022 -0.12988351 0.12479432
000070 c9 91 d3 3d 66 b8 1f be 32 10 06 be 76 8b 79 bd
       0.10330541 -0.15597686 -0.13092116 -0.060924016
000080 dd 57 24 3e 81 20 50 3e 67 1a 14 3d 50 5c 4f be
       0.16049142 0.203249 0.03615799 -0.20250058
000090 91 11 97 be d9 33 91 3e 35 41 82 3e 65 34 39 be
       -0.2950559 0.2835987 0.25440374 -0.18086393
0000a0 d8 df 30 bc 13 8b cd 3d ea db 11 3e f3 f5 9b 3d
       -0.010795556 0.10036292 0.14244047 0.076152705
0000b0 25 68 d1 3d 5a b0 77 3e 12 80 30 3e 09 d2 8e 3d
       0.10224942 0.24188367 0.17236355 0.06973655
0000c0 00 b6 8b 39 b4 cb 1b be ab 4e 0d be 4c 9c 73 bd
       0.00026647747 -0.15214425 -0.1379954 -0.05947523
0000d0 d4 b2 25 be 47 7c cf bd c1 42 a0 3d da d6 43 bc
       -0.16181499 -0.10131126 0.07825232 -0.01195308
0000e0 b7 91 b3 3d cc 5f 33 bc 59 c6 9e bd 31 3d 89 bd
       0.08768027 -0.010948133 -0.077526756 -0.067011245
0000f0 80 35 93 3d e1 42 9c bd cc 78 39 3e 24 8d df bd
       0.07187939 -0.07629944 0.18112487 -0.10915592
000100 77 14 6b 3e 17 6c 12 be 2a 78 a1 be b9 c3 9c 3d
       0.22957025 -0.14299046 -0.3153699 0.07654519
000110 75 27 ee bd 1b 3f a2 3d f8 8d 0b 3d 85 9c 20 3e
       -0.116286196 0.07922193 0.03407094 0.15684707
000120 ec 08 29 bd 6a c5 27 be 8f af 9d 3e 14 d2 21 bc
       -0.041268274 -0.16383901 0.30798003 -0.009876747
000130 3a c5 44 3e 6b 48 b0 be 16 39 92 bc 3f d5 4d 3d
       0.19215861 -0.3443025 -0.017849486 0.050252195
000140 e0 3c a8 bd ee ba ed 3d 27 ba f6 bd 8d b5 cc bc
       -0.08214736 0.1160792 -0.120472245 -0.024988914
000150 da fe c7 3c c9 53 a2 bd e1 ee 27 be d0 22 80 3e
       0.024413515 -0.07926137 -0.16399719 0.2502656
000160 9f 39 d8 bd 7f db b0 bd 44 b6 c6 bd 54 3c d1 bd
       -0.10557865 -0.086356156 -0.09702733 -0.10216585
000170 0f 71 88 3d 96 12 83 3e 65 5c 05 3e fa 13 e8 bd
       0.06662189 0.25600117 0.13023527 -0.11331935
000180 20 06 9f bb 3d 7f f1 3e f4 49 1b bb d0 a8 e1 bd
       -0.004853025 0.47167388 -0.0023695203 -0.110185266
000190 15 dd 0d bd 6f d6 8c be 7f 90 2e 3d 10 22 d5 bc
       -0.03463467 -0.2750735 0.04261827 -0.026017219
0001a0 87 3b 3f 3e 2e 25 c7 bd 86 cf a9 3c d2 de 22 3d
       0.18675052 -0.09723888 0.020728838 0.03976328
0001b0 28 e1 a5 bc 03 7a b1 3d b3 15 52 3e 74 7c 03 bc
       -0.020248964 0.0866585 0.2051609 -0.008025277
0001c0 7c 55 81 3d 34 91 05 be 53 5d f1 3d be 64 a8 bd
       0.06315133 -0.13043672 0.11785378 -0.0822234
0001d0 9e 52 ea 3c 37 ed fd bd 49 43 46 bd 1f 57 63 be
       0.028603848 -0.12398761 -0.048404012 -0.22201203
0001e0 00 27 d7 b8 ce 4f 3b 3e e2 51 1a bc 8a f6 87 be
       -0.00010259263 0.18292162 -0.009418936 -0.26555282
0001f0 b0 45 c2 3d d4 b4 a6 3b 40 6a 32 3d f4 d1 18 be
       0.09485948 0.0050874744 0.04355836 -0.14923841
000200 c1 32 83 bd 47 42 3c 3e cc 18 42 be 8a 89 af 3d
       -0.06406165 0.18384658 -0.18954772 0.08571155
000210 0c 9a ff be 60 f1 0b 3e 7d ae 41 be dc af b8 bd
       -0.49922216 0.13666296 -0.18914218 -0.090179175
000220 69 b0 8e bd 25 11 80 bd 61 28 0a 3e c3 94 13 be
       -0.06967241 -0.0625327 0.13491966 -0.14412217
000230 e6 43 52 bd d8 9b cd 3d 47 00 98 3e 29 e7 2c 3e
       -0.051334284 0.100394905 0.29687712 0.16885056
000240 d5 9f 16 3e dd 45 72 bc 6c b8 d9 3c eb fa 5c be
       0.14709409 -0.0147871645 0.026577197 -0.21580093
000250 9e 75 5c bd 36 e5 2e 3e 42 8a 54 bd 7b 40 bc bd
       -0.053823106 0.17079625 -0.051889665 -0.09191986
000260 db f0 60 3e ed bb 64 3c cf ff 3c be 18 74 90 be
       0.21966879 0.013960821 -0.18456958 -0.28213573
000270 57 2d c1 bd ad f3 00 3e 21 bc 0d 3e 08 c6 f9 bc
       -0.09432476 0.12592955 0.13841297 -0.030489936
000280 00 a5 64 3a d5 ce ec bd 7a 25 98 bd 70 96 aa 3c
       0.00087220967 -0.115628876 -0.07429023 0.020823687
000290 50 dc b6 be 3b 42 46 be 1f 65 5a bd b0 b4 a8 ba
       -0.3571496 -0.19361202 -0.053319093 -0.0012871232
0002a0 71 10 75 bd c0 96 8e 3d b6 14 6f be 80 93 3a 3d
       -0.059830133 0.06962347 -0.23347744 0.045550823
0002b0 53 1e 8e 3d 37 9b 4a 3e dd b3 32 3d e5 85 76 3c
       0.06939378 0.19785772 0.043628562 0.015046571
0002c0 d1 b1 d4 bd 23 c8 7f be c8 01 a5 bd c9 32 03 3d
       -0.10385478 -0.2497869 -0.0805698 0.032030854
0002d0 9a 3f da 3c 10 4a 5d be 9e 04 82 bc d3 e0 9f 3d
       0.026641656 -0.21610284 -0.015871342 0.07806554
0002e0 cc f4 3e 3d 9b 9f 83 3d ec 09 8b 3e 16 e8 db 3d
       0.046620175 0.06426927 0.27156007 0.10737626
0002f0 ab 03 6f be 2e f3 1b be 3b e6 90 3d b3 8e cb bd
       -0.23341243 -0.15229484 0.07075163 -0.09939327
000300 9c 39 26 3d 14 6c dc 3d b9 5c 69 3c 34 60 11 3d
       0.040582284 0.10762802 0.014243298 0.035492137
000310 fc 51 0d 3c ef 31 ce bd 61 72 c8 3c 17 1f 90 bd
       0.008625504 -0.10068118 0.024468603 -0.0703718
000320 05 e4 87 be 98 ee 0c 3d 01 c1 e8 3d 3c ec 5f 3e
       -0.26541153 0.03440723 0.113649376 0.2186746
000330 a6 02 38 be 2c 01 41 bd a2 1c 31 3e c6 ca 0d 3e
       -0.1796976 -0.04712026 0.17296079 0.13846883
000340 ab c4 93 bd 1b bc cc 3d cd 87 23 bc c6 f7 4b 3e
       -0.07215246 0.09996816 -0.009981108 0.19918737
000350 0e 57 c6 bd f0 68 81 3e 8e 44 06 3c b5 7f 0a be
       -0.09684573 0.25275373 0.008195056 -0.13525279
000360 33 7d 69 3e fb 72 1e bd 55 17 97 3e a3 20 89 3d
       0.22801666 -0.038683873 0.29509988 0.06695678
000370 a0 d7 ec 3d a8 d0 a8 3d 1d 73 e3 3d 1e 62 31 3e
       0.11564565 0.08242923 0.111059405 0.17322585
000380 78 86 35 3b b5 9a a7 bc a4 ef e5 3d 1a 9c bf bd
       0.0027698558 -0.020459512 0.112273484 -0.09355946
000390 df 01 9c bd 96 14 03 3d 72 d9 af 3d e6 43 21 be
       -0.076175444 0.032002054 0.08586396 -0.15748557
0003a0 16 01 d8 bd 60 ed 86 3d c9 c0 12 3d df a0 cc bd
       -0.10547082 0.065882444 0.035828386 -0.09991621
0003b0 05 26 be bd b7 a1 8c bd 54 c7 3d 3c ad d6 b6 3d
       -0.092845954 -0.06866782 0.011583168 0.08927665
0003c0 e1 8e 91 3d f4 c9 71 3c a4 64 b4 bc c5 16 1e be
       0.0710733 0.014757622 -0.022020645 -0.15438373
0003d0 d2 22 f4 3d af 92 37 3e 9e 8d 26 bd c4 9f d6 3d
       0.11920704 0.17927049 -0.0406624 0.104796916
0003e0 25 94 5c 3d 0d f3 97 3e 08 47 2e bd 04 f6 41 3e
       0.05385222 0.2967762 -0.04254821 0.18941504
0003f0 91 45 a9 bd 26 19 59 3d a6 4e ab 3c ad 6d 5a be
       -0.08265222 0.0530025 0.020911526 -0.213309

model.fc3.bias f4 [10]
000000 e1 fe 6d be da 75 f7 be 20 d3 2f 3d 8a fd b2 3e
       -0.2324176 -0.483321 0.042925954 0.3495906
000010 6a a3 01 3f 4a 24 26 be db 90 36 3e 66 6f 6a be
       0.50639975 -0.1622478 0.17828695 -0.22894058
000020 d8 f8 98 3e 37 1e 9e be
       0.29877353 -0.30882427
