decorator_workspace/server/simulate_job/app_server/best_FL_global_model.pt (torch, 251694 bytes, 10 tensors)

conv1.weight f4 [6, 3, 5, 5]
00000000: 791f 303d 76bd 8d3e 1664 243e 7bbc 933e
00000010: 321b 5e3e 1414 f5bd c461 97bd 6e08 183e
00000020: 6e05 113e 4bef 95bd 8f88 d4be 54d9 11bf
00000030: 31b7 1ebf 1bff 05bf d4e9 dfbe a857 fabd
00000040: d3b0 8ebe 1e37 86be b0ae 90be 4791 17be
00000050: 5119 1d3e 487a 653e cd96 7a3e 7ec9 ca3e
00000060: ee85 913e 4ec4 953d ae6f da3d 0414 f93d
00000070: 0cf7 743e 805a a4ba d4d3 d03d e1c5 843e
00000080: b259 333e ee2d f43d c8a2 3a3e ca57 18be
00000090: e6c6 66be 3bd8 b7be a8fa a3be bd70 7abe
000000a0: d62d c2bd 41e1 e0bd 4a8e d4bd 6258 febd
000000b0: 0afe 00bd 0924 183e 2ae1 923e 0063 bc3e
000000c0: c2aa 3c3e ba11 963d 1048 4d3b a0cb cf3c
000000d0: 8c8d aabc 18ea 153d 6c30 683c 52b5 063e
000000e0: ecff 423e 5392 8b3e 4c91 2a3e d1e7 c63d
000000f0: b0a1 7cbc 5460 59be 33ca abbe 2cb8 38be
00000100: 2378 55bd 2e09 b0bd d891 57bd 8f52 bdbd
00000110: 2845 d2bd 2914 73bd 2026 7a3d ac21 013e
00000120: 0c86 593e 98f4 343e 7a49 a03d 9d56 ebbd
00000130: 60af 31be 6007 0a3c 060b 0fbd cc16 003d
00000140: d0bf 023b 261c 3b3d 42b2 493c ba67 a43d
00000150: 990e ae3d affa bf3d 40e3 c63c 5465 4a3e
00000160: a875 673c b6bb b73d fa98 163e 64b5 be3c
00000170: fb7d db3d c021 433e c45e 903d a844 4b3e
00000180: 9892 463d d9f9 193e 5058 72bc 77b0 883d
00000190: 02c3 63be bedd b0bd 98fd 16be 2c95 a5bd
000001a0: f2ea e2bd fbd0 18be 205a a03b d61b 663d
000001b0: 5221 833d 9912 51bd 2277 a4bd 56dc ab3c
000001c0: a3e7 d83d be5e b13d 868c 33bd 18be 8abd
000001d0: ce4c 883b 1dd2 8dbd 04c1 8abd 0074 9439
000001e0: 52c9 933d af32 c4bc a520 d0bb 2062 53bc
000001f0: b663 43be 7a8a 0f3e 30e3 b43b de67 3f3e
00000200: f207 6c3e 300e 423e 5194 243d 54a7 223e
00000210: 4651 f43d b6da 5f3e 0b23 6c3d 050c 6c3d
00000220: 3208 213e 8379 923d 7fa3 d83d 6570 bdbd
00000230: 1fa1 8f3d 6dc8 123e cd44 2e3e f38e 80bd
00000240: 1e6a 6fbd f88b b7bd a4b0 c53d 9c78 87bd
00000250: a8f9 c9bc 14e4 9ebd 4874 ea3d fc04 5bbe
00000260: b3f6 c6bd 24b7 afbd acdc 5ebe 9022 c6bb
00000270: 12aa e3be 06bf 44bd 9080 2d3e a055 4cbd
00000280: 8078 30ba f3ef bfbe 5e61 013e 5978 3e3e
00000290: feb5 ce3c d5d2 b9be 60b0 bd3c d0a5 4b3e
000002a0: cada ea3c 0f7d 383e fbb7 b9be 4601 773e
000002b0: 97de 393e 0e97 1bbe 1cd5 a5bc 380c 353e
000002c0: c685 afbd de4a 1c3e c705 323e d647 ee3d
000002d0: 564d 243e 3a5e 77be 4ebb 5e3e 41b8 8a3e
000002e0: aa6e b33d f63f 4b3d 5c84 9ebe 1a8b 4b3e
000002f0: 9235 e23e 4d36 a33d da3e 5bbe 3a42 963d
00000300: a881 433e 962d 093e 775c a73d bb2b 43be
00000310: 9788 903e 8a27 9e3e 027e 17be 3cf1 fe3d
00000320: 0a5a 8d3d 1cf1 e0bd 061e ddbd c0a5 e63d
00000330: 38b8 9abd 1cf3 f9bc b94d b9be a465 0dbc
00000340: edd4 513e c820 063c a04e 203b 4e68 c8be
00000350: 7078 4b3e 445f 353e 747b 83bc 6481 bebe
00000360: 5e8b 653d 1a0d 3c3e 580a 34bd 1a5e f23d
00000370: c393 c8be 2cb3 263d d6be c93d 9035 9bbe
00000380: e4da 21be 10ce 5bbe 6014 5bbc d84d 11bc
00000390: 6577 20be 7819 02be a007 25be 76d4 51bd
000003a0: d0f5 efbd 6098 41bd e069 0fbe 59a0 3bbe
000003b0: 25a9 56be 696d fdbd 8231 29be 233e e9bd
000003c0: 3298 77be 8aa7 52be 9a47 60be 18e5 6bbd
000003d0: b4e2 65bd 55e7 52be 883a 50be 6f82 21be
000003e0: f012 473c 3c4e 29bd 1fe7 2c3d f800 70bd
000003f0: 64b4 95bd 8a33 a53d 74dc 17be b4f4 18bd
0.042998765 0.2768361 0.16053805 0.28854737 0.21690062 -0.1196672 -0.07391694 0.14846966
0.14162228 -0.07321032 -0.41510436 -0.5697224 -0.6199828 -0.52342385 -0.43733084 -0.1222375
-0.2786928 -0.26213926 -0.28258276 -0.14801513 0.15341689 0.22409928 0.24471588 0.3960685
0.28422493 0.07312833 0.106658325 0.12162021 0.23922366 -0.0012539178 0.10196653 0.2593222
0.17514685 0.11922823 0.18226159 -0.14877239 -0.22536811 -0.35907158 -0.32027173 -0.24457069
-0.09481399 -0.10980464 -0.10378702 -0.124192014 -0.03149227 0.14857496 0.28687412 0.3679428
0.18424514 0.073276 0.003132347 0.02536565 -0.020819448 0.036600202 0.014171701 0.13155106
0.19042939 0.27260074 0.16656989 0.09712184 -0.015419409 -0.21228153 -0.33552703 -0.18039006
-0.052116524 -0.08595501 -0.05262932 -0.092442624 -0.10267097 -0.059345398 0.061071515 0.12610501
0.21242541 0.1767143 0.078265145 -0.114911295 -0.17352057 0.00842461 -0.034922622 0.03127174
0.0019950755 0.04568114 0.012310566 0.08027597 0.08498878 0.09373986 0.024278283 0.19765216
0.0141271725 0.0897135 0.14706793 0.023279853 0.10717388 0.19055843 0.07049325 0.19850409
0.048479646 0.15036716 -0.014791563 0.06674283 -0.22242358 -0.08636044 -0.14745176 -0.08085093
-0.110799685 -0.1492347 0.0048935562 0.05617889 0.0640284 -0.051043127 -0.08030535 0.020979088
0.10591056 0.08660649 -0.043835185 -0.06774539 0.0041595465 -0.069248416 -0.06775096 0.00028315187
0.07216133 -0.02394995 -0.006351548 -0.012901813 -0.19081005 0.14017668 0.005520247 0.18691966
0.23049906 0.18950725 0.040180508 0.15884143 0.11929564 0.21860775 0.057650607 0.05762865
0.15725783 0.07152083 0.105780594 -0.09249953 0.07013153 0.14334269 0.17018433 -0.062772654
-0.05845081 -0.08962244 0.09652832 -0.06614801 -0.024655178 -0.07758346 0.1144796 -0.2138862
-0.09715023 -0.08579853 -0.21763867 -0.0060466006 -0.4446569 -0.048033737 0.16943574 -0.049886346
-0.0006731823 -0.37487754 0.12634799 0.18600596 0.025233265 -0.36293665 0.023155391 0.19887471
0.02866878 0.18016456 -0.36273178 0.2412158 0.18151318 -0.15194342 -0.02024322 0.17680442
-0.08570437 0.15262935 0.17385016 0.11634795 0.16045126 -0.24157038 0.21751139 0.270937
0.08761342 0.049621545 -0.30960357 0.19877282 0.44181496 0.079693414 -0.21410695 0.073368505
0.19092429 0.13396296 0.08171933 -0.1905965 0.2822921 0.3088954 -0.14794162 0.124483556
0.06901939 -0.10983488 -0.10796742 0.11262083 -0.07554668 -0.030511431 -0.3619211 -0.00863019
0.20491381 0.008186527 0.0024460927 -0.39142078 0.19870162 0.17712122 -0.016050078 -0.37208092
0.056041114 0.18364373 -0.043955177 0.11834355 -0.39175233 0.040698215 0.09850852 -0.30314302
-0.15806156 -0.21465325 -0.013371557 -0.008868657 -0.15670545 -0.12705028 -0.1611619 -0.05122801
-0.11716807 -0.047264457 -0.14005232 -0.18322887 -0.20962961 -0.12374384 -0.16522792 -0.11388805
-0.24179152 -0.20571724 -0.21902314 -0.057591528 -0.056124404 -0.20596059 -0.20334828 -0.15772413
0.012150511 -0.041334376 0.0422126 -0.058594674 -0.073097974 0.08066471 -0.1483019 -0.037342742

conv1.bias f4 [6]
00000000: e4ca 67be 9e8a eb3d c86e 693c b213 b83e
00000010: 7bdf 97be 8581 92be
-0.2263599 0.115010485 0.014247604 0.35952526 -0.2966269 -0.2861444

conv2.weight f4 [16, 6, 5, 5]
00000000: 2e2b 743d 8a4c 223d 99b8 993d 2a77 c1bd
00000010: 00dc 5b3c faaa e43c 5cfd 9e3c d189 7f3d
00000020: 71f2 8e3c f642 8b3c 5e35 223c 3a58 053d
00000030: dac8 493d 04cf 6bbd d026 4c3d d228 a43d
00000040: f74f 973c 1552 fbbc eaf1 253d 445f fdbc
00000050: 2dfc bf3d 9629 ecbc fe7f 693c c1b9 8f3d
00000060: d352 693d 6817 33be 0538 27be 970b f5bd
00000070: 4698 9cbd 99b8 20be 4074 9cbd c0be 65b9
00000080: 7106 c6bd f776 10be 6d97 efbd 5f71 c83d
00000090: 664b c83d a2c5 363c 7811 51bd 3a63 f3bd
000000a0: b7e5 bb3d 38a1 a63c aadc 44bd 5a27 4ebd
000000b0: 783a d5bd c021 183b 9b8c 843d e04b de3d
000000c0: 74e1 e43c 52a4 373d 3cd0 cbbd 7d05 dbbd
000000d0: 33ca c2bd 41c7 b93d e0dc d6bd d239 cb3c
000000e0: f8ed 9c3d 6e18 25be 3ee1 2fbc 4a62 a63d
000000f0: 75b6 e9bc 74eb 963d b61a a93c eee0 923d
00000100: b6ae 973d 7049 acbd 516d 4a3e 599e 6b3d
00000110: ecc4 1ebe dac2 ec3c 802b eb3a 681a 6a3e
00000120: f8a3 a4bd 497f 2fbd ce6a 3b3e 09df 5fbd
00000130: 7fb1 4abd d7a0 bcbd 0a4e 87bd 976b 8fbd
00000140: 3c6a d0bc 3037 ffbd 6460 0cbe dad1 bfbc
00000150: c64a ecbc 0a7e 34be 1887 ccbd d1ff 13be
00000160: da4f 18be 1277 ffbd e246 84bd 9fda 34be
00000170: fe66 0bbd 8a81 98bd a263 f0bd 435f c4bd
00000180: 022a 3bbe 692c 55bd 2044 c13c d4e2 2dbd
00000190: d494 86bd 8337 0ebe f0eb 923d c35c e13d
000001a0: 00d4 29ba 8bb6 ddbd 0115 14be 52a3 71bd
000001b0: 5ef9 9f3d 8b82 053e cece eebd 0295 0dbd
000001c0: 247a 1ebe 6ec8 223e 0278 083e 20c1 7bbc
000001d0: 651f 1ebe 82ad a7bd 2a4b 33bd 5665 243e
000001e0: 35a3 ddbd a4a2 41be 2869 e3bd 5d1e 863d
000001f0: 04b1 e13d 9cf4 0bbe 3840 2ebd 7acf 9b3d
00000200: 1170 5f3d 0cc9 0d3e d405 53be 883f 2ebd
00000210: 56f0 b13c 82a9 20bd de5e 7ebd 309a 1ebe
00000220: b611 02be 6be9 16be 289b a5bc 6c65 59bd
00000230: 8896 9bbb 28e9 bfbd 4f53 ffbd a45c 543d
00000240: bc9f 333e 08f6 51bd 72af 3bbe 3239 0fbe
00000250: c710 693d 0b45 203e bad9 ff3c b244 ec3c
00000260: 5ac2 8b3d a031 503b fda4 e13d 2ef3 30bd
00000270: 532b 82bd 40d6 bdbd 4a07 da3c 24fa 293c
00000280: 62f3 24bd 034b e1bd 819b 96bd adff d2bd
00000290: debf c5bd b64b c9bd 333b 3bbe b4fb d2bd
000002a0: 984d 52bd 9d9b 0bbd db68 37be ffbe 99bd
000002b0: 1eae cebd 5218 cabd ed15 bf3c fad2 2a3e
000002c0: fdf7 983e 7ac9 543e 6cdc 3e3e 6d3b 6b3e
000002d0: 403a 72bb 72c3 093e 55bf 623d 3f5b 803d
000002e0: 7406 353c 04d4 27bc 1edc 243d 5324 6a3d
000002f0: 8a4f 77bd f4d0 903d 44fd 14be a0c2 77bd
00000300: a0cb 4ebc ad4f b3bd e079 4abd 568a 1ebe
00000310: ecab 22bc 1055 9fbd e694 3cbe 3b88 34bd
00000320: fe32 7b3d 0d62 e23d 08d5 47bd b6dd dfbd
00000330: fd12 b4bd 5158 3dbc 7220 093e 2935 9fbd
00000340: f7f1 2bbd c486 9d3d a07b 9f3d ff64 ec3d
00000350: 9466 b6bd 68b7 803d 7cf3 bdbc e12d e93d
00000360: 9953 f03c a766 1dbd a457 f23d da26 083d
00000370: acb1 a83d ecd2 483b 769d 88bd a49d 913c
00000380: 0efc b4bd f0c6 003e 7800 083e 0253 393e
00000390: 74cf 233e 6866 853e 09b7 0bbd 4a91 293d
000003a0: 577d 8cbd f41b 443d 74fc 91bc 015e f4bd
000003b0: fe07 ddbc 4834 d3bd 2e8e 9e3d 5e28 123d
000003c0: 2fd7 07be 166d bdbc 76d4 1dbe ec02 cebd
000003d0: fa70 653d 80d2 44bb c161 e7bd 4c19 d5bc
000003e0: e449 32bd 3a67 f7bd 54dc 6dbc 20e1 6dbd
000003f0: 00ed a83a 224f 1ebd 549b 243d 8022 133e
0.05961149 0.039623775 0.07505912 -0.09446557 0.013419151 0.02791356 0.01940792 0.06238729
0.01744959 0.016999703 0.009900419 0.032554843 0.049263813 -0.057570472 0.049841702 0.08015598
0.018470747 -0.030678788 0.04051391 -0.030929215 0.093742706 -0.028828423 0.014251707 0.070178516
0.056963753 -0.17489398 -0.16329964 -0.11965101 -0.07646231 -0.15695418 -0.076393604 -0.00021910202
-0.09669197 -0.14107881 -0.11698804 0.09787249 0.09780006 0.011155518 -0.05104205 -0.1188416
0.09174674 0.020340547 -0.048062004 -0.050330497 -0.10411543 0.0023213476 0.06472131 0.10854316
0.027939536 0.044834442 -0.09951827 -0.10694406 -0.09511223 0.09071208 -0.10491347 0.024807844
0.076625764 -0.161226 -0.010734854 0.08124216 -0.028529385 0.07369128 0.02064262 0.07171808
0.0740637 -0.084124446 0.19768263 0.05752406 -0.15504807 0.028901506 0.0017942041 0.22861636
-0.08039087 -0.042845998 0.18302462 -0.054656062 -0.04948568 -0.09210365 -0.06606682 -0.07002943
-0.025441281 -0.12461698 -0.13708645 -0.023415495 -0.028844249 -0.17626205 -0.099867046 -0.14453055
-0.14874211 -0.12473883 -0.06458832 -0.17661522 -0.034033768 -0.074465826 -0.117377535 -0.09588482
-0.18277743 -0.052044306 0.023592055 -0.04245265 -0.065713555 -0.13888364 0.07173908 0.11004021
-0.0006478429 -0.10825833 -0.14461137 -0.058993645 0.07811235 0.1303808 -0.116605386 -0.034565933
-0.1547628 0.1589677 0.1332703 -0.015365869 -0.15441664 -0.08187391 -0.043772854 0.16054282
-0.10822145 -0.18909699 -0.11104041 0.0654876 0.11020091 -0.1366753 -0.042541713 0.076079324
0.054550234 0.13846225 -0.20607692 -0.042541057 0.021721046 -0.039224155 -0.06210219 -0.15488505
-0.12702069 -0.1473748 -0.020215586 -0.05307524 -0.0047481693 -0.09370643 -0.12467062 0.05184616
0.17541403 -0.051260024 -0.18328646 -0.13986662 0.056900766 0.15651338 0.03123175 0.02884135
0.06824179 0.003176786 0.11017797 -0.043200664 -0.0635592 -0.092693806 0.026614804 0.01037458
-0.04027117 -0.110006355 -0.07353879 -0.103026725 -0.096557364 -0.09828894 -0.18284301 -0.10301915
-0.05134353 -0.03408395 -0.17911093 -0.07507133 -0.10091804 -0.0986792 0.023325885 0.16682044
0.298767 0.20779982 0.18638772 0.22971888 -0.003696099 0.13453463 0.05535825 0.06267404
0.011048902 -0.01024342 0.040248983 0.057163548 -0.06037859 0.07071105 -0.14549738 -0.060488343
-0.01262179 -0.08755431 -0.049432635 -0.15482458 -0.009928685 -0.07779896 -0.18416175 -0.044075232
0.061327927 0.11053858 -0.048787147 -0.1093096 -0.08792684 -0.011556701 0.13391283 -0.07773811
-0.041978803 0.0769172 0.077872515 0.11542701 -0.08906284 0.06284982 -0.023187391 0.11385704
0.029336737 -0.038427975 0.118331224 0.033240177 0.08237013 0.0030643297 -0.06670658 0.017775364
-0.08837138 0.12575889 0.13281429 0.18098071 0.15997106 0.26054692 -0.034110103 0.041398324
-0.06859844 0.04787822 -0.017820574 -0.11931992 -0.02698135 -0.10312706 0.077419624 0.03568303
-0.1326568 -0.023123305 -0.15413079 -0.10059151 0.056015946 -0.0030032694 -0.11297942 -0.026013039
-0.0435275 -0.12080236 -0.014517862 -0.058076024 0.0012888014 -0.038649686 0.040187195 0.1436863

conv2.bias f4 [16]
00000000: 4d33 243f 15a6 a7be 7229 b93e ad4e 77be
00000010: 5b86 243f 121b 2abe 0dae ca3e 40e7 d63e
00000020: e0a2 a9bb 9e05 42be becf 00be 5c4d 9e3d
00000030: 4b82 a0be 163a dcbd 5953 f4be 40fd 0e3e
0.6414078 -0.32743898 0.36164433 -0.24151106 0.6426751 -0.16611889 0.39585915 0.41973305
-0.005176887 -0.18947455 -0.12579247 0.07729599 -0.31349406 -0.107532665 -0.4771984 0.13963795

fc1.weight f4 [120, 400]
00000000: 9f04 2c3d bec2 693c d6cd d13c 099c 773d
00000010: f0e9 1d3d af34 d7bc 9c42 263d 20d0 fbba
00000020: 9818 a9bb 48b0 88bb cbf9 263d b24b c03c
00000030: 09d2 3e3d 3c80 60bc a8a9 cabb 25ee f73c
00000040: f0c0 a23a 604f aaba 98e7 423d 2045 aebb
00000050: 5ca7 4a3d 444f 123d 6e56 453c e686 b8bc
00000060: 60df b0ba 7bf7 833d 381c 2f3d 48e6 fa3b
00000070: 86d6 183b 9668 773c 3ed7 ccbc 1ad7 233c
00000080: 3bd7 26bd 40e9 523b 4f5f 083d ecc9 90bc
00000090: 4eff 0c3c 78c1 48bd a998 50bc f264 7fbb
000000a0: b850 ba3c 7ff3 33bc 4583 abbc cc91 883c
000000b0: 70a6 c1bc ba75 053d e3e5 933c b61e 28bc
000000c0: 4834 8fbd 28e5 04bb 2ed4 a0bc 8ff5 98bc
000000d0: 18dc 39bd e309 55bd 6c96 67bd 8cd3 8bbb
000000e0: 48bf c63b aeb4 a9bd 087c f2bb dc2b 253c
000000f0: f9ed 8ebd 42f6 bcbc fc70 06bd ece8 083c
00000100: 5077 4a3c 84f6 9ebd 42a0 c0bc e88a 3c3b
00000110: 0239 6cbd 6088 c2bd ce71 ebbc 2cb6 8cbd
00000120: 8a13 5fbc ab25 12bd a4cf 01bd e4b9 1dbc
00000130: 50a5 9e3c 0833 54bd 7253 e23c bb34 073d
00000140: ce29 04bc d8c6 79bc 2668 0abd 4252 d33b
00000150: e6c2 0a3c 1ff5 103c 8a2f 38bc 6e57 07bd
00000160: c105 523d f093 493b 0d7a 02bd 1c30 a63c
00000170: c69b 74bd dad8 b7bb b40d 21bd 273a ea3c
00000180: c025 673c 16c4 8cbd d4be 2abd 51a1 bbbc
00000190: a3a6 5b3d 8993 f8bc 6002 a9ba 000e 4eb9
000001a0: c258 b7bc ca4d 2abc 331b 803d 84d3 683d
000001b0: 8891 473d 0fa7 0f3c a4a5 ac3d e056 293d
000001c0: 4fa2 543d 7f7c 3d3d e43d 993b 0346 d53d
000001d0: b724 cc3d f40c 483c 38de 25bb 50a4 e53c
000001e0: 9346 b33d 3381 cd3c aa7e 693c 5f77 2c3d
000001f0: 6010 093d 65f3 6c3d 2eaa c43c 52bd 4ebd
00000200: dbbb 48bd aa0f 0fbd b6a2 0c3c 9669 b33c
00000210: 42b8 df3c 1538 0bbd 77f7 753c 29cc 8b3d
00000220: f818 113d 3f72 a8bc 3cb0 e9bb 2e58 6f3d
00000230: aaf0 0bbd e61c 20bd 3155 803b 604b 683d
00000240: 6ee5 0ebd 40bc 29bc 75ca 0bbd 2e82 02bd
00000250: 68f5 ff3c 4890 b7ba 5dad 8f3c 6a5f 503c
00000260: d238 18bd 4e4a 2cbd ec24 84bc ea3b 16bd
00000270: 92b9 313c 36df 8dbd 00eb 923c 14a7 da3b
00000280: d0b1 303b d071 02bd 1318 74bd f8b6 2cbd
00000290: 8831 8bbc 58d5 293c 2618 23bd fd38 163c
000002a0: bc19 303b b8ce 6dbd 50a3 58bb 11e4 853c
000002b0: ca1f 16bd 1622 15bd 9844 acbc 97de b2bc
000002c0: 8db2 1dbd 9081 663b e57b 8ebd 7263 acbc
000002d0: 94dc 8bbd 346a 7fbd 2414 d8bc 4e3b 8ebd
000002e0: 5265 a3bc 1466 6a3c 8009 d539 b22e 6dbd
000002f0: dc00 853c 8c4b 89bd b29e 9abd c8ed 68bb
00000300: 5ea3 6bbd 9a74 7cbd 501a 84bd 30fe dfbc
00000310: ae43 aebb 200b 133d f421 09bd a23d 0d3d
00000320: 9433 6b3d 68c0 fc3c 64a9 48bd ba90 dfbc
00000330: 484a 71bb 54fb b0bc 96dc 833c 4aab 81bd
00000340: cef7 dd3c 33a9 113d 0d66 743b 1fc2 f8bc
00000350: de6c 1e3c 7ed7 9bbc c057 0dbb ceb3 52bc
00000360: ac20 09bd c8e9 493c b07c 623d 4fc2 1dbd
00000370: 035d afbc 6c50 93bd d9ab 10bd cb52 93bc
00000380: 8f3b 553c 9a24 d03c 06c0 23bd 9901 b3bc
00000390: 6460 8b3d 339a 97bc bda8 0ebd 1e03 4ebd
000003a0: 46ff 0c3d d420 763d 8891 7c3b 1587 b5bc
000003b0: 49dc abbc 2220 0f3d a3cf 3d3d 20e9 ba39
000003c0: 38c4 403b 4d44 e1bc 9ff9 813c 678f d4bc
000003d0: ccef f3bc d0c8 30bc b40c cd3c 049d 34bd
000003e0: 88cc 15bc a6b5 62bc 4805 91bc d253 a93c
000003f0: 8698 62bd aa40 a43c b602 17bd 3051 fa3a
0.041996595 0.014267622 0.025610846 0.06045154 0.03855318 -0.026270239 0.040590867 -0.0019211806
-0.0051604025 -0.004171405 0.040765565 0.023473594 0.046587024 -0.013702448 -0.0061847754 0.030264923
0.0012417119 -0.0012993626 0.047584146 -0.005318299 0.049476013 0.035720125 0.012044532 -0.022525262
-0.0013494305 0.064436875 0.04275152 0.007656846 0.0023321225 0.015100619 -0.02500498 0.010000015
-0.040732604 0.0032182485 0.03329402 -0.017674409 0.008605791 -0.04901263 -0.0127317095 -0.003897008
0.022743568 -0.010983347 -0.020936618 0.016671084 -0.023638934 0.032582976 0.018053954 -0.010261228
-0.06992394 -0.002027819 -0.019632425 -0.018671779 -0.045375913 -0.05201138 -0.056539938 -0.0042671617
0.006065283 -0.08286415 -0.0074000396 0.010081258 -0.069789834 -0.023066644 -0.032822594 0.008356314
0.012357548 -0.07761863 -0.023513917 0.0028769318 -0.057671554 -0.09498668 -0.02874079 -0.06870684
-0.013615498 -0.035680454 -0.031692162 -0.009626839 0.019365937 -0.05180648 0.02762768 0.033009272
-0.008066608 -0.015245162 -0.03379073 0.006449015 0.008469319 0.008847504 -0.011241803 -0.033042364
0.05127502 0.0030758344 -0.031854678 0.020286612 -0.05971887 -0.0056105675 -0.03931971 0.028592182
0.014108121 -0.06873338 -0.041685894 -0.02290407 0.053625714 -0.030343788 -0.0012894385 -0.00019650906
-0.02238119 -0.010394523 0.06255188 0.056842342 0.048722774 0.008767857 0.08430031 0.041342616
0.051912602 0.046261307 0.0046765674 0.10413744 0.0996794 0.0122101195 -0.0025309455 0.028032452
0.08753695 0.025086021 0.0142513905 0.04210603 0.033462882 0.057849307 0.02400693 -0.05047352
-0.049007278 -0.034927048 0.008583715 0.021900933 0.02730954 -0.03398903 0.0150126135 0.0682605
0.035424203 -0.02056229 -0.0071316045 0.058433704 -0.034165062 -0.03909006 0.0039164056 0.05671251
-0.03488677 -0.010359824 -0.034128625 -0.03186243 0.031244949 -0.0014004791 0.01753872 0.012718061
-0.037163563 -0.04206305 -0.016130887 -0.036678232 0.010847466 -0.0692734 0.017934322 0.0066727493
0.0026961453 -0.03184682 -0.05959327 -0.04216668 -0.016991392 0.0103658065 -0.03981795 0.0091688605
0.0026870808 -0.05805847 -0.0033056326 0.016344102 -0.03665141 -0.03640946 -0.021028802 -0.021834655
-0.038500357 0.003517244 -0.06957225 -0.021043513 -0.06829181 -0.062357143 -0.026376791 -0.06944905
-0.019945774 0.014306564 0.00040633604 -0.05790586 0.016235761 -0.067038625 -0.075498 -0.003554212
-0.057528846 -0.061634637 -0.06450331 -0.027342886 -0.0053181266 0.03589928 -0.033479646 0.034482606
0.057422236 0.030853465 -0.04898967 -0.02729069 -0.0036817957 -0.021604218 0.016096395 -0.06331499
0.027095702 0.03556175 0.0037292272 -0.030366002 0.009669511 -0.019023653 -0.0021567196 -0.012860252
-0.033478424 0.012323804 0.055294693 -0.038515385 -0.021406656 -0.07193074 -0.035320137 -0.017983815
0.013014688 0.025408078 -0.03997805 -0.021851348 0.068054944 -0.018506145 -0.03482889 -0.05029594
0.034423135 0.0600899 0.0038538892 -0.022159139 -0.020979064 0.034942754 0.046340596 0.00035650376
0.002941383 -0.027498389 0.015866099 -0.025947286 -0.02977743 -0.010790065 0.025030471 -0.044095054
-0.009143002 -0.013837254 -0.017702714 0.020669851 -0.05532124 0.020050365 -0.03686782 0.0019097682

fc1.bias f4 [120]
00000000: dbd9 6fbc 05ec 25bd 8c6e ac3d ac33 cb3d
00000010: 455d 523d 2684 a43d 10b7 ef3b 0bae e73c
00000020: 42ab 833d 675c a9bd dd54 9c3d 6448 9bbd
00000030: 5649 41bc 4af3 8dbc aca5 313e 744b a2bd
00000040: 52f5 eb3c 2adb 123d 5f53 243e 17f7 2b3c
00000050: 5cb1 abbd 4c9b 09bd b041 97bd c97f 673c
00000060: 3ee1 083d 80c8 453d 6857 3fbb 0c62 fb3d
00000070: ad16 583d 31d8 37bd e00d 643d b6a3 53bc
00000080: f640 c83d a45f 2ebc 6ce6 f93b 7c43 b3bc
00000090: ee3f c73c 885a 913d 365e 793d eef9 be3c
000000a0: 1613 b5bb 2edb 30bd 0a9b fcbb 8989 133e
000000b0: e85c 36bd 78df 6b3e a60a 0f3e d074 9abb
000000c0: 00c9 543d f5ae b73d e62d 77bc a313 01be
000000d0: a03d 3c3e cebd a8bd aa33 d63c 70ea f83b
000000e0: 54c0 f63c 7ead f13d 8027 7e3b 6cdc ee3b
000000f0: d5d2 1bbd f696 3abc 7ec2 34bc 3ce0 c7bc
00000100: b95d a3bc d6b3 0e3d dd6e 843d 1a7b 3e3d
00000110: 3ab8 2fbd 5408 1e3d 641c d1bd d2be c73c
00000120: bad6 aabd cac0 02be e4fb dabb 0040 7e35
00000130: a2a1 e53c 523e 7d3d b909 143e 7ab3 313d
00000140: 7e2a 80bd 04a3 6a3d 374a 41bd 018a ce3d
00000150: 7892 03bd e3a9 143d 6cf9 993d 0ee2 733d
00000160: eb39 2f3e 84ed 193b ff59 3d3e 099f 15be
00000170: 197b e7bd 64dd 27bb 7b4d 1f3d 8c19 a8bd
00000180: f880 173d d208 e43c 878f f2bd e33a 84bc
00000190: bb48 ac3d 8f36 613b 7565 d3bd 464a 703d
000001a0: 6a9d 053e ba11 ca3c d66c dbba b1e0 1f3e
000001b0: 1d51 c33d 30cf a93c 1820 d0bc f869 b13d
000001c0: a393 a0bc eefa d0bd bf31 ce3d bac0 05bd
000001d0: d28a b93c 2a8b 443e 8115 0fbe b864 813b
-0.014639343 -0.04050829 0.08419523 0.09921965 0.05135848 0.08033018 0.007315524 0.028281232
0.06429149 -0.082695775 0.07633374 -0.07582167 -0.01179727 -0.017327923 0.17348355 -0.07924548
0.028803501 0.035853542 0.16047429 0.0104959225 -0.08383438 -0.03359537 -0.07385576 0.014129587
0.033417933 0.048286915 -0.0029196385 0.1227456 0.052756 -0.04488391 0.055677295 -0.01291745
0.09778015 -0.01064292 0.0076263454 -0.021882765 0.024322476 0.070973456 0.060880862 0.023312535
-0.005525957 -0.043177776 -0.007708912 0.14407934 -0.044522196 0.23034465 0.13968906 -0.004713632
0.0519495 0.08968917 -0.015086627 -0.12605147 0.18382883 -0.08239327 0.026147682 0.0075963065
0.030121006 0.11800669 0.0038780868 0.00728946 -0.038042862 -0.011388531 -0.011032699 -0.024398915
-0.019942151 0.034839474 0.06466458 0.046504118 -0.0429003 0.03858216 -0.10210493 0.024382982
-0.08341737 -0.12768856 -0.0066828597 9.4715506e-07 0.028031174 0.06182701 0.14456834 0.043384053
-0.06258105 0.05728437 -0.047189917 0.10084916 -0.032122105 0.03629483 0.075182766 0.059541754
0.17111938 0.0023487518 0.18491362 -0.14611448 -0.11302776 -0.0025614137 0.03889225 -0.08207998
0.03698823 0.027836237 -0.11843782 -0.01614136 0.0841231 0.0034364795 -0.10322086 0.058664583
0.1304833 0.024666656 -0.001674081 0.15613057 0.095369555 0.020728678 -0.025405928 0.0866279
-0.019601649 -0.10204111 0.10068082 -0.0326545 0.022649202 0.19193712 -0.13973047 0.003948774

fc2.weight f4 [84, 120]
00000000: 707f d4bd 42ce b1bd 82d6 103d bcb7 0f3c
00000010: c22e 2ebd 2085 283b 6ca6 e0bb 002a dcbd
00000020: 8bcf b8bd d620 bbbc 7ebb 8c3b 5b77 553d
00000030: 9e75 33bd 4086 4e3d 6525 8dbd f854 aabd
00000040: 5135 893c 0f86 a03d 2800 0e3e 86c1 813d
00000050: dafb ebbc 5f60 a5bd 1cc6 ba3b 78c7 5ebb
00000060: da8d 60bc 211b 8f3d 5ac0 813d d86c 9a3c
00000070: c837 28bd 7adf 2f3d 5ad6 3cbd b9c6 83bd
00000080: 4e94 48bd ddd5 08bd b092 4f3d 4fa6 edbc
00000090: 8a50 0d3e 00cd f53d ae48 4dbc 72a4 0ebd
000000a0: 5946 c7bc 68df 9c3d 549e 203d cd56 a4bd
000000b0: d6ce dd3c 24c7 86bd d41f 87bc ec3c a33d
000000c0: 96ea 7f3d 66a5 173e c6f1 35bc e847 00bd
000000d0: 551a 30bd 1ea9 3f3d 804e 74bd 82f6 cd3d
000000e0: cef7 82bb d8a4 993d 685d 7d3d c41c e13d
000000f0: 9abb 833d 7a9a c9bc 968e 8fbd 8804 ccbc
00000100: 7f95 32bd 1767 b23d 1870 abbd 9c78 893d
00000110: 20b5 0fbd b4ae 8dbd 7a36 b0bc f871 a23d
00000120: b34d 9cbd 2f28 debb 70ab b0bc 4924 74bc
00000130: e34b 44bd 4d6a c43c 60c5 8ebd d925 8bbc
00000140: 75d5 cebd bed5 e13c 0ba2 33bd ecea a4bd
00000150: eea0 97bd 1196 173d 757a 483c 1d7d 08bd
00000160: c663 02bd e29b a33c 10b9 f03a b5da 153d
00000170: fe42 85bd cc48 52bc cbf2 b3bd 28f7 573b
00000180: 4ba5 0bbd 47b6 d13d d30d 883c fa9e d93d
00000190: b075 d33c 27f8 433d 8c91 9c3c 023e 3bbd
000001a0: 6f9d 373d 1e92 a0bd 3071 c2bd aa26 89bd
000001b0: 7875 6dbb 307b 86bd 8e69 d53c 264c 8b3d
000001c0: be63 1bbc 2450 a63c 80b5 e1bc d80f 7f3d
000001d0: 7417 03bd ff57 e0bd 2ccb d33c 1c6d 19bd
000001e0: f2a2 3c3d 708d 4e3d e4ec e53c 7b34 d43d
000001f0: ec1d 353d 70a6 a93c eadc 9c3d 4a03 38bc
00000200: 8638 9d3d 78e9 6c3b 64dd c7bc 705e fabc
00000210: ecb2 9bbd b494 123c e210 92bd 8a2b bcbc
00000220: e054 ac3a de80 46bc ce99 443c cefb aa3b
00000230: 3ee2 9dbd f103 e23c a20a a73d 1699 323d
00000240: d796 a83d 1607 d8bd efbe f2bc 50d9 86bc
00000250: 12d8 36bc b6cd 37bc 5281 7bbd a111 13bc
00000260: d5a6 9fbd 4b11 54bd 9144 77bd 9cb2 21bd
00000270: cbe4 e3bd aa51 543d 7117 973c 9a0c c8bd
00000280: a2df b53d d5ba ae3d 4491 483c ebed 8dbd
00000290: d086 25bd b0a6 a03c d397 8bbc 416e 9b3d
000002a0: 2638 27bd 804a 27bd e4d8 0a3d 0b4a 08bc
000002b0: 88e3 953b 5d79 183d 6c04 013e a055 8e3c
000002c0: 6a1f a13d 724d cfbd 15a1 4fbc 4c94 a03d
000002d0: 1678 3bbd 9837 acbd 2bee 823d 4823 bd3d
000002e0: d133 13bc 8e3b 1a3d fc1d e53c c681 533c
000002f0: 19a1 e93c 63b2 cdbd c08a 983a e7b5 b33d
00000300: 2a3e 01bd f491 9bbb 0125 723d 7349 bebd
00000310: 4203 213c d674 7d3d cc94 37bd 5217 583d
00000320: 4181 53bc 4a8a e0bd d836 193b af5e a23d
00000330: f266 3b3d 86e2 a5bd 37ff b6bd d308 7bbd
00000340: 4108 53bd 1bee 8dbc 4cff 0bbe 7d88 cd3d
00000350: 36ee d7bd 6bee 983d 1934 913b a898 4d3c
00000360: d057 0dbe c2b3 4ebd 4f01 df3c 94ed 5f3d
00000370: 7b15 f5bc 4650 0dbc 0298 26bd 4ea6 90bd
00000380: 201c 043d c5ac dabc e8d1 2b3d b916 b8bc
00000390: f4a6 4bbd 9402 bf3d 0143 95bd 46d3 9ebd
000003a0: 8136 9fbc e0cd 84ba ab79 53bd 2209 58bc
000003b0: a067 0abd 3810 603d ff8c c93b de8f abbd
000003c0: 54c6 ce3c 422d cc3d de2b 033e 6003 3fbb
000003d0: 4308 7cbd 2b59 9fbd 68f6 693d 9677 a3bd
000003e0: 188c bbbc 4162 9fbd 3300 18bd 2eb3 cbbd
000003f0: 2335 8f3d 5790 aebd dae2 653c 3d82 93bd
-0.10375869 -0.08681919 0.03536082 0.008771833 -0.04252506 0.0025714114 -0.0068557765 -0.10750198
-0.09023961 -0.022842806 0.0042948117 0.05211578 -0.04381334 0.050421 -0.06891898 -0.08316988
0.016749056 0.0783807 0.13867247 0.0633574 -0.028806616 -0.08075022 0.005699886 -0.0033993404
-0.013705695 0.06987596 0.06335516 0.018850729 -0.041068822 0.042937733 -0.04610286 -0.06434388
-0.04896956 -0.03340708 0.050677 -0.029009966 0.13800254 0.12001991 -0.012529535 -0.034824796
-0.024325537 0.07659799 0.039213493 -0.080243684 0.027076166 -0.06580952 -0.016494669 0.07970604
0.062479578 0.14809188 -0.011105007 -0.031318575 -0.042993862 0.046792142 -0.059645176 0.10056783
-0.003996826 0.075021446 0.061856657 0.10991815 0.064322665 -0.024609793 -0.07009618 -0.024904504
-0.0435996 0.08711069 -0.083709896 0.067124575 -0.035084844 -0.069180876 -0.021510351 0.07931894
-0.076320074 -0.0067796926 -0.021566123 -0.014901229 -0.047923934 0.02397647 -0.0697124 -0.01698582
-0.100993074 0.02756774 -0.043855708 -0.0805262 -0.07403742 0.03700835 0.012236227 -0.033322442
-0.031833433 0.019971792 0.00183657 0.03658553 -0.06506918 -0.012834739 -0.087865435 0.0032953713
-0.034093183 0.10239845 0.016608154 0.106260255 0.025812954 0.04784408 0.01911237 -0.045713432
0.044827875 -0.0784037 -0.09494245 -0.06696828 -0.0036233347 -0.06566465 0.026051309 0.068016335
-0.00948423 0.020301886 -0.027552366 0.06227097 -0.03200479 -0.10954284 0.025853716 -0.03745757
0.046053834 0.050427854 0.02806706 0.10361572 0.04421799 0.020709246 0.076593235 -0.011231253
0.076767966 0.00361499 -0.02439756 -0.03056261 -0.07602486 0.008946586 -0.071321264 -0.02296998
0.0013147853 -0.012115685 0.0119995605 0.0052180057 -0.07709168 0.02758977 0.08156325 0.043603025
0.082318954 -0.105482265 -0.02963206 -0.016461045 -0.011159914 -0.011218479 -0.061402626 -0.008976371
-0.077954926 -0.051774304 -0.060368124 -0.039476976 -0.11127623 0.051835693 0.018443795 -0.097680286
0.08880545 0.08531729 0.012241665 -0.06930145 -0.04041177 0.019610733 -0.017040169 0.07589389
-0.04082503 -0.040842533 0.03389825 -0.0083184345 0.004574243 0.037225116 0.12599343 0.017374814
0.0786732 -0.101221934 -0.012672682 0.078407854 -0.04576882 -0.08409041 0.06393083 0.09235245
-0.008984522 0.037654452 0.0279684 0.012909358 0.0285192 -0.1004379 0.001163803 0.087749295
-0.031553425 -0.0047476236 0.05911732 -0.09291353 0.009827437 0.061879 -0.044819638 0.052756615
-0.0129092345 -0.109638765 0.0023378637 0.07928216 0.045752473 -0.080998465 -0.08935397 -0.061287712
-0.051521543 -0.017325452 -0.13671607 0.10035799 -0.10543482 0.074673496 0.0044312594 0.012548603
-0.13803029 -0.0504644 0.027222304 0.05466993 -0.02991747 -0.008625096 -0.04067231 -0.0706297
0.032253385 -0.026693711 0.04194823 -0.022471773 -0.049719766 0.093266636 -0.072881706 -0.07755141
-0.01943517 -0.0010132156 -0.051629703 -0.013185771 -0.03379023 0.054702967 0.0061508412 -0.0837705
0.025241055 0.0996957 0.12809703 -0.0029146299 -0.061531316 -0.07780679 0.057119757 -0.079817936
-0.02289395 -0.07782412 -0.037109565 -0.09946285 0.06992557 -0.085236244 0.014031136 -0.07202575

fc2.bias f4 [84]
00000000: 0552 003d acc2 f63c 4876 f53d 6ce2 fbbc
00000010: c475 0cbc 50e5 0a3d 2060 723e 58be a5bd
00000020: 1076 dc3b 1c89 433d 46ef 363e 7cc6 9b3d
00000030: 63d0 023e a343 563e 2408 3e3d 6cc9 8c3e
00000040: eac3 313e 6e7c 61bd 6ac1 223d 0027 df3d
00000050: b434 beba 3f25 8f3e 029b 2bbe 98db 0f3e
00000060: fc8f 383e 67ef d03d b8f2 b0bd 545e e6bc
00000070: 2224 8e3e d72b 3f3e 3838 22bc 6481 87bb
00000080: 1e11 f63c 887e 753e 17ff 8bbd 8c81 60bd
00000090: cd49 c63d eed8 053e 1053 a9bd 980f aabd
000000a0: 4ce8 6fbc fece 823b 0d78 b83d b2ee b6bd
000000b0: c345 84bd ebfa f3bd fcd9 8c3e ac50 8bbb
000000c0: 4001 f2bd 786f d53d 1001 44bb e642 2dbc
000000d0: a8f2 2f3e 3215 a5bd 3645 98bd 209f 1dbb
000000e0: b809 96bd 4240 343e 28b3 eebc ba13 a93e
000000f0: d054 1dbe 4e60 15be 3a01 983d b027 92bd
00000100: 5e1f 0d3d a301 0b3e 66da fb3e 250c 123d
00000110: 5498 1ebc e282 78bd 76ac 9d3e af39 923e
00000120: 8a01 01bd 945b bfbc 797e fc3d ac64 903a
00000130: ef32 353d 9465 85be 3056 d13d e003 523e
00000140: b22a 03be 3071 1ebe dfeb 17be f17a 75bd
0.03132822 0.030122124 0.11985451 -0.030747615 -0.008572999 0.033910096 0.23669481 -0.08092946
0.0067279413 0.04773818 0.17864713 0.07606217 0.12774806 0.20924239 0.046394482 0.27497423
0.17359892 -0.055050306 0.039735235 0.108961105 -0.0014511556 0.27958104 -0.1675835 0.14048612
0.18023676 0.102019124 -0.08640045 -0.028121151 0.27761942 0.18669067 -0.009901099 -0.0041352976
0.030037459 0.23974049 -0.06835764 -0.054811046 0.09682045 0.13071033 -0.08267796 -0.083037555
-0.014642786 0.0039919605 0.09007273 -0.08932246 -0.064586185 -0.11913093 0.2751006 -0.00425156
-0.11816645 0.104216516 -0.002990786 -0.010575032 0.1718241 -0.08060683 -0.07435076 -0.0024051145
-0.073260725 0.17602637 -0.029138163 0.33022863 -0.15364385 -0.14587519 0.07422109 -0.07136476
0.034453742 0.13574843 0.49190062 0.035656113 -0.009679873 -0.060671695 0.3079564 0.28559634
-0.03149561 -0.023359098 0.1232881 0.0011016331 0.044238027 -0.2605406 0.10221517 0.2050929
-0.12809256 -0.15472865 -0.14836071 -0.0599317

fc3.weight f4 [10, 84]
00000000: 1c35 9f3d 2447 2ebd 388b 203e b246 293e
00000010: ea08 163e 164b 933d d3b1 1a3e e73d 91bd
00000020: 81b1 4ebd 7ad2 703e 3296 4e3d 3c5c 263e
00000030: 3c9a 94bd 0915 893e 7dd1 37bd 2ebb 113d
00000040: 19ce 5fbd 59c6 9e3d 9808 c3bc 37be 14be
00000050: 30ef 94bd 7c0a db3d f4c0 373d 8883 863e
00000060: c87f 8fbe 8c15 123e e2ac 243e f81c c3bd
00000070: ce2a 79bd 5377 59be 4000 33bd 77fa d13c
00000080: 5d55 963d 1d21 0c3d 6a01 1f3d 1619 ac3d
00000090: 60f6 3fbe 0895 5d3e e678 a03d fd00 bfbd
000000a0: dc62 8ebc 60a3 903d 57f4 2bbe 8cdf 113c
000000b0: 383b fa3d da7f 86bd 2560 2abe 402c dfbc
000000c0: 525b 0a3d 1b69 0cbe a6f2 283e cedf cbbd
000000d0: e5a6 093c d483 5ebd 537b 9abd a33e e4bc
000000e0: fd7c 923d f492 303e dec4 063e 2c3c 8dbe
000000f0: 4505 243e 04a9 573e 0039 fbb9 e6fd 94bd
00000100: 9da3 0ebd 5ec4 763d 3ebf 80be 767f 183e
00000110: 6533 6a3d 0ee3 973d 9c79 92be 3d0b c1bd
00000120: e497 0c3d 745e 3bbe 3cad 1a3d 380d acbc
00000130: f058 c63d bc32 913d ec07 5d3e 4271 ad3e
00000140: 296a 3b3d 9f31 523d 7c6d cabd 46bb ddbd
00000150: 24ff a1bd 4e6e 073c 220d e5bd c422 9c3e
00000160: 8a2d 823c e1f7 a43d 5c66 59be d588 c93d
00000170: 7601 eabd ba80 17be 43e4 e6bd a675 253e
00000180: db3c 62bd b62e f5bd 78e9 113c c8cc 09bd
00000190: 53b3 0fbe 0853 523e bc13 19be eef8 05be
000001a0: 5783 8f3d 45dd 8c3d d072 7d3e a0ed 7abc
000001b0: 70da 843b 0a0f 703d 17c3 b3bd e61c 943e
000001c0: fb39 c3bd fec0 54bd 0bb5 2abe 2e42 7b3d
000001d0: 5a03 193e 0282 57be b075 c43d 9ce0 bc3d
000001e0: 9d46 c6bd c08e 003c 0a4f 9abd cb90 de3b
000001f0: 87d7 a93d 1072 3f3c c01b e33b 871e b1bd
00000200: bd14 8e3c 4415 753e b857 08be 84b0 5a3d
00000210: 3c4f be3d c660 13bd 6904 0b3e 33b9 85bd
00000220: 18a6 37bd 12ee 46bd 7404 d73d 16bc 913d
00000230: 7c6d 82bc aa5b 3e3e 3a82 3ebe 51a5 27be
00000240: 0d2e 2c3e 4ca5 993d 0694 fc3d ef98 803d
00000250: 2814 20bd 4482 70bd baeb 6ebe 8237 b4be
00000260: dc48 13bd 4893 933d 523d 68be 0acf 83be
00000270: 7fca 43bd e231 853d f96c e23c a062 663e
00000280: 8e50 8d3d 0c08 5c3e a826 82be 746e 473e
00000290: 4166 933d 6036 ee3d 4662 493e 84a8 373e
000002a0: 629e ea3d 0b81 88bd a2b3 e3bc e07e 81be
000002b0: ec31 b73c 3a0b 34be 5a2d 803d 9a53 f53d
000002c0: 5236 083e 72da 6e3e 7ce4 8e3e 40e7 14be
000002d0: 2f90 40be 032d bf3d 98be f63d 1d9d 663e
000002e0: fabc f6bd 1005 b9bd 064b c83d 0042 40bd
000002f0: ba64 243e c0fe 0fbd b445 fa3d 0eb2 8f3c
00000300: d404 c8bd 0af3 efbd 9a1c ef3d 26e8 ad3d
00000310: 801f 053e e7b3 013e b6ad 4e3d d9d3 d4bc
00000320: ee40 eebb 8752 1a3d c4d3 2e3d 1b90 863d
00000330: d197 6fbd 7cd9 a2bd d07a d83b 47d6 c73d
00000340: 1160 bfbd b9b2 acbd cfce 943d 2a7b 2a3d
00000350: c2cc 04be 3eeb 83bd 814d 99bd a53f 103d
00000360: 6e20 38be 267d 4f3e bcf6 da3d 2003 b3bb
00000370: 3ae2 3dbe cd31 a4bd c60c f6bd 2028 6bba
00000380: e909 5fbd 076c bcbc 9b36 413c a5b3 683e
00000390: 1099 35bd b301 463e 94e4 39bd 40f6 3ab8
000003a0: a403 1b3e 1d2a 723e f8c2 993e 8cf5 043e
000003b0: 3eeb 87bc 005c d0bd f86f 3f3e 9b62 b43c
000003c0: 7609 a0bc bfae 9bbd 4f95 f33d bafe 0bbe
000003d0: 3000 843d d47c 07be 1540 fa3d 32c9 523d
000003e0: 680f e33d 8b50 40bd a2e6 0cbe 264f 25bd
000003f0: 5a85 edbc 47fb 94bd 818f bebd 0237 7fbe
0.07773802 -0.042548314 0.15678108 0.16530874 0.14651838 0.07192056 0.15106897 -0.07091885
-0.05046225 0.2351779 0.050436206 0.16246122 -0.0725598 0.2677386 -0.044877518 0.0355789
-0.05463991 0.077526756 -0.023807809 -0.14525686 -0.07272184 0.10695359 0.04486175 0.26272225
-0.28027177 0.14266032 0.16081575 -0.0952701 -0.060831837 -0.21236925 -0.04370141 0.025632126
0.073405005 0.034211267 0.038819708 0.08403222 -0.18746328 0.21638882 0.078355595 -0.093263604
-0.017381124 0.07062411 -0.16792427 0.008903395 0.12218326 -0.065673545 -0.16638239 -0.02724278
0.033778496 -0.1371197 0.16498813 -0.09954797 0.008401607 -0.05432494 -0.075430535 -0.027861899
0.07152746 0.17243558 0.13161036 -0.2758497 0.16017635 0.21060568 -0.0004791692 -0.0727499
-0.034824003 0.060245864 -0.25145906 0.14892372 0.05717792 0.07416354 -0.28608406 -0.09425972
0.03432454 -0.1829775 0.037762865 -0.021002397 0.09684932 0.07089755 0.21585053 0.3387547
0.04575554 0.051316854 -0.09884164 -0.10826735 -0.07909992 0.008266045 -0.111841455 0.30495274
0.015890855 0.08055092 -0.21230453 0.09840552 -0.1142606 -0.14795199 -0.11274006 0.1615816
-0.055233818 -0.119718 0.008905761 -0.03364256 -0.1403325 0.20539486 -0.14948934 -0.1308324
0.07007473 0.06878141 0.24750829 -0.015315443 0.00405436 0.058608092 -0.08777445 0.28928298
-0.09532543 -0.051941864 -0.16670625 0.06134241 0.14942685 -0.21045688 0.095927596 0.09222528
-0.09681437 0.007846534 -0.07534607 0.006792163 0.08293062 0.011684909 0.0069307983 -0.08648401
0.017343873 0.23933893 -0.13314712 0.053390995 0.092924565 -0.035980962 0.13575901 -0.065294646
-0.044836134 -0.048566885 0.10498896 0.07115953 -0.015921347 0.18589655 -0.18604365 -0.16371657
0.16814442 0.07502231 0.12332921 0.0627917 -0.039081722 -0.05871798 -0.2333211 -0.351986
-0.035958156 0.07205826 -0.22679642 -0.25743896 -0.047800537 0.06503655 0.027639853 0.2249856
0.0690013 0.21487445 -0.25420117 0.19475728 0.07197238 0.11631465 0.19666395 0.17935377
0.114559904 -0.06665238 -0.027795617 -0.2529211 0.022362672 -0.17582408 0.0625865 0.11978836
0.13301972 0.23325518 0.27908695 -0.1454134 -0.18805002 0.09334757 0.120480716 0.22520871
-0.12047763 -0.09034169 0.097799346 -0.046937943 0.16054049 -0.035155058 0.12220326 0.017540958
-0.09766546 -0.11716278 0.11675377 0.084915444 0.13000298 0.12666284 0.050458632 -0.025979923
-0.007270924 0.03767636 0.042682424 0.06570455 -0.058494393 -0.07951638 0.0066064373 0.09757667
-0.09344495 -0.08432526 0.07266008 0.041621365 -0.12968734 -0.06441353 -0.07485486 0.035216946
-0.17981121 0.20262584 0.10691592 -0.005463019 -0.1854333 -0.08017311 -0.12014155 -0.00089705177
-0.05445281 -0.02300073 0.011792804 0.22724779 -0.044335425 0.19336586 -0.045384005 -4.4575194e-05
0.15138108 0.23648877 0.30031562 0.12984294 -0.016591664 -0.101737976 0.18695056 0.022019675
-0.019535761 -0.076016895 0.11893713 -0.13671389 0.06445348 -0.13231212 0.12219254 0.051461406
0.11086923 -0.04695181 -0.13759854 -0.040358685 -0.028994251 -0.0727449 -0.09304715 -0.24923328

fc3.bias f4 [10]
00000000: a561 6dbe b4b4 29bf 7a3b 763e 5e48 a93e
00000010: 6e00 293f 3f6f 08be c332 833e de21 5abe
00000020: 1cae b93e 97e7 98be
-0.2318178 -0.66291356 0.24046126 0.33063024 0.6601628 -0.13323687 0.25624666 -0.21301982
0.36265647 -0.2986419
