decorator_workspace/server/simulate_job/app_server/FL_global_model.pt (torch, 251560 bytes, 10 tensors)

conv1.weight f4 [6, 3, 5, 5]
00000000: 288a 55bc fdc4 823e 2a2a f63d 610d 873e
00000010: 0f32 f03d 4d70 c7bd 3cee ae3c ae31 8a3e
00000020: 99bb 903e 32c9 7d3d db86 cdbe 449e 3abf
00000030: 945a 61bf e277 32bf c72a b0be 003e a8bb
00000040: 467d 80be 9325 95be 3103 a4be 09e2 87bd
00000050: 16c7 9c3e 9c90 e93e fa10 fb3e 8edf 1e3f
00000060: 4ec8 a53e d43c 613c b797 bc3d 54d5 c43d
00000070: 2e93 6a3e c110 01be 7083 143e 8f0f cf3e
00000080: eca5 b63e bae3 a03e 3642 9a3e a934 31be
00000090: c436 c3be 2f8c 1bbf ea69 febe a975 5ebe
000000a0: eacf ecbd de1c 34be d757 52be 3ad1 6fbe
000000b0: 5367 9fbd 7d2f bc3d 14a1 af3e 908f e43e
000000c0: 660e 723e 0efd ddbd d4c6 f0bd 28ab e1bd
000000d0: 0c7d 39be 5ca8 cebd 5613 36be 25bd 383e
000000e0: 32b6 b03e 2a89 003f 1d39 d43e 6789 8a3e
000000f0: dedf 153d 74cd 7dbe 98cb d5be 540f 5abe
00000100: 3362 6d3d f7b1 58bd 3959 8ebd b29c 17be
00000110: 4e28 38be 107f ccbd 4087 80ba 6d58 e53d
00000120: 52f0 353e 669e 0d3e 4985 0fbe f7a1 50be
00000130: aec2 9abe 0df9 24be 5f5b edbd 4ce2 543d
00000140: 2434 d1bd 2200 8dbd 9e63 70bd e94f 9e3d
00000150: fce4 f53d b218 c63d d22d 5e3d 08c3 703e
00000160: 2052 c23d 5ab1 3f3e 8c56 513e 41e6 063e
00000170: 12f7 503e cf00 903e 7e9f 333e acac 7f3e
00000180: e0b9 e03d 5eff 443e bf0e eabb 56e3 a63d
00000190: 2e40 4bbe 3a31 f8bd a6f0 56be 3030 35bd
000001a0: 506b f9bb 5e1f 5fbe ebbe a2bd 26b6 c13c
000001b0: de9a aa3d 25b1 18bd 012a f1bd 76bd d63b
000001c0: ab73 de3d 35a2 c73d b846 95bd c6e6 9fbd
000001d0: 949e 533d 04d3 a4bc 5a19 a0bd 7318 52bd
000001e0: b966 af3d 408c 49ba 9cf1 f53a 78d2 79bd
000001f0: 90f7 8abe 181a 0c3e de8a ffbc acec 1b3e
00000200: 1540 983e 467f 983e 1f8d 63bd c6a5 c73d
00000210: fed4 0d3e 46ff 8d3e 14cd 883d 5843 c33b
00000220: b6a7 383e e3ed ef3d 4de5 053e 655d 27be
00000230: 5f36 5f3d 80bb 6d3e 082d 7f3e 6a64 babd
00000240: 8ed8 3ebe 8dcc 8fbd 40a8 183e 0ae2 2abd
00000250: b8bf d3bd aa7f 60be 66e6 053e ec5c 65be
00000260: 9856 af3c 95fe 11be 6e9e 4abe d80e 6b3e
00000270: 5659 4bbf ecb9 443c 2dd5 7f3e fbe6 efbd
00000280: 2e1a 103e d242 55bf e627 963e 9eff af3e
00000290: 0ab2 8fbd 50e9 f1be b72e 143d aa51 033f
000002a0: 8079 e9bd e426 4c3e 17e2 b1be 4d99 073f
000002b0: 13dc aa3e f335 dfbe a93e c13d 5805 203e
000002c0: 0e9b 46be 1819 4a3e d0da f23c 2e0f 093d
000002d0: e46c d03e b0af 1cbf fffb 823e c861 983e
000002e0: d475 81bd 50b7 6a3e 6a93 41bf 2c5e b53e
000002f0: fb2a 083f 955d ddbd 37b7 b3be 66f9 e93c
00000300: c268 ea3e 36a6 b4bd 30f6 233c 2e1c a5be
00000310: 0a81 d33e 702a b73e e067 04bf 3aaf 0b3e
00000320: c297 343d d8c2 13be d8b1 d93c 4b7e 743d
00000330: d4ce 9abd a656 793e 06f9 1cbf 86cb dd3d
00000340: 5ed3 923e 3a73 8cbd 38e6 683e def9 35bf
00000350: ba21 d13e f60d 8e3e 4e31 13be e2f5 dabe
00000360: 591d e93d 7062 fe3e 1026 63be 5333 0a3e
00000370: d012 debe a8de 813e 743e 593e 3869 11bf
00000380: 58d2 b1bc 506e c7bd 6073 b23d b158 a63d
00000390: 96e9 3fbd 888f 853c 62b1 11be b87e 88bc
000003a0: 261e babd c0d4 d0bb 761c b2bd e465 60be
000003b0: 68fa 7fbe 3dc6 38be 249e 46be 21d0 e2bd
000003c0: 682b a2be 5b69 9cbe 1940 a2be 9f26 d5bd
000003d0: 108d 8ebd 8c4d a3be 98d8 a7be 6dce 83be
000003e0: c5b8 0abd 6663 c9bd 1c4c 0e3d 61c7 90bd
000003f0: 5a08 cbbd 4716 373d 3c45 5bbe 3466 44bd
-0.013033427 0.25540915 0.12019761 0.26377395 0.11728298 -0.097382165 0.021353833 0.26991028
0.28268126 0.061959453 -0.4014195 -0.72897744 -0.88028836 -0.69714177 -0.34407637 -0.005134344
-0.25095576 -0.2913023 -0.32033685 -0.0663491 0.3062064 0.4561814 0.4903639 0.6205987
0.32379383 0.013747413 0.09208625 0.096110016 0.22907707 -0.12604047 0.14503264 0.40441558
0.35673463 0.31423742 0.3012864 -0.17305245 -0.3812772 -0.6076078 -0.4969018 -0.21724571
-0.11563094 -0.17589137 -0.2054132 -0.23419657 -0.077833794 0.09188745 0.3430258 0.4464078
0.23638305 -0.10839282 -0.117566735 -0.110189736 -0.18114108 -0.10090706 -0.17780814 0.18040903
0.34514004 0.50209296 0.41449824 0.27057955 0.03659045 -0.24785405 -0.41756892 -0.2129491
0.05795498 -0.052904096 -0.069506116 -0.14805868 -0.17984125 -0.09985173 -0.0009805933 0.111985065
0.17767456 0.13829955 -0.14015688 -0.20374285 -0.30226654 -0.1611063 -0.11589693 0.051973626
-0.10215023 -0.06884791 -0.058688752 0.077300854 0.12006566 0.09672679 0.054242916 0.23511899
0.0948832 0.18719998 0.20443171 0.13173772 0.2040675 0.28125617 0.1754131 0.24968213
0.10972953 0.1923804 -0.007142871 0.0814883 -0.19848701 -0.12118764 -0.20990238 -0.04423541
-0.0076116696 -0.2178931 -0.07946571 0.023646425 0.0833032 -0.037278313 -0.1177559 0.006553347
0.10861906 0.097477354 -0.07288879 -0.078076884 0.051664904 -0.020120151 -0.078173354 -0.051292848
0.08564515 -0.00076884404 0.0018764022 -0.060991734 -0.27142 0.13681829 -0.031194147 0.15227002
0.2973639 0.29784602 -0.055554505 0.09748416 0.13850781 0.2773382 0.066797405 0.0059589557
0.18032727 0.11715295 0.13075753 -0.16344221 0.05449521 0.23216057 0.24919522 -0.09101184
-0.18637297 -0.07021437 0.14907932 -0.041719474 -0.10339302 -0.219237 0.13076171 -0.22398728
0.021403596 -0.14257272 -0.19786999 0.22954881 -0.7943319 0.012007218 0.24983664 -0.11713978
0.14072487 -0.83305085 0.29327315 0.34374708 -0.0701638 -0.47248316 0.036177363 0.51296484
-0.114001274 0.1993671 -0.34742805 0.52968293 0.33371028 -0.43595847 0.094357796 0.15627038
-0.19395086 0.19736135 0.029645354 0.033461742 0.40708077 -0.6120558 0.25582883 0.297621
-0.06321302 0.2292149 -0.7561556 0.3542341 0.53190583 -0.10808865 -0.3510072 0.028561305
0.4578305 -0.08820765 0.010007426 -0.32248062 0.41309386 0.35774565 -0.51721 0.13641062
0.04409004 -0.14429796 0.02657406 0.059690755 -0.075589806 0.2434946 -0.6131748 0.10829835
0.28676885 -0.06857915 0.22744071 -0.7108439 0.40846044 0.27745026 -0.14374277 -0.4276572
0.11382551 0.49684477 -0.22182488 0.13496141 -0.43373728 0.25365186 0.2121523 -0.56801176
-0.021706745 -0.09737837 0.08713412 0.08122385 -0.046853624 0.016303793 -0.14227822 -0.016661987
-0.090877816 -0.006373018 -0.08696835 -0.21913868 -0.24997866 -0.18044372 -0.19396263 -0.11074854
-0.3167374 -0.3054913 -0.31689528 -0.10407757 -0.06960499 -0.318951 -0.32782435 -0.25743428
-0.033867616 -0.09833412 0.034740552 -0.070692785 -0.09913702 0.04469898 -0.2141313 -0.04794903

conv1.bias f4 [6]
00000000: 7c37 b3be 562f 543d aebf 00be b269 ca3e
00000010: edb5 abbe f4df 01bf
-0.3500327 0.051802956 -0.1257312 0.39533764 -0.33537236 -0.5073235

conv2.weight f4 [16, 6, 5, 5]
00000000: 06ad 0f3e 4d81 063e e0e4 103e 6428 08be
00000010: e6ea 0a3d 4c2c 503e d049 223d 8048 84b9
00000020: a535 cc3c 6542 2f3d 8ff7 693e 9cbc 0b3e
00000030: 9829 e03d 29e9 b3bd 5211 a13d 79c2 623e
00000040: 6d25 823d ab73 d4bd f013 fb3b 8e06 5dbd
00000050: ccf6 a63d e4f0 8bbd 7582 8c3c 28bf e83d
00000060: c029 68ba f6f0 68be 5bbc 5dbe 8d10 16be
00000070: 91c7 83bd 89ab 0dbe 3710 b8bd f381 863b
00000080: 4c63 dcbd ace7 46be 83d2 0bbe fc94 b53d
00000090: 3a2c ab3d c097 5bbd 24c9 93bd 84e4 13be
000000a0: a4d9 153e 6661 863c 2464 5cbd 60bc 31bd
000000b0: c967 30be df5e 683d 8833 4a3d 524e 143d
000000c0: f576 1e3d e0bb 483b 60d3 46be 5ee5 6fbe
000000d0: 556f 5abd 540c bc3d 3f9a 24be ca43 b8bd
000000e0: fe18 ac3d a33e 47be 3814 babc f0e4 093e
000000f0: 08b5 0ebe fc5a 99bc 2803 433e 105f 6b3e
00000100: 1080 a6bb fadb 4abe cd59 8a3e 1d93 643e
00000110: 6c77 eebd 131c af3d ea1c 8a3c 5cac 8d3e
00000120: e65d 16be 373c 393e d152 d63e e1f8 85bd
00000130: 6005 83bc 98f9 8cbc 4473 903d a705 dd3d
00000140: 7422 fcbd 2e95 4bbe 195a 29be 2c59 92bb
00000150: ee3a 063d 3561 9cbe 13d9 67be a27c 8ebe
00000160: 6b2a 50be 6654 eebd 0cbb 36be 0821 8ebe
00000170: eaf9 23be dd46 e3bd 8820 02be 74ad 5ebe
00000180: 228d 93be b1ca 07be 5074 8c3b b2f4 0fbd
00000190: f0d0 97be d785 aabe 7d95 cd3d bcba 3b3e
000001a0: 806c a6bd 9947 8fbe 060c 87be d228 fcbd
000001b0: 0231 3b3e 8e1c d93d 039e 86be 918b 04be
000001c0: 6937 68be ed1c 0c3e 7f44 c63d bb6f 37be
000001d0: 6ee4 7ebe a49c 74bd 792f 22be 20b1 bd3d
000001e0: 9fc1 97be d397 7ebe b7a1 5fbd 9cde d23c
000001f0: d7fd 893d bf4b 49be 539f b2bc d41c 23bd
00000200: 0838 1f3d c72a 713e ccf7 89be 7a69 06be
00000210: 8165 30bd d0af 1f3b 8a57 1bbd 28a7 51be
00000220: 9a48 bcbd 6e93 05be a4f6 f4bd d727 fcbd
00000230: 5e3a bc3d 3c16 6bbd 9ab8 3cbe 5c0a 1cbd
00000240: 4523 863e 3013 d43b e2ae e0bd c491 073d
00000250: 0335 073e 61fc 8d3e 2409 953d 4220 4a3d
00000260: 92d9 913d 4ca9 deba b80e ed3d 1b19 92bd
00000270: 9a0b d6bd f22b 36be 11e5 45bd 9b96 903b
00000280: 90f7 9b3b 40bf 1cbe c149 04be 9831 18bc
00000290: 3cb4 723d 8c64 29be 56ea 8cbe 4b6b 4bbe
000002a0: ce2b 90bd 925c f53c 122f b3bd 084c cfbd
000002b0: 837f f0bd 5393 47bd 78ee 003e bc4e a83e
000002c0: e361 c23e ce82 853e c50f f73d 1fb6 703e
000002d0: e628 eebc d05f dd3d fafe 9c3c 66e2 fd3c
000002e0: 523b d5bc 56f3 d7bd 0491 683c 58b3 9d3c
000002f0: a26b 04be b0ba b4bb f528 19be ba0b e9bc
00000300: e444 7dbd 1aca f2bd a699 0ebe b213 37be
00000310: 6e17 f13c 218e dabd f6bb 2bbe 84ef bdbd
00000320: dcea 233d e0ab ac3b 765b 92bd b892 3fbe
00000330: 5415 c2bd aa7e 36bd 621e 603e 8e5b f0bd
00000340: c810 06bc b837 54bc ca9a 173d 8e41 9d3e
00000350: 320d 4abe 707e 373e 3027 b1bd 82bc 673d
00000360: f8ec 663e 7c92 b6bd ac56 873e 27f8 c4bd
00000370: b0fb f33d 04f6 373e a834 9fbd 40ea 3a3e
00000380: 9d5f ebbd ea31 a53d c2cd 913d c2b9 333e
00000390: ed1c 603e 8020 c83e 964b 16bd 6b12 d53c
000003a0: e692 d8bd 1e77 9d3d 2e4f 5b3d 986d 27bd
000003b0: 4be6 5d3d 0719 04be 1077 1e3e fa3f fa3c
000003c0: 8eac a1bd 78b5 d53d 91d9 3bbe 4842 17bc
000003d0: 2027 2bbc 43af 8abd 1ecb 20bd ae17 09be
000003e0: 642a 76bc 0bfe 7dbe 8239 40be 72b1 dcbd
000003f0: 69ec a8bd 4c2d a4bd 854f c23c 8370 e33d
0.14030847 0.13135262 0.14149809 -0.13296658 0.033915423 0.20329398 0.039621174 -0.0002523102
0.024927923 0.042787928 0.22848342 0.13646168 0.109454334 -0.08784706 0.07864632 0.22144498
0.06354795 -0.103736244 0.007662289 -0.05396133 0.081525415 -0.068330556 0.01715205 0.11364585
-0.0008856319 -0.2274817 -0.21653883 -0.14654751 -0.06434549 -0.13834967 -0.08987468 0.0041048466
-0.10761127 -0.19424313 -0.13654523 0.08866307 0.08358045 -0.053611517 -0.07216099 -0.1444264
0.14633805 0.016403865 -0.05380644 -0.04339254 -0.17227091 0.0567311 0.04936555 0.036207505
0.038687665 0.003062956 -0.1941657 -0.2342734 -0.05332883 0.09182039 -0.16074465 -0.08997305
0.084032044 -0.19457488 -0.02271472 0.13466239 -0.13936245 -0.018720143 0.19044173 0.22985482
-0.005081184 -0.19810477 0.27021638 0.22321744 -0.11643872 0.085502766 0.01685949 0.27670562
-0.14684257 0.18089376 0.4186006 -0.065416105 -0.015993774 -0.01720886 0.07053235 0.10792094
-0.12311259 -0.19881126 -0.16538276 -0.0044661965 0.032771043 -0.30542913 -0.22641401 -0.27829462
-0.20328681 -0.116371915 -0.1784479 -0.27759576 -0.16013303 -0.110975005 -0.12707722 -0.21745855
-0.28818613 -0.13260914 0.0042863265 -0.03514547 -0.29651594 -0.33305237 0.10038278 0.18332952
-0.081261635 -0.27984312 -0.2637636 -0.12312473 0.18280414 0.106011495 -0.26292428 -0.12943865
-0.22677387 0.1368291 0.09681033 -0.17913716 -0.24891827 -0.059719697 -0.15838422 0.092622995
-0.2963991 -0.24862604 -0.054597583 0.025740914 0.06737869 -0.19657801 -0.021804487 -0.039822415
0.038871795 0.23551475 -0.26946867 -0.13126174 -0.04306555 0.0024366267 -0.03792528 -0.20473921
-0.09193535 -0.13044521 -0.119611055 -0.12312286 0.0919082 -0.05739425 -0.18429795 -0.038095817
0.26198784 0.006472014 -0.10970856 0.033097997 0.13203816 0.27731612 0.07277134 0.04934717
0.07121576 -0.001698771 0.11575073 -0.07133695 -0.104514316 -0.17790201 -0.048314158 0.004412485
0.0047597364 -0.15307331 -0.1291876 -0.009289168 0.059253916 -0.16542262 -0.27522534 -0.19865148
-0.07039605 0.029951368 -0.08749212 -0.10121924 -0.11743071 -0.048724484 0.12590969 0.3287257
0.37965307 0.2607636 0.12063555 0.23506974 -0.029072236 0.108092904 0.019164551 0.030991744
-0.026029263 -0.105444595 0.014194731 0.019250557 -0.12931684 -0.005515419 -0.1495703 -0.028447974
-0.061833277 -0.11854954 -0.139258 -0.17878607 0.029430117 -0.1067164 -0.1677092 -0.092741996
0.0400189 0.0052695125 -0.07146351 -0.18708313 -0.09476724 -0.04455439 0.2188659 -0.11736213
-0.008182712 -0.0129527375 0.037012853 0.30714077 -0.19731596 0.17919326 -0.086500525 0.05657626
0.22551334 -0.089146584 0.26433313 -0.09617644 0.1191324 0.17964941 -0.07773715 0.18253422
-0.11492846 0.08066161 0.07119323 0.1755133 0.21886034 0.39087296 -0.036693178 0.026009759
-0.10574894 0.076887354 0.05354231 -0.040876 0.054174703 -0.12900172 0.15475106 0.030548085
-0.0789424 0.10435003 -0.18344714 -0.009232111 -0.01044634 -0.0677171 -0.039256208 -0.1338794
-0.015024755 -0.24803941 -0.18771937 -0.107760325 -0.08248217 -0.08016452 0.023719558 0.11105444

conv2.bias f4 [16]
00000000: 8afd 833f 900b 2abf d4c7 f23e 1c1c 68be
00000010: 4e5b 7c3f a302 abbe c1f6 303f 08cd 713f
00000020: ce94 8bbd 909c a0be 2478 40be dc16 e23d
00000030: c004 04bf d635 a5be d828 2cbf d7f8 193e
1.0311749 -0.6642389 0.47418082 -0.22666973 0.9857682 -0.3340045 0.69126517 0.9445348
-0.068154916 -0.31369448 -0.1879583 0.11039516 -0.5156975 -0.32267636 -0.6724982 0.15036331

fc1.weight f4 [120, 400]
00000000: 0c7c a13d d11f 263d facf b93d 6e28 d63d
00000010: 2891 cb3d b97d f73c 0d8f 8f3d 1c3e 913d
00000020: d828 603c b542 81bb 8952 aa3d 0918 803d
00000030: e764 a83d ac45 12bb c414 ec3b a008 61ba
00000040: 19e7 1ebc ac98 f3ba 1f47 363d 86b1 363c
00000050: 8474 0bbc 8024 0f3a 3c65 fbbb f654 38bd
00000060: e010 95ba 1fc1 da3d c0bd c13d 565a 213d
00000070: bc9d f63b 5810 623d 781f 20bd 0364 d73c
00000080: 0e1f c4bc 2bea 393c 1514 4d3d 0481 97bb
00000090: aaef 343d 782b 9bbb 5a26 383d 52a6 293d
000000a0: 5076 553d 4527 01bc 567c 92bc a2a2 da3c
000000b0: ca0f e4bc b7d8 1f3d d88d b3bb d0e3 19bd
000000c0: a0da 95bd 7052 14bd eac6 afbb 6213 0cbc
000000d0: 65fc 3cbd 3832 b9bd cb6d 61bd 1894 39bc
000000e0: e3cb a23b 4750 bfbd 7446 1cbd 601e 0fbb
000000f0: 226c 84bd 6f23 25bd ae6b 2abd 2c12 05bc
00000100: 688b 62bc 6856 a9bd 8621 38bd 0cea abbc
00000110: 05fe a8bd b87b f7bd 3cb6 c8bc 56a2 a0bd
00000120: 6a6c a3bc 6760 1fbd 71aa 61bd 7cfd 8abc
00000130: 8897 0bbc 6418 11bd 5478 413c 6d96 d93c
00000140: 26c7 63bb ad1b b3bc 8050 943a 32a1 843c
00000150: 3c17 013d 5863 9c3d 288c 2c3c 0aaf 02bc
00000160: 40e7 6d3d 7c13 aaba 30c4 3fbc e08b 943c
00000170: 76b1 a0bd aa7a 08bd bb0c 45bd 0876 883c
00000180: 8cad 7a3c 436f a2bd 4914 3fbd ab70 03bd
00000190: 4adc c83d 0a92 a7bc 2988 053b ab1b aa3c
000001a0: 005c 7db9 8406 003d ee8c 8a3d 5c09 853d
000001b0: 4cbb 983d 5254 253d 60d8 eb3d b113 463d
000001c0: 14ab 8a3d 101e 853d 041e 373c 3a71 0a3e
000001d0: b243 da3d f799 043d 2e8b a5bb 286e d33b
000001e0: 0f47 ce3d 2f2b 323d 8b33 2e3d d473 153c
000001f0: ac99 223d aa19 b23d 90a4 9d3c 9ae2 2abd
00000200: d899 00bc 2090 10bc 2895 3d3d b26e 7e3d
00000210: ead9 8b3d 707c 4abb 2e24 f33c 2c28 dd3d
00000220: 2357 463d a462 833b d805 213c 1862 ad3d
00000230: 3c99 68bc aaa6 33bd 2089 6abc 7f0c 6b3d
00000240: 1cf8 adbc 8cf8 12bc 4da7 14bd 443c 84bd
00000250: e851 923b 4f10 61bc d0a2 4dbb f0c0 76bb
00000260: c84c 59bd 0d97 94bd ca4a 84bd dd77 5abd
00000270: 44ac f1bb bc49 a8bd 00ce deba 246b 58bc
00000280: 4b40 2cbc 3394 29bd 7c58 9abd 00bb 61bd
00000290: 9c6b 04bd abd5 103c aa67 44bd a4a2 6fbb
000002a0: d543 1ebc 818a 8dbd c8d9 e0ba b68e 473c
000002b0: 5a10 28bd 92fe 23bd 2e91 e3bc 2c89 77bd
000002c0: 60d5 85bd e94d 6f3b 2e6d 8fbd f192 9bbc
000002d0: e4dd e9bd 626e c5bd 48aa debc 723c 91bd
000002e0: 4dcf 57bd d240 08bd b6c7 14bd 3514 9bbd
000002f0: c2a9 56bc a6c5 e9bd 317c fbbd cbe0 29bc
00000300: 2ccf a6bd fadc debd 50e7 b3bd f32d 49bd
00000310: d051 a03a f445 5a3d e8e2 41bd b6d2 153d
00000320: ed29 493d 42f3 5f3d bd7e 45bd f63e b1bc
00000330: 20a4 173d 656b b6bc 00c5 7c3c 8219 b8bd
00000340: 823c 673d 6c80 533d 3b62 7b3b 0f28 51bd
00000350: 665d 03bc 34c2 84bc 4a77 17bb dcf1 e23b
00000360: 5e76 02bd 1643 72bc cee8 b33d b61b 4ebd
00000370: 8e57 d5bb 502e 30bd 129f 66bd 1775 aebc
00000380: 2030 893b 0331 bf3c e1e5 aabc e0d4 f63b
00000390: 5338 8f3d 5438 893b cb02 85bd 7023 08bd
000003a0: 2c1c 21bc 9271 3d3d b869 e9bb 5370 90bc
000003b0: 1ff9 b6bc 9f26 323d 5059 f73c b4ae 12bd
000003c0: 5d6a 493b acac ca3b dc44 6a3c d4a2 3ebd
000003d0: fa59 883c 030e adbb bae9 373d 68c2 79bd
000003e0: a0a3 7dbb 8b2d d03c e91e 123d 0ad9 653d
000003f0: 6c1d 5abd 2951 0b3c 56fc 45bd bc11 6a3b
0.07884988 0.040557686 0.090728715 0.1045693 0.09939796 0.030211316 0.07009707 0.070919245
0.013681613 -0.0039447197 0.083165236 0.06254584 0.082223706 -0.002231936 0.007204624 -0.0008584354
-0.009698653 -0.0018584928 0.04450142 0.011150723 -0.008511666 0.0005460456 -0.00767198 -0.0450029
-0.0011372827 0.10681366 0.0946002 0.03939279 0.0075261276 0.055191368 -0.03909251 0.026292806
-0.02394059 0.011347334 0.05006798 -0.004623534 0.044173874 -0.0047354065 0.04495845 0.04141838
0.052114785 -0.007882898 -0.017881554 0.026688877 -0.02783956 0.039025035 -0.0054795556 -0.037570775
-0.0731709 -0.03621143 -0.0053642886 -0.008549543 -0.04613914 -0.090427816 -0.055036347 -0.011326812
0.004968153 -0.093414836 -0.038153127 -0.0021838173 -0.06465937 -0.040316995 -0.041606598 -0.008122008
-0.013827182 -0.08268434 -0.044953845 -0.020985626 -0.082515754 -0.12084144 -0.024500959 -0.07843463
-0.019949157 -0.038910296 -0.055094186 -0.016966574 -0.008520015 -0.03542365 0.011808474 0.026560986
-0.0034756153 -0.021863783 0.0011315495 0.016190145 0.0315163 0.07636136 0.010531463 -0.007976303
0.058081865 -0.0012975777 -0.01170449 0.018133104 -0.07846348 -0.033320107 -0.048107844 0.016657844
0.015300166 -0.07931378 -0.046650205 -0.03208987 0.09807642 -0.020455379 0.0020375347 0.020765146
-0.00024162233 0.031256214 0.067651615 0.06495926 0.07457599 0.040363617 0.1151588 0.048358623
0.06770912 0.064998746 0.01117659 0.13519755 0.10657443 0.032373395 -0.005051992 0.0064523406
0.10072147 0.043498214 0.042529624 0.009121854 0.039697334 0.08696301 0.019243509 -0.04172001
-0.007849179 -0.008823425 0.046284825 0.062117286 0.06828673 -0.0030896924 0.029680338 0.10798678
0.048422944 0.0040095616 0.009828053 0.084659755 -0.01419669 -0.043860115 -0.01431492 0.057384964
-0.021236472 -0.008970391 -0.036292363 -0.06456807 0.0044653304 -0.013736798 -0.0031377561 -0.003765162
-0.05305174 -0.07255373 -0.064595774 -0.053336967 -0.007375272 -0.08217189 -0.0016998649 -0.013209138
-0.0105133755 -0.0414011 -0.07536408 -0.055109978 -0.032329187 0.008840005 -0.047950424 -0.0036565447
-0.009659727 -0.06911183 -0.0017154748 0.012180021 -0.04103122 -0.0400377 -0.027779188 -0.06043355
-0.06534839 0.0036514944 -0.07003246 -0.018990966 -0.114192754 -0.096401945 -0.027180806 -0.07091607
-0.05268793 -0.033264942 -0.03632327 -0.075722136 -0.013101997 -0.114146516 -0.12279547 -0.010368536
-0.08144984 -0.10881992 -0.08784354 -0.049116086 0.0012231413 0.05328937 -0.047335535 0.036577903
0.04911225 0.054675348 -0.04821657 -0.021636467 0.037021756 -0.022268007 0.015427828 -0.0898924
0.05645419 0.051636145 0.003835811 -0.051063593 -0.008017873 -0.016205885 -0.0023111873 0.0069258045
-0.031851165 -0.014786502 0.08784638 -0.050319396 -0.0065106815 -0.043012917 -0.056304045 -0.021296067
0.004186645 0.0233388 -0.020861568 0.007532701 0.06993165 0.004187623 -0.06494673 -0.03323692
-0.009833377 0.046250887 -0.0071231984 -0.017631685 -0.022335587 0.043493863 0.030193955 -0.03581114
0.0030733563 0.006185135 0.014298644 -0.046542004 0.016644467 -0.0052812113 0.044900633 -0.060976416
-0.0038702264 0.025412342 0.03567401 0.056115188 -0.053250715 0.008503237 -0.04833635 0.0035716137

fc1.bias f4 [120]
00000000: 630b 0c3d 1d5e acbd 04f9 ec3d 146b 103e
00000010: 3df1 563d f6fe d53d fc6c f73b dad8 313d
00000020: 3ce3 913d 34ec bdbd bbfd f93d caa8 93bd
00000030: 5b5f ec3c 1f8a d7bc 2499 643e 4682 afbd
00000040: 56ea 513d 0079 f539 3c2b 8d3e ccf1 1f3c
00000050: e886 b0bd 4a3c 00bd c3c6 8ebd 9f73 153d
00000060: 004b 253d 6890 8d3d 29a5 43bc f036 f63d
00000070: faa1 833d 6a42 99bd 674a dd3d 4f96 25bc
00000080: ee03 043e 5888 d1ba e8d7 373c 6ce9 2fbd
00000090: 0c80 4e3d 119c 153e 0cf6 9c3d faec 223d
000000a0: dcb1 953b 9617 86bd 457d 7dbd 9223 853e
000000b0: 9ee2 42bd 3cb7 943e 25a7 2d3e 8a06 a93c
000000c0: 7efa 143d 9440 9b3d a868 cbbc fb86 0bbe
000000d0: b624 7e3e cbb4 2abd c05b b93b b86f 263d
000000e0: ae80 df3c 7e44 1c3e 8cd1 253c 74d8 93bb
000000f0: e8bb bfbc 47d9 61bc c074 93b9 069e 13bd
00000100: ac55 59bd fc12 ed3b d567 9d3d 1fec 0f3d
00000110: 57d6 92bd 6f0c 593d 485a 2abe 8515 a93c
00000120: 3183 9dbd b8c2 1ebe dc67 2fbc 31b0 01bd
00000130: 01f2 5b3c 7690 b93d 1cbc 783e be6b c53d
00000140: 7ca5 05bd d584 793d a215 97bd b683 093e
00000150: d273 ffbc eb4d 183d 0961 0f3e a2da d73d
00000160: fa81 8d3e 1cc1 de3c 9a1e 833e 7a1b 4fbe
00000170: be45 12be f993 a5bb c296 383d 07fe cabd
00000180: d89a 96bb 462e 6c3d 0b4d 03be 7d2a 85bd
00000190: fef1 ee3d ffca 8cbc 3bf8 02be ee91 de3c
000001a0: c0ab 5f3e 8ce5 013c 767e 01bc 74b2 2f3e
000001b0: d7a4 053e 1e31 f1bc 990b 73bc ee7d e43d
000001c0: 9648 22bd 82d4 9cbd 305c 2c3e 3012 4c3b
000001d0: 8d6a 7cbd f0ce 8d3e e738 90be 6efd 463d
0.034190547 -0.08416388 0.115709335 0.14103347 0.052476157 0.104490206 0.0075508337 0.043419696
0.0712342 -0.09273568 0.12206598 -0.07209928 0.028854063 -0.026310978 0.22324044 -0.085697696
0.05124887 0.00046820194 0.27572048 0.009762239 -0.08619481 -0.031307496 -0.069715045 0.036487218
0.04035473 0.06912309 -0.011941233 0.12022197 0.06427379 -0.074833706 0.10805207 -0.010106637
0.12892124 -0.0015986068 0.01122091 -0.042947218 0.050415084 0.14610316 0.07664117 0.03977678
0.0045683216 -0.065474674 -0.061887044 0.260037 -0.0475794 0.29046047 0.16958292 0.020633
0.0363717 0.07580677 -0.024830177 -0.1362571 0.24818692 -0.041676324 0.0056566894 0.040633887
0.027283039 0.15260503 0.010120761 -0.004511887 -0.02340503 -0.013784713 -0.0002812501 -0.036039375
-0.05306022 0.007234929 0.0768582 0.035137292 -0.07169788 0.052990373 -0.16636002 0.020640144
-0.076910384 -0.15503967 -0.010705914 -0.03166217 0.013424397 0.09060757 0.24290508 0.09639691
-0.03262852 0.060917694 -0.07377173 0.1342915 -0.031183157 0.037183683 0.1400186 0.10539748
0.27638227 0.027191691 0.25609285 -0.20225325 -0.14284417 -0.00505304 0.04506565 -0.09911733
-0.0045960955 0.057661317 -0.12822358 -0.065022446 0.1166725 -0.01718664 -0.12790005 0.027169194
0.21842861 0.007928263 -0.007903686 0.17157918 0.13051163 -0.029442366 -0.014834308 0.11156832
-0.039620005 -0.0765772 0.16832042 0.003113877 -0.061625052 0.27696943 -0.28168413 0.048581533

fc2.weight f4 [84, 120]
00000000: 6d15 f6bd 53bd ebbd 90d3 3fbb f0b1 c1ba
00000010: e702 87bd e606 87bb 5656 24bd b8f5 10be
00000020: 9b1f abbd b1cb c3bc 3375 0a3b 2322 7c3d
00000030: 4ffb a3bd 9845 743c efb2 67bd 4c57 c5bd
00000040: 281f e83b d49e a33d a0b8 fe3d 0ecf d33c
00000050: cc92 31bd 2f77 a8bd 461c 81bc 70b5 47bc
00000060: c2aa cebc 11d1 943d b883 673d 6a6e 8e3b
00000070: 5a36 95bd b635 153d 6e5f 84bd 4c29 83bd
00000080: 9019 28bd f84e a5bc f688 013d 22d7 46bd
00000090: 223f 2b3e 26e1 2c3e dcc2 c4bc aeb7 97bd
000000a0: 5cf6 a1bc cc29 b23d aec2 453d fa8b bebd
000000b0: d268 933c 56d8 4dbd 8faf 80bc f1b1 a53d
000000c0: 9200 bd3d ba5c 293e 362d 1abd 44aa 70bd
000000d0: 5ac2 6abd 4516 173d 2413 70bd 86b1 153e
000000e0: 8ff3 9dbb c4be d53d e582 953d 8ae2 1b3e
000000f0: 7db3 623d f898 e63c 5071 f0bd 3e3d 5abd
00000100: b07c 61bd 958b a63d fc1f 6ebd 152c c43d
00000110: d895 74bc 61de 86bd 6f24 e6bc 40ac 873d
00000120: ea21 72bd fa22 723c e51d e6bc 8717 2e3c
00000130: 25fa 84bd 40c6 2d3d 0946 67bd 3461 8ebc
00000140: e2af febd 0a2e 423c a9f5 a8bd 229d c2bd
00000150: b81d c3bd 4c08 603d 787c 17bd 3624 efbc
00000160: c633 7fbd 7cf0 723c 8dd8 903c 3fab 113d
00000170: c81b c2bd 4d98 65bc 2564 bcbd fde0 85bc
00000180: 5a07 c7bc 2431 ef3d 6081 a9ba 3e89 d93d
00000190: 14e2 7e3d 7229 b43d 2c22 e9bb c60e 5dbd
000001a0: 329a 2c3d 8e60 80bd 6376 d0bd 299c babd
000001b0: fe2c aabc e69e 08bd 8c04 19bc ba26 c33d
000001c0: bba3 dabc a0bd c2bb 7c45 36bd 4c3f 553d
000001d0: 0467 f6bc eca3 e2bd 285b 953c ce4b e7bc
000001e0: 7598 193d c958 4c3d b0c9 cdba c8f1 ef3d
000001f0: 2648 143d 0cc6 983c 27c1 133e 40c8 83ba
00000200: 446e c23d 1cc3 033d 887c c3bc 30e1 13bd
00000210: 6a3a 82bd 7848 553c e68d afbd bfad 2cbd
00000220: ea17 e3bc 4a30 05bd 9a62 03bc 3e38 d2bb
00000230: 4dc3 a9bd abc8 ac3d 7135 a23d d7d0 403d
00000240: bf54 d93d d69a 02be 733a 30bd 26cb f5bc
00000250: a81f 88ba 120e 8abc dd45 9cbd f0c7 21bc
00000260: 2aa1 bbbd aaa2 5fbd 3175 efbc 5f6f 61bd
00000270: 8c7c f6bd 143a 163d ae67 31bc c68c e2bd
00000280: fef9 ab3d 34d6 843d 48cd 8b3a aaf5 98bd
00000290: e38b 8abd 5ae4 2e3d 45e6 cebc 8973 953d
000002a0: 6a84 92bd 7417 8bbd 3a57 433d 8e7c f9bc
000002b0: 6e98 53bb b946 bc3c 9af3 223e 04d3 073d
000002c0: 6411 b13d e2a4 eebd c81a 94bc 4726 233d
000002d0: 27d7 84bd 1247 c9bd dc59 833d 8ad7 e53d
000002e0: acac daba ec15 893c c315 123d d207 fc3c
000002f0: d2fd 70bc ccae e2bd 50ad c2bc ed9c 5f3d
00000300: 2671 dabc 94df b4bb e339 993d 2d9e d6bd
00000310: cf37 c13b 2f5f 653d 6099 8ebd 844b 2d3d
00000320: a43b 5dbc ab1c 0abe f48f 943b 8a64 cd3d
00000330: 5ca4 da3c ee97 c0bd cce3 00be def0 68bd
00000340: 42db 91bd 7a15 053d 2b7a 2bbe 58b6 e73d
00000350: 74c3 07be f7f1 a53d b661 673c c2fd 73bc
00000360: 8abc 0dbe eed2 7cbd 3280 863c 4457 0b3d
00000370: 5277 8dbd 976e 83bd 1900 e7bc 5aa2 8abd
00000380: 207d f7bb d253 edbc 70df 4c3b 2158 c3bc
00000390: 075a 56bd 069f 853d c885 83bd 5445 d5bd
000003a0: f413 26bd f0f3 08bd 94fc 73bd 85e8 8bbc
000003b0: 28cb a7bd 96e3 523d aa8b 603c 02a6 b0bd
000003c0: 96e2 bf3c b4f4 bf3d 9307 cb3d 7816 c0bc
000003d0: 1d88 d2bd df12 cdbd 987f 1a3d bd53 d2bd
000003e0: 6c4e f7bc cfae 91bd 89f7 4cbd 3a61 06be
000003f0: 3e87 2d3d 56b9 d0bd 74f3 b03b 2e96 b7bd
-0.120158054 -0.1151072 -0.0029270388 -0.0014777761 -0.065923505 -0.0041206954 -0.0401214 -0.14156234
-0.08355638 -0.023900839 0.0021126985 0.061555993 -0.08006918 0.014909171 -0.05656713 -0.09635791
0.0070837922 0.079892784 0.12437558 0.025855567 -0.043352887 -0.082258575 -0.015760552 -0.012189254
-0.025227908 0.07266439 0.0565221 0.0043466585 -0.07285757 0.036428176 -0.06463514 -0.06404361
-0.041040003 -0.020179257 0.031624757 -0.04854501 0.16723302 0.16882762 -0.024018697 -0.07408081
-0.019770794 0.08699378 0.048281364 -0.09304042 0.017994318 -0.050255142 -0.015708713 0.0809058
0.092286244 0.16539279 -0.037640773 -0.058756128 -0.057314254 0.036886472 -0.058612004 0.14618501
-0.004820294 0.10436776 0.07300357 0.15223137 0.055346955 0.028149113 -0.11740363 -0.05328106
-0.055050552 0.08132092 -0.05813597 0.095787205 -0.014928304 -0.06585384 -0.028093545 0.06624651
-0.059114374 0.014778847 -0.028090427 0.010625727 -0.06493024 0.042425394 -0.056463275 -0.017380334
-0.12435891 0.011851797 -0.08249981 -0.09502627 -0.09527153 0.054695413 -0.036983937 -0.029192071
-0.062305234 0.014827844 0.017681384 0.035563704 -0.09477955 -0.014013362 -0.091987886 -0.016342634
-0.024295498 0.11679295 -0.0012932234 0.1062188 0.062227324 0.087969676 -0.0071146693 -0.053969167
0.04213924 -0.06268416 -0.101788305 -0.091118164 -0.020773407 -0.033354662 -0.009339463 0.09528871
-0.0266894 -0.005943015 -0.04449986 0.052062318 -0.030078419 -0.11066422 0.018231943 -0.028234389
0.03749891 0.04988936 -0.0015700366 0.11716038 0.03620162 0.018649124 0.1442915 -0.0010054186
0.09493688 0.032168493 -0.023863092 -0.036103427 -0.06358798 0.013017766 -0.08571987 -0.042157885
-0.027721364 -0.032516755 -0.008019114 -0.006415396 -0.08289204 0.08436712 0.079203494 0.047074165
0.10611867 -0.12754378 -0.04302449 -0.030004095 -0.0010385411 -0.016852412 -0.07630513 -0.009874329
-0.09161599 -0.054598488 -0.029230686 -0.055037852 -0.12035474 0.03667648 -0.010827942 -0.11062007
0.083972916 0.064861685 0.0010666037 -0.07468732 -0.067649625 0.04269824 -0.025256285 0.07297427
-0.07154162 -0.06791583 0.047690608 -0.0304549 -0.00322869 0.022982942 0.15913239 0.033160225
0.08645895 -0.11652543 -0.018079177 0.039831426 -0.064863496 -0.09828009 0.06413624 0.112227514
-0.001668354 0.016734086 0.035665285 0.030765448 -0.014708953 -0.11068496 -0.023764282 0.054593015
-0.026665282 -0.0055198167 0.07481744 -0.104793884 0.0058965455 0.055998977 -0.06962848 0.042308345
-0.013502989 -0.13487498 0.004533762 0.10028942 0.0266897 -0.09403978 -0.12586898 -0.056870334
-0.07121898 0.032491185 -0.16745822 0.11314076 -0.13258153 0.08102792 0.014122417 -0.014892044
-0.13841453 -0.061724596 0.01641855 0.03401877 -0.06907524 -0.06417578 -0.028198289 -0.06769247
-0.007552758 -0.028970633 0.0031261109 -0.023845734 -0.05233195 0.06524472 -0.06422001 -0.10413614
-0.040546373 -0.033435762 -0.05956705 -0.017078647 -0.08193046 0.051486574 0.0137051735 -0.086254135
0.023423474 0.09372845 0.09913554 -0.023448214 -0.10279868 -0.10013365 0.03771934 -0.10269878
-0.030188762 -0.0711342 -0.050040755 -0.13123026 0.042365305 -0.101916 0.0054001156 -0.089641914

fc2.bias f4 [84]
00000000: 324a 383d 0a6f 173d 5682 0d3e c084 523a
00000010: f046 7abb 1a56 973d d648 a53e fb79 9bbd
00000020: 2efd ee3c 41fd ae3d 66c2 733e 265e 163e
00000030: ceb9 6d3e c0b5 913e 38e8 643d 6fef bb3e
00000040: 018f 7d3e 0831 933c 6770 6c3d 36dc 3a3e
00000050: 6f73 1ebd 40e3 c13e 54ae 42be 9806 873e
00000060: b46b a33e 1c9b 103e 59af d2bd dc2e fd3c
00000070: 66f3 b83e 5686 823e 17f8 153d 3278 583c
00000080: 3228 ac3c 6c02 dd3e 3e37 66bd aa80 4abd
00000090: ccf8 803e 9aed 4e3e 2032 d7bd 10c0 abbd
000000a0: 6729 823c 8781 4a3d c884 473e 408b 35bc
000000b0: f3d7 7abd 107e 1bbe 851e e93e 73ac ecbb
000000c0: 3661 6ebd fee0 ff3d fe31 dc3b 99ab eabb
000000d0: f0bd 913e 4c3f 8dbd 9daa 2cbd 415f 973d
000000e0: e3a3 82bd bbaf 823e 9ad7 923c 5015 003f
000000f0: 00bd 3dbe 642a 2dbe d60e e83d a971 6ebd
00000100: 9ed5 b53d 7099 0f3e 83e0 2e3f 10d7 c53d
00000110: 9493 143b 544e fabc fadf 033f 7cec ca3e
00000120: 5130 24bd d8d0 793c f6ec ed3d a048 47ba
00000130: e09c f53a 9c2c 49be fed5 253e c93c 963e
00000140: 7fcf 38be 3e4c 24be e09e 3a3c 08d8 bcbb
0.044992633 0.03697113 0.1381925 0.00080306455 -0.0038189255 0.073894694 0.32282132 -0.07591625
0.02917346 0.08544398 0.23804626 0.14684352 0.2321541 0.28458977 0.055885524 0.3670611
0.24761583 0.017967716 0.057724383 0.18248066 -0.038684305 0.3786869 -0.19011813 0.26372218
0.31918108 0.1412167 -0.10287351 0.030906133 0.36123198 0.25493115 0.03661355 0.013212251
0.02101526 0.4316591 -0.056205027 -0.04943911 0.25189817 0.20207825 -0.105076075 -0.083862424
0.015888883 0.049439933 0.19484246 -0.011080563 -0.0612411 -0.15184808 0.45531097 -0.007222706
-0.058198176 0.12494086 0.0067198267 -0.0071615693 0.28465223 -0.068968385 -0.042154897 0.07391215
-0.06378915 0.25524697 0.017925072 0.5003252 -0.18529129 -0.16910702 0.11330955 -0.058213864
0.08878635 0.14023376 0.6831133 0.096601605 0.0022670971 -0.030554928 0.51513636 0.39633548
-0.04008514 0.015247546 0.11617462 -0.00076020695 0.0018738769 -0.19645923 0.16194913 0.2934325
-0.18047903 -0.16044709 0.011390418 -0.0057630576

fc3.weight f4 [10, 84]
00000000: bad4 eb3d a06b 8ebd f09f 273e cd59 3a3e
00000010: f80f df3d b1fd e03d 4a17 0c3e 722b 0ebe
00000020: cbc6 cabc 26dc 563e e46b fb3d 9451 263e
00000030: a58d 15be 901d 9b3e 585c 1abd c69a b23d
00000040: 3a92 b1bd e68d 373e d6b5 d73c 9f5a 53be
00000050: 22da 85bd 4915 093e b228 ee3c 7c5b 543e
00000060: 0432 c5be 2774 343e bd35 3d3e 63a9 96bd
00000070: 667d ffbd a281 72be 4ea6 80bd b613 533d
00000080: f0b4 0b3e b041 5a3d d1a8 893d 748c a73d
00000090: 7446 3dbe f64c 8d3e 0751 9d3d 9e83 65bd
000000a0: 8f76 7ebd d780 b13d 2ce7 6fbe cea5 c7bb
000000b0: 380f 1b3e c0ba 33bd 4a1b 6cbe 6675 0bbd
000000c0: 41fa 4c3d deac 23be 6da3 5a3e d95c dbbd
000000d0: a4a1 eb3b 44b0 45bd a398 b0bd e08d 98bd
000000e0: 958b 7a3d 4144 293e 591f 313e ef73 adbe
000000f0: 7a3c 553e 2448 603e 9118 dc3c d5f8 b6bd
00000100: d855 ddbb 05db b23d 6b86 91be 8050 243e
00000110: d51b 883d d2ba 333d fdd8 abbe 805a bcbd
00000120: 0b58 263d eeb5 6abe 5ad0 b93c 748c f5bc
00000130: 0ea4 d73d ede6 b73d 4a6e 743e 5c57 7d3e
00000140: 3a7c cd3d 1527 ec3c 2c16 0bbe c4a1 9fbd
00000150: 5683 d6bd 6c2c 803c 6cd8 19be 23c5 a33e
00000160: 5f8a 7d3c e488 fb3d bb5e 84be 5ac1 e43d
00000170: 5ac7 ffbd 3d89 0cbe 9228 08be 3d92 793e
00000180: 98d0 a8bd e051 2abe 88f4 43bd ba97 76bd
00000190: 0a8c 2fbe a4af 673e 98dc 7abe 5f49 01be
000001a0: 82ec 863d 076e 793d fd26 673e 456c 8ebd
000001b0: 9efb cc3d 667c d13d badb 92bd e36b b33e
000001c0: c93c 4cbd bd23 ccbc 2e45 4abe 5467 873d
000001d0: 9792 123e b076 89be fd2a 853d ce22 d13d
000001e0: 91dc e3bd 17bf 01bd 96e5 9cbd 6d4f 27bd
000001f0: 522d c23d ac9b a73d 803b 713d 8150 efbd
00000200: f05b 8b3a 52b5 8f3e 7dd0 b4bd 3c56 563d
00000210: aa41 b93d 088a c2bd f938 ef3d 06cd 8bbd
00000220: f030 76bc ce76 04bd a213 2e3e be1e bc3d
00000230: a699 803c f8a6 6a3e 44a1 81be 2041 46be
00000240: 99ae 283e c28c e23d c268 2f3e d50e ed3d
00000250: 3fd0 e3bd 9eb6 f7bd d182 65be 1eb8 c5be
00000260: 0d0c 9dbc 65b6 3e3d 9070 89be 5e32 95be
00000270: f0cc 423c f827 093e 2a5a 7a3d d7c7 8e3e
00000280: 70a5 e63d f682 463e d66c 9ebe 54ba 3e3e
00000290: b8d7 d73c 0ce7 373e f3ba 563e ee5d 493e
000002a0: daca a23d 4eef e3bd 519e aebc cf5e 4fbe
000002b0: d5b8 bf3c 36da 5bbe 663a bd3d b867 203e
000002c0: 9437 323e 1b23 773e 810d 883e 73c8 31be
000002d0: 3598 1fbe e790 c73d 240e 043e 8f17 753e
000002e0: b77c 0ebe 47c4 9ebd 38f1 f23d 9266 10bd
000002f0: ea95 283e 2acc c2bc 3bc4 513e 8690 3c3d
00000300: ce5f 9ebd b417 17be 4c19 253e 673b cc3d
00000310: 44ed 0b3e 47fe c03d 4d5f 0f3d ac39 2bbd
00000320: 8684 a83c e217 a8bc 9caf 9e3d 1835 da3d
00000330: 7e01 cabd 0805 94bc 6c42 523d c44c 143e
00000340: f9dc a2bd 60c0 8abd fe67 ba3d 0164 9b3d
00000350: 7e20 0dbe 9da9 d9bd 5011 a6bd c8cd 133d
00000360: ba42 2fbe 01b5 803e f892 143e 1ccc 6ebc
00000370: 2c57 30be 1bb0 a5bd 00cf acbd 0ff6 aebc
00000380: ba77 87bd 9b1f 2fbd 7280 293d e346 573e
00000390: b80a 09bd b2de 3f3e de29 d9bc 241e 633c
000003a0: e58a 393e 5f6e 863e d7d6 a73e 742e 253e
000003b0: 5812 c53b f385 05be 5c03 5c3e 62c0 20bc
000003c0: 9b08 32bd ac2c a1bd 3c78 2d3e e2b2 04be
000003d0: adae 983d f82f dbbd 49a5 ec3d 1a92 273d
000003e0: 2892 443e 2df7 99bd b13a 0bbe f9e7 c0bc
000003f0: be4a edbc 5c1f 1abd 7cce f4bd 1918 63be
0.11515184 -0.069541216 0.16369605 0.18198319 0.10891718 0.10985888 0.13680759 -0.1388376
-0.024752995 0.20982417 0.12276438 0.16242057 -0.14604814 0.30295992 -0.037685722 0.08720927
-0.08670469 0.17925224 0.026331823 -0.20640038 -0.06535746 0.13387026 0.02907214 0.20738024
-0.3851472 0.17622434 0.18477531 -0.07356527 -0.1247509 -0.23682263 -0.0628172 0.05153247
0.13643241 0.0532853 0.06721652 0.08181086 -0.18483907 0.2759778 0.0768147 -0.056033723
-0.062124785 0.086671524 -0.23428029 -0.0060927635 0.15142524 -0.04387927 -0.23057285 -0.034047507
0.05004335 -0.15983912 0.21351404 -0.10711069 0.0071909 -0.048263803 -0.08622863 -0.074489355
0.061168272 0.16529943 0.17297114 -0.33877513 0.20823851 0.2190252 0.026867183 -0.0893418
-0.006754618 0.08733181 -0.28422865 0.16046333 0.066459335 0.043879338 -0.33563986 -0.09196949
0.040611308 -0.22920963 0.022682358 -0.0299742 0.10529338 0.089795925 0.23870197 0.24740356
0.1003346 0.02882723 -0.13582677 -0.07794526 -0.10474269 0.015646182 -0.15023965 0.3198634
0.015474885 0.12281969 -0.25853524 0.111696914 -0.12489195 -0.13724227 -0.13296726 0.24372192
-0.08242911 -0.16632795 -0.047840625 -0.06020329 -0.17143264 0.22625595 -0.24498212 -0.12625645
0.06588079 0.060895946 0.22573467 -0.069542445 0.1000893 0.10228805 -0.07170816 0.3504325
-0.049862657 -0.024919385 -0.19752952 0.06611505 0.14313732 -0.26848364 0.0650234 0.102117166
-0.11126054 -0.031676378 -0.076609775 -0.04084723 0.094813004 0.08183989 0.058894634 -0.11685277
0.0010632258 0.28068024 -0.088288285 0.052328333 0.090457276 -0.094989836 0.116807885 -0.068262145
-0.015026316 -0.032339863 0.16999677 0.09185551 0.015698265 0.22915256 -0.25318348 -0.1936078
0.16472854 0.11062004 0.17129806 0.115750946 -0.11123704 -0.12095378 -0.22413184 -0.38617033
-0.019170785 0.046560664 -0.2684369 -0.2913999 0.011889681 0.13394153 0.061121143 0.2788684
0.112620234 0.19385895 -0.3094241 0.18625766 0.02634798 0.17959231 0.20969753 0.19664738
0.07948847 -0.11129628 -0.021315726 -0.2025101 0.023403564 -0.2146996 0.09239654 0.15664566
0.17404014 0.24134485 0.26572803 -0.17361622 -0.15585406 0.09744435 0.12896019 0.23934768
-0.13914762 -0.07752281 0.11862415 -0.03525407 0.16463438 -0.023778994 0.20485012 0.046036266
-0.07733117 -0.14755136 0.16122931 0.099722676 0.13664728 0.094234996 0.035002995 -0.041803047
0.020571005 -0.0205192 0.077483386 0.10654658 -0.09863566 -0.018068805 0.051332876 0.14482409
-0.079523034 -0.06774974 0.09101866 0.075874336 -0.13781926 -0.10628054 -0.08108771 0.03608492
-0.17115298 0.25138095 0.14509189 -0.014575031 -0.17220753 -0.0809023 -0.084379196 -0.021357564
-0.06614633 -0.04275475 0.04138226 0.21023135 -0.033457488 0.18737295 -0.026509222 0.013862167
0.1811939 0.2625608 0.32781097 0.16131002 0.0060141496 -0.13039379 0.21485656 -0.009811493
-0.043465238 -0.078698486 0.16940397 -0.12958863 0.07455192 -0.10702509 0.11554963 0.040910818
0.19196379 -0.07517848 -0.13596608 -0.023548113 -0.028966304 -0.037627563 -0.11953446 -0.22177161

fc3.bias f4 [10]
00000000: 19dc b1be 4c5b 47bf 00de 8dbb 504b 093f
00000010: 2495 5a3f 9c8d 95bd 5149 6c3e acbc 51be
00000020: 66c5 a63e 2c43 69be
-0.34738234 -0.7787368 -0.004329443 0.5363054 0.8538382 -0.073024005 0.23074843 -0.20482129
0.32572478 -0.2277953
