decorator_workspace/site-2/simulate_job/app_site-2/cifar_net.pth (torch, 251604 bytes, 10 tensors)

conv1.weight f4 [6, 3, 5, 5]
00000000: 8ced 1ebb 951c 8a3e 7aa6 f03d 3222 883e
00000010: 9f6c 003e 3538 b8bd b9ce 433c 6d0a 793e
00000020: 5713 893e b7ad a23d 9447 cabe e6b2 36bf
00000030: d764 5fbf 2949 35bf 6346 b6be d8d6 7a3c
00000040: 8caf 6abe f47a 92be 7bc0 9ebe f22b 80bd
00000050: 3f8b 923e b4e5 eb3e 2876 013f e14e 223f
00000060: 0bd3 ab3e a6f6 593c faa2 ce3d 0e9f b93d
00000070: 40bf 6f3e 2e77 eebd 733f 0f3e a83d c43e
00000080: 4e05 a63e d22d 9d3e 6743 a93e 1c7c 32be
00000090: 80b4 c0be 109f 1bbf 1ab9 01bf 4cdd 61be
000000a0: 746f b8bd 1ca1 1ebe a197 51be edbc 63be
000000b0: abdc 90bd 1a28 9e3d 5725 b03e 088d eb3e
000000c0: ff81 813e 1afe c7bd 1910 f8bd 054b d3bd
000000d0: a746 40be 678c eabd 477b 4bbe 9179 393e
000000e0: 8abd aa3e 45ac f83e 8826 d13e ea2b 903e
000000f0: 480d 583d d0ff 6abe be6c cdbe ad01 5fbe
00000100: 4e7e 3b3d 879e 8ebc c1fd 14bd 7079 0ebe
00000110: 90fa 2ebe 2827 cebd b6c2 14bc 858f f13d
00000120: d3cc 463e 98f4 183e 1b63 10be 11c7 6ebe
00000130: 7913 a8be b41d 35be a78d f4bd 3c1d 5d3d
00000140: 9f12 d6bd 474d a1bd a828 30bd d2d0 b93d
00000150: 7084 063e 4a5c a63d 4caa 2a3d 417d 7f3e
00000160: 4c2a dc3d 46b9 533e b37c 463e 5ea0 003e
00000170: 13f3 463e ad0b 913e dde2 3e3e 9a9b 863e
00000180: 21c7 093e 81d0 4c3e 1a64 86bb bd6d b43d
00000190: 5bf1 60be 7ac3 04be cbbc 56be 6a19 0cbd
000001a0: 7282 ff3b b028 57be 5b85 9cbd 3ae3 583d
000001b0: d492 d93d 56dd 82bc 6839 01be 3e13 aaba
000001c0: d2e6 ff3d f322 da3d f383 7ebd 0292 a2bd
000001d0: 1885 5a3d 783d e9bc 9c2e bdbd bbec 67bd
000001e0: 7338 cf3d 24c7 b33c 6886 83bb 3799 b5bd
000001f0: 8122 92be b955 003e c132 02bd dd64 1c3e
00000200: 5f6d 9d3e 7496 a03e 35a5 19bd d787 e13d
00000210: 88e7 313e 2622 9e3e 5465 ce3d 182d 0d3c
00000220: 11da 383e c4b3 0f3e 6bbc 203e de2c 03be
00000230: 8064 503d e6f7 683e 6dd6 783e dc92 bbbd
00000240: 2fcb 34be ad8d 97bd 8368 1c3e e5cd 56bd
00000250: 45f9 fbbd 6564 6abe 449f f03d d3c6 5cbe
00000260: a62a 303c d601 0cbe 5417 5dbe 0b94 6c3e
00000270: be19 4fbf 451d dabc dcad 753e 4db0 e6bd
00000280: 0623 0f3e 14ee 5dbf 7b96 833e 796b bd3e
00000290: 03e0 ecbc 082a eebe e339 b93c f31d ff3e
000002a0: 93a5 f8bd b3ea 663e c401 a1be 3ca1 103f
000002b0: c690 ad3e 5010 edbe d536 d13d eb0a 163e
000002c0: 20ba 49be 7fcc 363e 5b1c 023d 9ea0 df3c
000002d0: 1609 d93e 6bd4 1ebf de9c 6c3e 0379 953e
000002e0: c1e8 58bd 0b3e 813e 51d2 43bf fc88 af3e
000002f0: 9f27 0f3f 7189 91bd daea afbe 5ffe ee3c
00000300: 6a2b e93e 7449 c9bd 1331 003d f054 9ebe
00000310: 00c9 e03e 4c69 b63e 38db 0cbf 3cb8 113e
00000320: 03a4 263d bbaf 06be 0ced 4f3c bea9 8e3d
00000330: a993 7ebd 128e 883e 8fa1 1cbf 024f 983d
00000340: eede 8a3e 783e 55bd a7e0 7f3e 6727 3abf
00000350: 4ddc bf3e 92e3 8f3e 5d75 ecbd 37dd dbbe
00000360: cd50 c23d f44a ee3e b9a5 7bbe 0032 163e
00000370: cee5 d7be 2651 893e 1367 4c3e a1a8 16bf
00000380: b7e9 9cba a62b bcbd 2a70 c33d 8b78 ca3d
00000390: 647c 04bd 4042 b03c 6f76 0cbe 695e b2b9
000003a0: b0c2 83bd 9f85 ec3c c007 8dbd ef92 71be
000003b0: ae93 78be cdc1 39be 7c94 3bbe c41b c4bd
000003c0: 739f 94be db92 98be 76d6 a3be 0709 a1bd
000003d0: 16c2 0abd 6c60 a2be a4e2 a5be 2709 7fbe
000003e0: 0e08 60bc 7fca 8bbd 2044 6f3c 7e23 afbd
000003f0: 4b6c d4bd 2855 e73c f26a 71be f767 71bd
-0.0024250476 0.2697493 0.11750503 0.2658859 0.12541436 -0.08995096 0.011951142 0.24320383
0.26772568 0.0794329 -0.39507735 -0.7136673 -0.87263244 -0.7081476 -0.35600576 0.015310012
-0.22918528 -0.2860943 -0.31006226 -0.06258382 0.2862186 0.46073687 0.5057092 0.6340161
0.3355945 0.0133034345 0.10089679 0.090635404 0.234128 -0.116438255 0.13989048 0.3832829
0.32425922 0.3069902 0.33059236 -0.17430156 -0.3763771 -0.60789585 -0.5067307 -0.22057074
-0.09005633 -0.15491146 -0.20467998 -0.22240038 -0.07073339 0.077224925 0.34403488 0.46006036
0.25294492 -0.09765263 -0.121124454 -0.10317043 -0.18776952 -0.11452561 -0.19871245 0.1811278
0.33347732 0.4856893 0.4084971 0.28158504 0.05274704 -0.22949147 -0.40122026 -0.21777983
0.04577475 -0.017409576 -0.03637481 -0.13913512 -0.1708777 -0.10066062 -0.009079626 0.11794952
0.19414072 0.14937055 -0.14100306 -0.23318125 -0.32827356 -0.17687112 -0.119410805 0.05398296
-0.104527704 -0.078760676 -0.043007523 0.090730324 0.13136458 0.081230715 0.041666314 0.24950124
0.10750255 0.20676145 0.19383506 0.12561175 0.19428663 0.2832922 0.18641229 0.2629059
0.13454868 0.20001413 -0.0041012885 0.088099934 -0.2196707 -0.12965193 -0.20970456 -0.034203924
0.0077975327 -0.21011615 -0.07642623 0.052951075 0.10623708 -0.015974682 -0.12619555 -0.0012975705
0.12495197 0.10651197 -0.062137555 -0.07938005 0.053349584 -0.028471693 -0.09237406 -0.05662225
0.10118189 0.021945544 -0.004013825 -0.08867114 -0.2854195 0.125327 -0.031786684 0.15272851
0.30747506 0.31364787 -0.03751107 0.110122375 0.17373478 0.30885428 0.100779206 0.008616708
0.18051936 0.14033419 0.15696876 -0.12810084 0.050877094 0.22750816 0.24300547 -0.091588706
-0.17655633 -0.074000694 0.15274243 -0.05244245 -0.12303404 -0.2288986 0.117491275 -0.2156022
0.010752356 -0.13672575 -0.2159093 0.23103349 -0.80898654 -0.026625285 0.23992103 -0.112640955
0.13978204 -0.86691403 0.25700745 0.36996058 -0.02891541 -0.46516442 0.02261061 0.49827537
-0.12140956 0.22550468 -0.3144666 0.56496024 0.33899516 -0.46301508 0.102155365 0.14652602
-0.19699907 0.17851447 0.031765323 0.027298268 0.42389745 -0.62042874 0.23106715 0.29193887
-0.052956346 0.25242648 -0.7649279 0.34284198 0.5591983 -0.07106293 -0.34358865 0.029174028
0.45540935 -0.09828463 0.0312968 -0.30924177 0.4390335 0.3562721 -0.55022 0.14230436
0.040683758 -0.13152973 0.012690794 0.069659695 -0.06215254 0.2667089 -0.6118402 0.074369445
0.27123207 -0.052061528 0.24988042 -0.72716373 0.37472764 0.2810331 -0.11545823 -0.4294221
0.09488068 0.4654156 -0.24574937 0.14667511 -0.42167515 0.26819724 0.19961195 -0.5885106
-0.0011971508 -0.09188013 0.09542878 0.09886273 -0.03234519 0.021515965 -0.13717054 -0.00034021147
-0.06433618 0.02887231 -0.06886244 -0.23591207 -0.24275085 -0.18140335 -0.18318361 -0.095756084
-0.290279 -0.29799542 -0.31999558 -0.0786305 -0.0338765 -0.3171419 -0.32399476 -0.24905835
-0.013673795 -0.068257324 0.014603645 -0.085516915 -0.10372218 0.028238848 -0.23575953 -0.05893704

conv1.bias f4 [6]
00000000: 4198 b5be c008 493d b3c6 1dbe 583d b33e
00000010: ebf3 aebe d995 f1be
-0.35467723 0.04908061 -0.15407829 0.3500774 -0.3417047 -0.47184637

conv2.weight f4 [16, 6, 5, 5]
00000000: 2dce 113e ac7e f93d 1c26 1c3e 0de8 15be
00000010: a024 e33c 762d 6b3e a81f c03d 1c53 f73c
00000020: db6b 7a3c add5 043d 5c13 8c3e da68 133e
00000030: 78ba d73d eb75 c9bd dbaa aa3d acf0 553e
00000040: 93a0 973d 8a03 c6bd 3625 5f3c dd97 7dbc
00000050: 8d8d a23d baa9 b9bd 219e 6dbc 7319 ab3d
00000060: 418c abbc 1c83 60be ba72 57be 98a8 12be
00000070: 4fb9 83bd dc00 07be 9335 b4bd 0f1f d03b
00000080: 2c20 e0bd c0e1 4bbe f903 12be a55b b43d
00000090: a464 b13d 873e 8ebd 891b acbd b6fe 21be
000000a0: f645 313e 0018 fd3c f0b6 86bd 994c 4bbd
000000b0: 709a 32be 2cbe 6d3d b9a5 2a3d cd84 133d
000000c0: 25e9 2b3d 7bc3 90bb 9450 4bbe 72b9 50be
000000d0: cae2 a6bc 143e e43d ef65 2cbe 0015 e0bd
000000e0: 158d bf3d 46aa 1fbe eb4c 0dbd d03d 053e
000000f0: 8505 09be 4228 d6bb ecd6 443e 76e9 743e
00000100: 606a 213c 8dbe 4bbe 5820 8d3e 091f 723e
00000110: edb9 bbbd 2808 a83d 2425 7cbc 260e 893e
00000120: 1087 13be 4e48 5d3e 00f1 e43e 9f64 33bd
00000130: 33a1 4b3c 8d95 6d3c a89d 523d 6d90 703d
00000140: a49c dcbd 9649 2fbe 29a6 1bbe 2a8b bcbc
00000150: 32f4 56bc 9742 99be c64f 56be 65ba 87be
00000160: b7e1 4cbe b39d 1cbe 0527 31be 3ad0 84be
00000170: 1a44 1cbe 7857 debd cced 2ebe 0e09 53be
00000180: ab8d 88be 708f 04be cb0a 36bc cb2e aabd
00000190: a90d 91be 0ccc a5be 831c a33d e591 2a3e
000001a0: 98c1 97bd 283c 8fbe f71c 78be 947a d2bd
000001b0: 661c 1b3e 660a b93d 6381 87be cfe3 d5bd
000001c0: e652 34be cae9 013e feaa dd3d f493 5bbe
000001d0: 9f19 79be 7190 3abd c8f3 06be 5ff4 023e
000001e0: bc83 98be 2716 62be 74f7 6dbd b1de a83b
000001f0: f1d8 f13c a664 64be 5d8e 64bd 5125 2ebd
00000200: f072 393d 7361 8e3e 1850 81be c5aa 10be
00000210: 6c87 80bd c838 0bbb 06ab a8b9 4ce9 4dbe
00000220: 80e2 debd 4273 02be 109c edbd edc9 d9bd
00000230: b31f 923d 3931 4cbd 9a14 29be 34e4 b7bb
00000240: 435a 8d3e 9acc ac3c 86d6 b0bd 2d01 373d
00000250: f62c 183e b54e 8b3e 17f7 7f3d fbd7 923d
00000260: fbdc c83d 554e 0e3b c4d7 e43d 3e4d d4bd
00000270: 91d8 d5bd 68a8 34be 046c e8bc 006d 353d
00000280: a35a 223d 7b71 ebbd 6f8d f6bd c8db 22bb
00000290: 4fcf 823d 93a9 1ebe e718 87be 4ddf 6ebe
000002a0: b116 b9bd e935 0b3d fd9a 7dbd 7703 7fbd
000002b0: ca76 99bd d42f c6bc ad4d 043e 311e a53e
000002c0: 159d c03e d5c4 783e 63ce cb3d 7064 5b3e
000002d0: 53b2 f2bc 750e 023e 03d1 e83c 3c45 013d
000002e0: b15c 1ebd d2ed ecbd e689 a93c c672 b03c
000002f0: 55dc 01be dc9e 3abc b5e9 14be ec90 65bc
00000300: 9f37 84bd b9da 04be 6dc0 18be 535e 3fbe
00000310: 2776 b93c a80a e0bd f194 24be a03c cebd
00000320: 8376 813d dba9 18bd 9d76 b1bd fac8 5dbe
00000330: 6a69 cabd 8a98 3cbd abf5 583e 313a c3bd
00000340: 71b2 c33c b664 e7bc 4766 343d 5e48 9c3e
00000350: f942 55be b47f 473e 1f7e b7bd 37fe 3f3d
00000360: 105d 653e 65dd d8bd 6a63 8c3e dba7 05be
00000370: bc55 f03d d458 4c3e 8711 bdbd 2038 683e
00000380: 1533 04be 5e11 ca3d 77e8 c73d f688 383e
00000390: 581c 603e 857e d13e ae1f 17bd e4f9 0f3d
000003a0: a3c5 e2bd 8526 883d 14fb 5c3d aa61 44bd
000003b0: 6eb3 663d 75a4 01be 903f 253e 2a56 263d
000003c0: 9089 97bd d682 ce3d 7b29 2fbe 7a06 fdbb
000003d0: dbd0 16bc 698f 6abd 0a98 00bd bd6f dcbd
000003e0: 75a4 ae3b ef9f 68be 68eb 34be a04b 03be
000003f0: a873 d2bd 96dd b4bd 0001 f43c 63b9 013e
0.14238806 0.12182364 0.15248913 -0.14639302 0.027727425 0.2296656 0.09381038 0.030190997
0.015284504 0.03243034 0.2735852 0.14395466 0.10533613 -0.09836944 0.08333369 0.2089259
0.07403674 -0.09668644 0.013619712 -0.015478102 0.07937155 -0.09065576 -0.014503033 0.083544634
-0.020940902 -0.21925014 -0.21039858 -0.14322126 -0.06431829 -0.13183922 -0.08799281 0.0063513587
-0.10943636 -0.19910336 -0.14259328 0.08806542 0.08661774 -0.0694552 -0.084036894 -0.15819821
0.17311844 0.030895233 -0.06577861 -0.049633596 -0.17441726 0.05804269 0.04166195 0.03601532
0.04197039 -0.0044178343 -0.19854957 -0.20383242 -0.020371813 0.11144653 -0.1683576 -0.109415054
0.09353081 -0.15592298 -0.034497183 0.13011861 -0.13381012 -0.006535561 0.19222611 0.23917183
0.009852022 -0.19896908 0.2756374 0.23644651 -0.09166322 0.08204681 -0.015389714 0.26768607
-0.14406991 0.21609613 0.44715118 -0.04379713 0.01242857 0.014500988 0.051419884 0.058731485
-0.10772064 -0.17117915 -0.15200104 -0.023015577 -0.013119744 -0.29933617 -0.20928869 -0.26509395
-0.20007978 -0.15294532 -0.17300041 -0.25940114 -0.15260354 -0.10856527 -0.170829 -0.20608923
-0.26670584 -0.12945342 -0.011110972 -0.08309706 -0.28330734 -0.32382238 0.079644226 0.16657217
-0.07409972 -0.27975583 -0.24229799 -0.10277286 0.15147552 0.090351865 -0.26465902 -0.10443842
-0.17609748 0.1268684 0.1082363 -0.21443158 -0.2432618 -0.045547906 -0.13178933 0.12788533
-0.29788005 -0.22078763 -0.058097318 0.0051535 0.029522391 -0.2230402 -0.05579983 -0.042516056
0.04527563 0.27808723 -0.2525642 -0.14127643 -0.0627583 -0.002124356 -0.0003217088 -0.20108527
-0.10883045 -0.1273928 -0.11602032 -0.106342174 0.071349524 -0.04985163 -0.16511765 -0.0056119207
0.27607927 0.021093655 -0.08634667 0.044678856 0.14860901 0.27208486 0.062491503 0.07170101
0.09807774 0.002171417 0.111739665 -0.10366295 -0.104416974 -0.17642367 -0.028371818 0.044293404
0.03963722 -0.11496254 -0.12038695 -0.0024850238 0.06387197 -0.15494375 -0.26386186 -0.2332737
-0.09037531 0.03398696 -0.061915386 -0.062259164 -0.0749336 -0.024192728 0.12920256 0.32249597
0.37619844 0.24293835 0.099514745 0.21425033 -0.029626047 0.12700827 0.028419977 0.031560168
-0.038662616 -0.11568798 0.020695638 0.021539103 -0.12681706 -0.011390414 -0.14542277 -0.014011603
-0.064559214 -0.12974061 -0.14917155 -0.18688326 0.022639347 -0.109395325 -0.16072442 -0.10070157
0.063214324 -0.03727136 -0.08665202 -0.21658698 -0.098833874 -0.04604391 0.21187465 -0.095325835
0.023888798 -0.028246265 0.04404285 0.30523962 -0.2082633 0.19482309 -0.089596026 0.046873298
0.22398782 -0.10589103 0.27419597 -0.13052313 0.117351025 0.1995576 -0.09231859 0.2267766
-0.12910111 0.09866594 0.09761136 0.18020996 0.21885812 0.4091684 -0.036895446 0.035150424
-0.110728525 0.06647972 0.053950384 -0.047944702 0.05632346 -0.12660392 0.16137528 0.040609516
-0.07399285 0.10083549 -0.17105667 -0.0077217193 -0.009205068 -0.057265673 -0.031394996 -0.107635
0.0053296634 -0.2271726 -0.17667925 -0.12821817 -0.10275966 -0.08831327 0.029785633 0.12668376

conv2.bias f4 [16]
00000000: b68c 803f 5963 30bf 453e e53e 5a60 63be
00000010: 4186 7a3f 00d3 8bbe ec9a 363f da4c 783f
00000020: 2dc5 a4bd e837 98be 93d9 35be 21d9 1a3e
00000030: 8c80 03bf ce95 aebe 7689 32bf 529d 203e
1.0042942 -0.6890159 0.4477407 -0.22204724 0.97861105 -0.27309418 0.7133014 0.96992266
-0.08045421 -0.29730153 -0.17758779 0.1512189 -0.5136802 -0.34098667 -0.69741 0.15685013

fc1.weight f4 [120, 400]
00000000: 2666 9f3d 02c0 923c ae4a 973d 7dd0 bd3d
00000010: b00b bb3d 8531 413d 62cd 5e3d f550 733d
00000020: 8d74 603c e21a edbb 48ad a63d 346f 4b3d
00000030: 4cc9 953d 9c44 153c 2854 e03c c880 553c
00000040: fbfa 52bb bb58 263b 931f 6f3d 32fe 153d
00000050: c6d0 863c 94e5 903c ee0d a1bb 164c 1bbd
00000060: 1060 3e3c b2da d63d e868 ae3d 503e af3c
00000070: 8524 cfbc a1db 2e3d 2da0 1bbd 3c7a ef3c
00000080: 956c fcbc f10a 423c 3714 0f3d 0465 86bc
00000090: 84e6 273d 90da aabc 007d 323d 1b3a e63c
000000a0: b81f 313d df25 5dbc ec1b 12bc 13a2 c73c
000000b0: 53af aebc ad8d c23c ac72 90ba fe83 1ebd
000000c0: 9abd a4bd d78f aebc dc1c c039 1a6d 57ba
000000d0: 771c 1dbd e584 9dbd 6dbf 65bd fdd2 88bc
000000e0: 88d6 883b b647 b4bd a89a c2bc ed6e 6cba
000000f0: 0417 67bd dcd3 32bd f20d 2ebd 8d16 1ebb
00000100: e768 19bc b544 82bd 8143 1fbd befb a2bc
00000110: 1a54 8bbd cef7 f6bd 3cd2 0abc aef5 9bbd
00000120: cb97 88bc b6f2 0dbd 9ef9 44bd b2e4 7bbc
00000130: ec01 01bc eb67 20bd ab7c 8e3c c0b9 063d
00000140: a848 54bc af02 dfbc 6f40 1ebc 5b18 373b
00000150: 1654 c63c 728b 833d 718f 4a3c d446 b3ba
00000160: 8854 873d 4c55 a2bb 8860 82bc eb9c 783c
00000170: 1965 8fbd e3e3 99bc 5ad5 4abd 8f4d 4d3c
00000180: 014a c43c 29ab 95bd b1b8 4dbd f37a 09bd
00000190: febe d73d e788 aabc 74a9 8ebc bb12 483c
000001a0: c204 87bc 78c5 0b3d 1c53 343d c1a6 7a3d
000001b0: e3e1 a83d fd80 9d3c 81a3 013e 20b1 073d
000001c0: bef0 ba3d 07cb 9a3d 094c 2dbb b6e8 043e
000001d0: c6b0 db3d 8311 2f3d c9f6 15bc bdea 1bbc
000001e0: 7341 da3d e095 4a3d cd30 6f3d ee45 b23b
000001f0: 5e59 f73c ae9e d03d c5c6 a33c cef9 41bd
00000200: 2bb1 16bc e87e 38bc 4d57 663d dcbd 893d
00000210: 40bf 9f3d 1740 c83a 929b 093d ae60 ae3d
00000220: 3913 eb3c 59b5 b5bb 0e5e 8c3c ec78 c13d
00000230: 76e4 e3bc 6a00 71bd a680 a9bc 7a8e 843d
00000240: 0b6f 14bc 59d2 8bbc af57 45bd cc30 8abd
00000250: 8fea 2e3c c1c3 2f39 96b1 d6bb 02b5 eebb
00000260: 121e 45bd 6855 77bd f053 67bd d85e 66bd
00000270: f71d f9bb 990a aabd 3364 173b 0857 acbb
00000280: 3ad7 cbbb 393f 25bd 5874 a6bd 22ac 70bd
00000290: ee77 cebc 1921 4c3b ffb7 46bd babc 6cbb
000002a0: d9c2 ccbb 6e92 8abd 99ac 89bb 10eb 633c
000002b0: 7967 2dbd 5a1c 17bd 3b22 c6bc 8724 79bd
000002c0: c4f0 7cbd 80d7 543b 9525 92bd 47cc acbc
000002d0: 7033 e1bd 39ab aebd 126c 4abc e84a 9cbd
000002e0: d06b 4fbd 1015 b7bc dad7 e5bc 4137 8ebd
000002f0: f2b8 10bc 2ea8 dabd ee36 f8bd 1200 05bc
00000300: 5d6f a1bd 033c c5bd 5603 9cbd f1ab f4bc
00000310: 6655 6b3c 5e4f 853d 8f2d 21bd a579 3c3d
00000320: 6d06 4a3d 5b45 703d 93af 6dbd 6884 50bc
00000330: dcac fd3c cd0c f6bc 490b b43c 96c6 acbd
00000340: 0f9e 2f3d 3bc8 393d f23a 38bc a0e5 61bd
00000350: ee2d d9bb f0f8 23bd bb15 39bd 2a15 d7bc
00000360: d3b0 69bd 7ea4 84bc 89d6 793d 806d bbbd
00000370: 8334 e5bc 85ed 48bd 7507 4bbd 7311 c9bc
00000380: 603e c43b 14be 003c 992f 1fbd 25ac 173c
00000390: c99a 913d 2616 10bc b405 a1bd 188d 2cbd
000003a0: 0d7b b4bc 2a17 d63c 7db8 72bb 37a5 06bd
000003b0: 95d6 c9bc d3ee 2a3d 5191 833c eac5 0fbd
000003c0: 1a08 35bc ba17 593b ef97 053c ec6f 19bd
000003d0: 41bb 063c 76e3 2cbc 86b9 533c e0ba 88bd
000003e0: ebaf 2fbc aa61 183c 4bb9 e43c 2a1a 3e3d
000003f0: b7c7 2ebd 2dac 4c3c 7bb8 20bd 6de7 153c
0.07783155 0.017913822 0.07387291 0.092682816 0.091330886 0.047166366 0.054395087 0.05940338
0.013699663 -0.0072358707 0.081385195 0.0496666 0.07313785 0.009110596 0.027383879 0.013031192
-0.0032193053 0.0025382477 0.05837972 0.036619373 0.016456973 0.017687596 -0.0049149906 -0.037914358
0.011619583 0.104909316 0.08516103 0.021392018 -0.025285969 0.042689923 -0.037994552 0.02923309
-0.030813495 0.011843429 0.034931388 -0.01640559 0.04099132 -0.020856172 0.04357624 0.028103879
0.04324314 -0.013497799 -0.00891779 0.024369275 -0.021323835 0.023749197 -0.0011020503 -0.038700096
-0.08043976 -0.021308823 0.00036642596 -0.00082178565 -0.038357224 -0.07691363 -0.05609076 -0.01670217
0.0041759647 -0.0880274 -0.023755386 -0.0009019215 -0.056418434 -0.043659076 -0.042493768 -0.0024122328
-0.00936339 -0.06360761 -0.038882736 -0.01989543 -0.068031505 -0.12058984 -0.008472975 -0.07615219
-0.016673943 -0.034655295 -0.048089616 -0.015374349 -0.007873993 -0.039161604 0.01739343 0.03289199
-0.012956776 -0.02722296 -0.009658917 0.00279381 0.024210017 0.064230815 0.012363301 -0.0013677725
0.0660792 -0.004954016 -0.01591517 0.015174131 -0.07001705 -0.018785423 -0.049519874 0.012530698
0.023961069 -0.07308037 -0.050224964 -0.03356452 0.10534476 -0.020817233 -0.017414786 0.012211497
-0.01648176 0.034123868 0.04402457 0.061194185 0.082462095 0.019226545 0.12660028 0.033127904
0.09127949 0.07558256 -0.0026443026 0.12979397 0.10727076 0.04274131 -0.009153076 -0.009516415
0.10657015 0.04945934 0.05839615 0.005440465 0.03019398 0.10186516 0.019992242 -0.047357373
-0.009197514 -0.011260726 0.0562356 0.06725666 0.0780015 0.0015277889 0.03359563 0.08514534
0.02869569 -0.0055453 0.017134693 0.09446892 -0.0278189 -0.058838286 -0.020691227 0.06472488
-0.009059678 -0.017068075 -0.048179325 -0.067475885 0.01067604 0.00016762225 -0.0065519316 -0.0072847614
-0.04812438 -0.060384184 -0.056476533 -0.056242794 -0.007602449 -0.083028026 0.0023100495 -0.0052593984
-0.0062207254 -0.040343497 -0.081276596 -0.05875791 -0.025203671 0.0031147657 -0.048515316 -0.0036123232
-0.0062488136 -0.067662105 -0.0042014834 0.013911024 -0.042335007 -0.036892273 -0.024186244 -0.06082585
-0.06175305 0.003247708 -0.071360745 -0.0210935 -0.10996139 -0.08528752 -0.0123548675 -0.07631475
-0.050639927 -0.02234891 -0.028057028 -0.069441326 -0.008833157 -0.10676609 -0.12119852 -0.008117693
-0.07882569 -0.09630587 -0.07617824 -0.029867144 0.014363622 0.06509279 -0.03935009 0.046014447
0.049322534 0.058659893 -0.05802877 -0.012726881 0.030966215 -0.0300354 0.021978037 -0.08436315
0.042875346 0.04535697 -0.011244522 -0.055150628 -0.0066277897 -0.040032327 -0.04518674 -0.026255209
-0.0570534 -0.016191717 0.060995612 -0.09151745 -0.027979141 -0.04905464 -0.04956766 -0.024544453
0.005988881 0.007857818 -0.038863752 0.009257351 0.07109601 -0.008794343 -0.07862416 -0.042126745
-0.022031331 0.026134092 -0.0037036233 -0.032872405 -0.024638453 0.041731667 0.016060503 -0.035100855
-0.011049295 0.0033125714 0.0081539 -0.037460253 0.008223356 -0.010552278 0.01292265 -0.066762686
-0.010723094 0.009300629 0.027920386 0.04641167 -0.04267093 0.012492222 -0.039238434 0.0091494145

fc1.bias f4 [120]
00000000: c971 f73c 0100 b2bd 8a26 f13d aef0 133e
00000010: c5cc 4d3d 17c8 e03d 1c23 833c 00b3 673d
00000020: 1e2a 973d af98 b4bd 99ca f93d 65cc 87bd
00000030: 729e f03c e3f3 d1bc c547 653e 215e bbbd
00000040: f155 673d c91c 15bc ec4a 8c3e 1292 e03b
00000050: e280 b3bd 0c70 2ebd 0f41 91bd 17f4 023d
00000060: 46cb 253d 5758 923d 4f47 8fbb 2ec9 f23d
00000070: 2625 803d 7beb a6bd 5404 d53d 889e 03bc
00000080: ddce ff3d 25f2 27bb 81ea f83b c5bb 2cbd
00000090: 75f4 4d3d 65ad 133e ef2c 913d 0846 1a3d
000000a0: 3093 d33b ccda 94bd dab8 8ebd 8efc 8a3e
000000b0: 4410 2cbd 1a33 923e 89e4 383e 1100 5b3c
000000c0: 753a 123d 08e1 933d 4753 bdbc d780 13be
000000d0: cc56 7f3e e011 26bd 5052 5e3c a425 2f3d
000000e0: 58c4 d03c 7d2f 1a3e 6456 f53b 9de5 6bbc
000000f0: d182 c8bc 28e7 89bc c3e1 fd3b 6511 37bd
00000100: 1407 80bd 57c1 173c 3931 a63d 05de dc3c
00000110: 7a77 9dbd 3bfd 823d 44f0 2ebe cc43 453c
00000120: 80cd a8bd b665 23be 2164 02ba f3c9 cbbc
00000130: 9610 843c 6d88 c33d 0de2 733e 0479 c93d
00000140: a935 16bd b991 773d ac47 8abd c036 0a3e
00000150: f7f0 f1bc ee00 1f3d f165 093e 1aae db3d
00000160: 2c36 873e 9a69 f93c 4e13 803e 422a 51be
00000170: bc90 0bbe 8e6a 9fbb 8302 173d 71e4 c8bd
00000180: 8524 1abc 48ab 6b3d 0147 01be 40ae 86bd
00000190: dc6b f43d ca6a f9bc 5b28 06be 0968 9b3c
000001a0: 9961 683e 7b52 eb3a 6aa6 34bb 27d3 323e
000001b0: f0f3 043e 74ce 1ebd 89c6 80bc a7d6 dc3d
000001c0: 5a06 27bd 9aa3 a5bd 6e54 283e 6b90 ea3b
000001d0: c247 96bd 447d 863e 019b 90be 2dba 3a3d
0.030205624 -0.08691407 0.11774929 0.14447281 0.05024411 0.10975664 0.016007952 0.056567192
0.0738108 -0.088181846 0.121968456 -0.06630782 0.029372428 -0.02562899 0.22390659 -0.09148813
0.056478444 -0.009101101 0.2740091 0.0068533504 -0.08764817 -0.042587325 -0.07092487 0.031971063
0.04047706 0.07145756 -0.0043725143 0.11854778 0.062570855 -0.08150383 0.10401216 -0.008033402
0.12490628 -0.0025626507 0.0075963144 -0.04217126 0.05028196 0.14421614 0.070886485 0.037664443
0.006456755 -0.07268295 -0.069688514 0.2714581 -0.0420077 0.28554612 0.18055929 0.013366715
0.03570028 0.07220656 -0.023110999 -0.14404617 0.24935454 -0.04054439 0.0135694295 0.042760506
0.025484249 0.15057178 0.007487105 -0.014398006 -0.02447644 -0.016833857 0.00774786 -0.044694323
-0.0625135 0.009262404 0.08114857 0.026961336 -0.07688804 0.06395956 -0.17083842 0.01204009
-0.08242321 -0.15956768 -0.0004974027 -0.02487657 0.01612119 0.095475055 0.238167 0.09837535
-0.036672268 0.060441706 -0.067519516 0.13497448 -0.029533846 0.038819246 0.13417794 0.107265666
0.26408517 0.030445863 0.25014728 -0.20426276 -0.1362943 -0.004864997 0.03686763 -0.09809197
-0.009408121 0.057536393 -0.12624742 -0.06576204 0.11934635 -0.030446429 -0.13101332 0.018970506
0.2269348 0.0017953658 -0.002756501 0.1746336 0.1298368 -0.038771108 -0.015719669 0.10783129
-0.04077754 -0.08087845 0.16438457 0.0071583292 -0.073379055 0.26267445 -0.2824326 0.045587707

fc2.weight f4 [84, 120]
00000000: b4ac f1bd 9b92 cfbd 8fa4 8e3b e5f9 b43b
00000010: 8588 5ebd 5ac9 09bb 3b50 0abd bfd3 08be
00000020: 5931 96bd fe0a ddbc 696c 22bc d6dd 6a3d
00000030: 54ce 8bbd 8d42 d2bb c1f0 76bd ed59 bcbd
00000040: 16ae f03b 6cbb cc3d 2761 0d3e fc67 8e3c
00000050: 86d4 22bd ca8e e2bd 2e95 a5bc 98d9 1fbc
00000060: 14b1 99bc 29f0 933d 27be 853d 13d1 513b
00000070: db11 8abd 1231 3b3d 1345 83bd 0905 83bd
00000080: ab67 2cbd 898e fabb 9333 e93c 007d 45bd
00000090: 7513 243e c689 353e 085c 0abd 96a3 b3bd
000000a0: 8966 14bc 7032 b83d ae1a 823d e183 bfbd
000000b0: 403b ca3c 3a2a 8ebd ab0a 57bb f0ac b53d
000000c0: e60e 9f3d f0be 423e fb56 dabc 4fda 4ebd
000000d0: 1910 41bd a7ef 983c 7768 5bbd d729 053e
000000e0: 5e7f 3dbb d8e0 c63d 6ea6 953d eaef 033e
000000f0: d84c 513d 7d5a 123c 3a04 f1bd 9887 62bd
00000100: 173d 45bd 0d55 a13d d9be 98bd 7083 b03d
00000110: 7e17 d5bc 7ac1 82bd 7a8e afbc 0514 933d
00000120: af36 8fbd 4874 513c 22fc 9ebc 79ed 893c
00000130: 49ef 91bd b8e1 803d 54d1 5cbd 5724 9abc
00000140: 61df f0bd a302 983c 22d7 87bd 2637 c1bd
00000150: 982f afbd 6591 7f3d 28f1 55bd 943c 0abd
00000160: 2195 68bd 39bd cf3c 1d6c 553c cfd2 3d3d
00000170: d032 bcbd 3725 7cbc 6bfe d8bd 416f b6bc
00000180: 563e 04bd f143 f33d 2d0e 283b 229c fe3d
00000190: 9911 723d 6e0d d93d ed46 95bc 1072 7ebd
000001a0: 55e1 133d ec2a 94bd e4b9 f1bd 53e6 d1bd
000001b0: 10b8 06bd 1305 1fbd afa8 a13b 44b1 c23d
000001c0: adf3 02bd 8e1c 9fbc ce3e 0cbd c019 2e3d
000001d0: c45d 0bbd 4bc4 c0bd c750 3b3d 913a efbc
000001e0: 95f4 0f3d 83a6 4b3d f470 8f3b 89f9 f33d
000001f0: ad0f 263d c5ea 1e3d 76be 1a3e 53e3 d2b9
00000200: 9685 a53d 3237 213d 723d c9bc b7a3 2ebd
00000210: bea2 53bd 3a73 e83c 21f3 9bbd 1138 33bd
00000220: 9dd7 adbc 6cfe 61bd 535b 11bc 3c4a c0bb
00000230: 05df acbd 0c4c 793d 5ca9 923d a479 333d
00000240: 90ed b73d fd58 01be 8b9c e2bc b896 b3bc
00000250: cd08 0b3c c75e d6bb 14f4 a9bd d588 0fbc
00000260: 8680 d2bd 8ceb 73bd 8228 42bc 5359 63bd
00000270: a88f e0bd e7ac ad3c 7713 e5bb 7383 03be
00000280: 488f 923d 7cc4 3c3d 262e 9f3b de8c 9ebd
00000290: c7b5 8dbd 7c33 143d a65e c73b 6387 a43d
000002a0: 206e 64bd 8e7c 76bd 313b 903d 673f ccbc
000002b0: 9e32 d5bb e328 303d a9f6 183e 2977 293d
000002c0: 3d60 b13d 5c16 e2bd efd6 7ebc bcd9 183d
000002d0: 56d7 83bd 1048 bfbd 1d83 4b3d d35d f53d
000002e0: 874d 80bc 9398 60ba 1e1b 083d 15b0 e03c
000002f0: 4335 bcbc 2ff0 e5bd f973 43bc 2102 4e3d
00000300: 81e9 12bd 1f58 97bc e0cf 933d b76e e5bd
00000310: 1f2e ab3b 2cc6 353d 634e 89bd 9c15 643d
00000320: e32f 13bd e94f 09be b37a 513c d469 c83d
00000330: e6f1 ed3c c598 a0bd 2216 f8bd f424 55bd
00000340: a0ba 95bd adf2 8b3c 2712 22be b5a8 013e
00000350: 1c68 28be a348 a83d e4e3 fe3c c410 11bc
00000360: c042 1dbe 3dc8 93bd 8bd8 6a3c e21d 043d
00000370: 5c33 6dbd ead0 8fbd 6944 d4bc aea0 5cbd
00000380: 7973 923b ca72 0cbd e5e1 133d f685 a4bb
00000390: fe74 5dbd 8479 b53d c5d1 8cbd 6c5b aebd
000003a0: bf3d 1cbd de79 46bc 8463 9cbd 0a7b 92bc
000003b0: c64c 82bd 4fe9 843d 88a5 523c 69b2 b5bd
000003c0: a7f0 c43c 2b88 d83d 8e2f cf3d cacd 4cbd
000003d0: ea0b dcbd 3187 dabd 6b55 f13c 4edc aabd
000003e0: 4ed9 efbc 873a 69bd 48ac 65bd 2bb7 05be
000003f0: 2988 683d b701 dabd 7831 923c 7f57 d7bd
-0.11800519 -0.10135385 0.004353113 0.005522954 -0.054329414 -0.0021024556 -0.03376792 -0.13362025
-0.07333631 -0.02698278 -0.009913542 0.057340465 -0.06826463 -0.006416625 -0.060288195 -0.091968395
0.0073449714 0.099966854 0.13806592 0.017383568 -0.03975346 -0.11062391 -0.020212736 -0.009756468
-0.018761195 0.07223541 0.06530409 0.0032015487 -0.06741687 0.045701094 -0.06409659 -0.06397445
-0.042091053 -0.007646386 0.028466975 -0.048214912 0.16023047 0.17728338 -0.033779174 -0.08771436
-0.009057649 0.08993995 0.06352745 -0.09351326 0.024686456 -0.06941648 -0.0032812755 0.08870876
0.077665135 0.1901815 -0.026652804 -0.050501164 -0.047134493 0.018668963 -0.053566422 0.13004242
-0.0028915028 0.09710854 0.073071346 0.12884489 0.051098675 0.008932707 -0.11768384 -0.055305094
-0.048153963 0.0787755 -0.07458276 0.0861882 -0.026012179 -0.06384559 -0.021430243 0.07181553
-0.06992852 0.012784071 -0.019407336 0.016836869 -0.07125718 0.062930524 -0.05391057 -0.018816156
-0.11761356 0.018555945 -0.0663283 -0.09434347 -0.08554 0.06239452 -0.052231938 -0.033749178
-0.056782845 0.025358783 0.0130262645 0.04634362 -0.09189379 -0.015389732 -0.105954014 -0.022269847
-0.03228601 0.11878193 0.0025643215 0.12432124 0.059098814 0.10598265 -0.018222297 -0.062120497
0.036103565 -0.07234749 -0.11803034 -0.10249009 -0.03289038 -0.0388232 0.0049334387 0.09506467
-0.03197067 -0.019422796 -0.034239583 0.042505026 -0.03402497 -0.0941244 0.045731332 -0.029202731
0.03514536 0.049719345 0.0043774787 0.119128294 0.040542293 0.038798112 0.15111718 -0.0004022369
0.0808212 0.03935928 -0.024565432 -0.0426366 -0.051668875 0.028375257 -0.076147325 -0.04375464
-0.021220976 -0.055174276 -0.008871871 -0.0058682244 -0.08440975 0.06086354 0.07161209 0.043817177
0.08980858 -0.12631603 -0.027662536 -0.021922454 0.008485985 -0.00654206 -0.08298507 -0.008760651
-0.1027842 -0.059550807 -0.011850478 -0.055505108 -0.109649 0.02120061 -0.006990846 -0.12843113
0.07156235 0.04608582 0.0048577962 -0.07741712 -0.06919437 0.03618191 0.006084281 0.080336355
-0.055769086 -0.06017738 0.0704254 -0.024932576 -0.006506278 0.043007743 0.14937843 0.041373406
0.08660934 -0.11039421 -0.015554174 0.037317023 -0.064375564 -0.09339917 0.049685586 0.11980786
-0.015661968 -0.0008567657 0.033228986 0.027427712 -0.022974616 -0.11227452 -0.0119295055 0.050295
-0.035867218 -0.018474637 0.072173834 -0.11202758 0.005224004 0.044378445 -0.06704404 0.05568467
-0.03593434 -0.1340939 0.012785601 0.0978581 0.02904601 -0.078416385 -0.121135965 -0.052037194
-0.073109865 0.01708349 -0.15827237 0.12662013 -0.16445965 0.08216979 0.031114526 -0.008854095
-0.15357494 -0.07215927 0.014333854 0.03225506 -0.05791031 -0.07022269 -0.025911527 -0.053864174
0.004469332 -0.03428916 0.0361041 -0.005020852 -0.05406665 0.08861068 -0.06875948 -0.08513531
-0.038144823 -0.012114016 -0.076361686 -0.017880935 -0.063622996 0.064898126 0.012856849 -0.0887192
0.024040533 0.10572847 0.10116492 -0.050000943 -0.1074446 -0.10670317 0.029459676 -0.08342801
-0.029278424 -0.05694058 -0.056072503 -0.13058154 0.056770477 -0.10644858 0.017845854 -0.105147354

fc2.bias f4 [84]
00000000: 5860 3c3d 923e 233d 8e2b 0b3e c8f2 e2ba
00000010: 2443 2dbc d4d0 883d d28a a33e 6b73 92bd
00000020: 21b2 bc3c f011 d53d 2e86 783e 62c6 193e
00000030: 1a66 683e 1734 883e 3b79 503d 2453 be3e
00000040: 2ba1 7f3e 18e6 0d3d e221 6a3d 24aa 433e
00000050: ad6a 0fbd 5199 bd3e 9864 4abe 5b8f 763e
00000060: 20c2 9d3e ef7c 133e 147f d9bd 32cc 593d
00000070: 198d b53e 381a 843e e8ed 563d 249e a73b
00000080: f72d 8c3c c522 d83e 9b05 5fbd 8311 5abd
00000090: ce57 813e 785f 5c3e 39dd e4bd 98f1 b6bd
000000a0: c33a 3b3c 9bf6 4c3d a0c6 343e bd2f cfbc
000000b0: 0584 54bd 6d30 1abe 6080 ef3e 8adc 38bb
000000c0: ca1f 81bd bd98 003e 1aaa 2a3c 0196 1bbb
000000d0: f8c8 8f3e e20a 84bd 7723 05bd 385c 9b3d
000000e0: b1c2 7fbd f3da 853e d800 823b 2967 023f
000000f0: 3e9f 3ebe 3ebf 30be b76d d83d 881d 3ebd
00000100: 21cd a53d 11cb 023e 6c19 343f d66e d33d
00000110: e6b9 7abb 37d5 0cbd 8241 083f 92bc c53e
00000120: bf20 2abd ea66 903c 45d4 ec3d 36dd 1c3b
00000130: d0b8 c83a c09a 4ebe 5008 2a3e 234b 9b3e
00000140: da98 3dbe 54e3 21be 4b73 7a3c 9a89 12bc
0.045990318 0.039854594 0.13590834 -0.0017314786 -0.01057509 0.06680456 0.3194185 -0.071509205
0.023034157 0.10403812 0.24269935 0.15017083 0.22695199 0.2660224 0.050896864 0.37172806
0.24963824 0.034643263 0.05716122 0.19107872 -0.035013843 0.37031034 -0.19764936 0.24078123
0.30812168 0.14403127 -0.10619941 0.05317325 0.3545921 0.25801253 0.05247298 0.0051152874
0.017111761 0.42214027 -0.054448705 -0.053239357 0.25262302 0.21520793 -0.111750074 -0.08932799
0.011427584 0.05003987 0.17653894 -0.025291318 -0.051883716 -0.15057535 0.4677763 -0.0028207623
-0.063048914 0.12558265 0.010416532 -0.0023740532 0.28083014 -0.06447388 -0.032504525 0.07585949
-0.06244153 0.26143607 0.0039673857 0.5093866 -0.18615434 -0.17260453 0.105678014 -0.046414882
0.08095766 0.12772776 0.7035129 0.10323875 -0.0038257777 -0.034383025 0.53224957 0.3862043
-0.041535135 0.017627198 0.11563925 0.0023935563 0.0015313867 -0.2017622 0.16604733 0.30330762
-0.1851534 -0.15809375 0.015286277 -0.00894394

fc3.weight f4 [10, 84]
00000000: 67b2 d93d b15f 89bd bfa2 4c3e 7214 4e3e
00000010: 515b e63d 88ae a23d 8c3e ef3d 2b89 ebbd
00000020: ad0a f0bc 38c1 623e ddcd f53d a74d 0c3e
00000030: 22d8 23be 4ebc a53e 261e 1bbd a478 d03d
00000040: 8055 93bd 02c0 3b3e be0f 253d a865 4dbe
00000050: c5b5 17bd 805c ea3d 81b2 043d 97b9 4f3e
00000060: 4b76 c3be ce3b 143e 5533 453e f4ef 92bd
00000070: 654f e2bd 5164 64be 32e6 85bd 122f 6a3d
00000080: cb37 0d3e e5b2 553d 0188 9f3d 4bfa 9b3d
00000090: 5eca 56be 9dc6 943e e3fb 553d f35f 9bbd
000000a0: 34ab a3bd 0502 8e3d d70d 7abe 5e93 983c
000000b0: 410a 1f3e 6af2 87bd 58b2 6cbe 374d 18bd
000000c0: 3a01 313d bed0 43be d6f1 403e 9934 edbd
000000d0: b228 123c 66c2 81bd 4ea1 c1bd 2df5 a4bd
000000e0: e8eb 483d 76e0 203e dcb5 183e a54f a5be
000000f0: 231c 373e e0d7 573e 38fe 943c 0016 9dbd
00000100: 3a42 e23c 462c b53d 04d1 95be 5eb4 243e
00000110: 50f1 a43d 85a8 653d b6d9 aebe 7887 d7bd
00000120: b8e6 ae3c e4cd 69be e3db ba3c eab0 e1bc
00000130: 442e c03d eb76 863d 0149 733e 1ef9 7b3e
00000140: fc78 063e 0dfe af3c 4364 bebd 5306 c4bd
00000150: a9a0 efbd 547b 443c b5a4 22be 41c8 9e3e
00000160: 37bf 8d3c 15de 0b3e 87b9 88be b01e 0a3e
00000170: f543 05be ffdb 29be e275 27be 4f46 773e
00000180: c995 a4bd 2a5f 15be cb7d 3fbd 6e1b 9bbd
00000190: 8077 2fbe b14b 6d3e 8f99 83be 5e4a 16be
000001a0: a2a0 393d 771e 833d 88b1 633e d525 89bd
000001b0: 920f bb3d b3e2 f63d c033 87bd 1e4f 9b3e
000001c0: 35c9 76bd 356f 0bbd 27e2 57be 75ea a93d
000001d0: bc36 123e a6a6 81be 31d8 663d 32c0 ba3d
000001e0: def4 c7bd 4d6d a8bc 581f 9dbd 5bc8 38bd
000001f0: 8f59 e13d 4f12 b93d 4356 4e3d 22e1 0ebe
00000200: 6c7f 303b d22e 9c3e a360 70bd 6e4c 663d
00000210: 4a73 d03d 9185 9bbd 779a f03d b77d a5bd
00000220: e1d5 88bc 2431 cebc ce52 2d3e 0fad ac3d
00000230: 0704 aa3c 247c 7b3e 7844 5fbe e5cd 39be
00000240: e58c 353e d38d a43d 0f68 303e b641 cc3d
00000250: fce5 e9bd 62a0 f7bd 5d0c 6ebe b75e c2be
00000260: a4bb 03bc d616 313d 4faf 89be a29c 90be
00000270: 9ff6 973c 075d 0d3e d542 033d 0195 8d3e
00000280: 22da de3d f7a5 413e 44fe 9fbe 0f56 503e
00000290: 5bbe 35bc 44fb 503e 4b3c 333e 7d74 4c3e
000002a0: 0d63 a43d 8e08 f0bd 74dd 21bd 2f9f 5cbe
000002b0: 7d04 8d3b 61e6 59be 8b18 bb3d 0dbd 1b3e
000002c0: acf9 493e faaa 813e 3223 973e 11c4 1dbe
000002d0: ee3b 3dbe 87f1 cb3d 08ed 103e 58e4 743e
000002e0: 7c77 1fbe 3b13 cebd df31 163e 57d2 dcbb
000002f0: fb9a 203e 1f36 04bd 29e1 503e f84d 883d
00000300: 9758 a1bd 9cf4 3cbe abdb 2b3e d80a dc3d
00000310: 6fb8 ff3d 2632 ad3d 336e 6d3d 4605 0ebd
00000320: 224f 4dbc 4166 51bc ad62 ad3d 637c bd3d
00000330: 147e 99bd c7af d2bc 9ca8 733d 61f2 183e
00000340: b771 8abd c66e 39bd 48a1 e03d 44f0 673d
00000350: 7f77 cdbd 9708 d1bd 34da a2bd e4b1 1b3d
00000360: 4110 2dbe 057e 8e3e 92cd 053e fbd1 cabc
00000370: c978 2dbe 4adf 90bd 89f4 94bd 7119 2abd
00000380: 6406 71bd f83c a2bd 665f 8a3c 45df 663e
00000390: 2d8e b3bc 4b80 263e 0d94 1dbd 532d 7a39
000003a0: 5e49 373e 80ed 853e 3ae9 a73e b436 073e
000003b0: af5b c13c fe31 02be 72c8 5a3e 6555 d23b
000003c0: a0a2 26bc 6147 bebd e950 303e 0a29 d5bd
000003d0: fd7d a13d 310f d5bd c60f d03d 1767 d23c
000003e0: b8d1 3a3e e317 b2bd d846 23be faa6 28bd
000003f0: 94a7 93bd 5485 edbc df21 e3bd 7d3b 77be
0.10629731 -0.06707705 0.19983958 0.20124987 0.11247886 0.079434454 0.11681852 -0.11500772
-0.029301966 0.2214402 0.12002156 0.13701497 -0.16000417 0.32370228 -0.03787055 0.101792604
-0.07194042 0.18334964 0.040298216 -0.2005831 -0.037038583 0.11443424 0.032396797 0.2028564
-0.38176188 0.14475939 0.19257863 -0.07174674 -0.110502996 -0.22303893 -0.06538047 0.057173796
0.13790815 0.05217256 0.077896126 0.07616099 -0.20975634 0.2905778 0.05224217 -0.0758666
-0.07991639 0.06933979 -0.24419342 0.018624958 0.15531255 -0.06638034 -0.23114908 -0.037183013
0.04321406 -0.19122598 0.18842253 -0.11582298 0.008920835 -0.06335907 -0.094545946 -0.08054576
0.049053103 0.15710625 0.14913124 -0.32287326 0.17881827 0.21078444 0.018187627 -0.07670212
0.02761947 0.08846335 -0.2926103 0.1608443 0.08053839 0.056068916 -0.34150475 -0.105238855
0.02135025 -0.22832447 0.022809928 -0.02755018 0.093838245 0.065656506 0.23758318 0.2460675
0.1313209 0.021483446 -0.09296467 -0.09571519 -0.11700565 0.011992294 -0.15883143 0.31012157
0.017303092 0.13658936 -0.26704046 0.13488269 -0.13014205 -0.16587828 -0.16353562 0.24147914
-0.08036382 -0.14587083 -0.046750825 -0.07573591 -0.1713543 0.23173405 -0.25703093 -0.14676806
0.045319207 0.06402295 0.22235692 -0.06696669 0.09133829 0.12054958 -0.066016674 0.303338
-0.06025048 -0.034041602 -0.21082364 0.08296672 0.14278692 -0.25322455 0.05635852 0.091186896
-0.097635016 -0.020559931 -0.07671994 -0.04511295 0.1100341 0.09036695 0.050375234 -0.13953069
0.0026931418 0.3050447 -0.05868591 0.056225233 0.1017824 -0.07593835 0.11748212 -0.08080619
-0.016703548 -0.025169916 0.16926119 0.08431446 0.020753874 0.24559075 -0.21803463 -0.18144949
0.17729528 0.08034863 0.17227195 0.09973471 -0.11420819 -0.120911375 -0.23246904 -0.37962887
-0.0080403425 0.04323467 -0.26891562 -0.282445 0.018550215 0.13805018 0.032046158 0.27652743
0.10881449 0.18910967 -0.31248677 0.20345329 -0.011092748 0.2040835 0.17503469 0.19966312
0.08026705 -0.11720382 -0.039517835 -0.21545099 0.0043035136 -0.21279289 0.091355406 0.15208836
0.19724149 0.25325757 0.2951904 -0.15406825 -0.18479893 0.09958177 0.1415292 0.23915231
-0.15572923 -0.10062262 0.14667462 -0.0067389417 0.1568412 -0.032278176 0.20398392 0.06655496
-0.07878225 -0.18452686 0.16783015 0.10744256 0.1248635 0.08456831 0.057966422 -0.034672998
-0.012531074 -0.012780727 0.084660865 0.092522405 -0.074947506 -0.025718583 0.05948697 0.1493621
-0.06759971 -0.045271657 0.10968262 0.05662562 -0.10032558 -0.102067165 -0.07951775 0.038011447
-0.16900732 0.2783052 0.130667 -0.02475833 -0.16940607 -0.07073839 -0.07273204 -0.04152817
-0.058843985 -0.07921785 0.016891193 0.22546108 -0.02191838 0.16259877 -0.03847127 0.00023858742
0.17899081 0.2615776 0.32795125 0.13204461 0.023603288 -0.12714383 0.21365526 0.006418871
-0.010170609 -0.09290958 0.17218365 -0.10408218 0.078853585 -0.10403288 0.101592585 0.025683923
0.18244064 -0.08695962 -0.15944993 -0.041174866 -0.07209697 -0.02899424 -0.11090445 -0.24143787

fc3.bias f4 [10]
00000000: 65e9 b7be c9f6 45bf 8283 05bd be96 0e3f
00000010: 33c3 5e3f c922 94bd b931 703e 2274 5abe
00000020: bb0f a73e fb29 68be
-0.35920253 -0.7732969 -0.03259612 0.55698764 0.870166 -0.07233197 0.23456468 -0.21333364
0.3262919 -0.22672264
