lightning_logs/version_0/checkpoints/epoch=0-step=2500.ckpt (torch, 504471 bytes, 20 tensors)

model.conv1.weight f4 [6, 3, 5, 5]
000000 2b fc 02 3d e6 ae 3b bd 03 95 7a 3d 2f c5 82 3d
       0.031978767 -0.045821093 0.061177265 0.06385266
000010 5f bb 0a bd b4 f3 53 3c 97 c0 09 bd f7 ca 88 3d
       -0.033870097 0.012936521 -0.033630934 0.066793375
000020 94 bb f7 3b 8a 4d f1 3d df ef d0 3d 50 bc 13 3d
       0.007560203 0.117823675 0.10202002 0.03606826
000030 a8 29 ab bc 2e 55 29 bd fd 9f 48 3c 91 63 ad bc
       -0.020893887 -0.041341 0.012245175 -0.021165641
000040 47 0e 8a 3d 18 d4 9d bd 81 ea 02 3e 31 27 8b bd
       0.067410044 -0.07706469 0.12784769 -0.067945845
000050 11 ec c8 3d b1 94 d4 bb ca b3 98 3d 93 af 79 3d
       0.09810651 -0.006487452 0.07456167 0.060958456
000060 bd ac c4 3c 37 92 57 3d ea ec f4 3d 12 11 80 3d
       0.02400815 0.052629676 0.1195925 0.06253256
000070 f3 f1 c6 3d 65 62 5a bd 31 01 ee 3d fd de a0 3d
       0.09714117 -0.053316493 0.11621321 0.07855032
000080 a5 8f 92 3d c6 61 75 3d 61 b7 c8 3d 6e 4e ff 3d
       0.07156304 0.059907697 0.09800602 0.12466131
000090 cb 9d 06 bb 47 e3 12 bd 08 c6 1a bb 93 f7 37 bd
       -0.002054083 -0.03586128 -0.002361657 -0.04491384
0000a0 50 cd 78 3d 0d 6c 3f bd 88 11 3b bd af bb e9 3d
       0.060742676 -0.046733905 -0.045671016 0.11412751
0000b0 ef ca ff 3d 8b 08 4a 3c f9 9c 90 bc a9 02 2c bc
       0.124898784 0.012331138 -0.017652975 -0.010498681
0000c0 44 94 7a 3d 27 12 c6 bd ae 98 c7 bc 40 02 26 3e
       0.061176553 -0.09671431 -0.024364796 0.16211796
0000d0 c2 84 3c 3e 5c 8c 87 3d 95 fe 8e bc 97 f8 92 3d
       0.18410018 0.06618568 -0.017455379 0.07176321
0000e0 87 41 9b 3c 82 a8 9a 3d 6e 25 09 3e 89 3c 02 3e
       0.018952144 0.075516716 0.13393185 0.12718405
0000f0 18 78 12 3d f3 a3 88 3d 43 ee b8 3d 16 2f 07 bd
       0.03575906 0.06671896 0.0902982 -0.03300389
000100 9d 34 95 3c 6e 2c 1a 3d 0a 7a e3 bc 5c 36 df bb
       0.018213565 0.037640028 -0.027768154 -0.0068119
000110 ed e6 a5 3d bc bc ea 3d 26 58 d7 3c 78 05 8d bc
       0.08100686 0.114617795 0.02628715 -0.017214522
000120 9b 25 be 3d 9c eb 01 bd 58 a6 29 3c 12 11 18 3e
       0.092845164 -0.031718835 0.010354601 0.14850262
000130 b2 c1 3b 3d 9f 0a f2 3c df aa 95 3d 8d 5f 88 3c
       0.04583902 0.02954608 0.07307982 0.016647125
000140 32 d1 c8 3d 49 ee da bd 3c fa 2c bd bc 47 54 bc
       0.09805526 -0.106899805 -0.04223083 -0.012956556
000150 33 dd b8 bc f9 b9 8a bd c3 7d e7 3c 83 d9 03 3d
       -0.022566414 -0.06773753 0.02825821 0.032189857
000160 4e df 32 bc da b2 c5 3d 13 28 19 be 98 3f 0d be
       -0.010917498 0.09653254 -0.14956693 -0.1379379
000170 9c be f2 3a 71 b0 32 bd 1c dd 06 be 83 a6 15 be
       0.0018519941 -0.0436253 -0.13170284 -0.146143
000180 5f d9 09 be 8b 77 3b 3d a7 5f cc 3c c5 31 97 3d
       -0.13461827 0.045768302 0.024947954 0.0738254
000190 f3 17 ef bd 1e 01 22 be e1 80 f7 bd 95 95 83 bc
       -0.1167449 -0.15820739 -0.120851286 -0.016062537
0001a0 a9 dc 14 bd 3c 41 f3 bd 1f 29 e2 3c 50 ac b3 bd
       -0.03634325 -0.11877677 0.027607499 -0.087731004
0001b0 9a 87 c5 bd c2 58 37 3d f4 24 b5 bd 89 8b 5b 3c
       -0.096450046 0.04476238 -0.08844939 0.013399967
0001c0 1f 2c 8e bc c8 b2 cc bc 92 ad 3f 3c 2a f6 18 be
       -0.017355023 -0.024987593 0.011699097 -0.14937654
0001d0 d3 3e fe bd 3c 67 c2 bd d9 3c b9 bd 4c d3 e6 3b
       -0.124143265 -0.09492347 -0.09044809 0.0070442315
0001e0 ab a2 ab bc c3 5b b6 bd b2 60 6c 3d 39 eb 81 bd
       -0.02095159 -0.08904221 0.057709403 -0.06343693
0001f0 05 4f 17 3d 66 4b 87 bd 5d a8 16 be 9f 53 f9 bd
       0.036940593 -0.06606178 -0.14712663 -0.121741526
000200 15 e7 81 3c 34 4d db 3c 16 b2 eb bd c9 9b b7 bd
       0.015857259 0.026770212 -0.115085766 -0.089652605
000210 96 f6 1f be 50 bf 07 3d bb 9e b8 3d aa 38 7e bc
       -0.15621409 0.033141434 0.090146504 -0.015516439
000220 1f 15 02 be 1f be a2 3c 01 b1 90 3d df ca 0c bd
       -0.1270337 0.019866047 0.07065011 -0.03437316
000230 a1 ba a0 bd 7f a5 9e bc 7a 9f ba bc b3 cc 7a bd
       -0.07848097 -0.019366024 -0.022781122 -0.061230373
000240 71 63 f3 bd 37 b9 fd bd 21 b7 0c bd e0 c1 bd bc
       -0.11884201 -0.123888426 -0.034354333 -0.023163736
000250 eb 87 c3 3d a6 52 88 3c e8 e3 ac bd ee b6 27 be
       0.09547409 0.016640972 -0.08441907 -0.16378376
000260 6b 3e 27 be 47 31 c2 bc f6 28 49 3d 4e 06 84 bb
       -0.16332404 -0.023705138 0.04911133 -0.004029072
000270 6a 89 bd bd 98 03 43 3d c3 c9 9b 3d 4b 2f a7 bd
       -0.09254725 0.04761085 0.07606842 -0.08163317
000280 dc 0a 7e bc 89 b7 e3 3c 89 d9 3b bd 5b 6e c6 bd
       -0.015505519 0.027797477 -0.045861755 -0.096890174
000290 01 9c 7b 3d 77 de 02 be cf fa 96 bd 14 3f d9 bd
       0.061428074 -0.12780176 -0.07372057 -0.10607734
0002a0 cd 03 48 3d 68 80 8e bc aa 13 20 bd 4c 55 3c be
       0.04883175 -0.017395213 -0.039081253 -0.18391913
0002b0 b2 6f 66 bc 3a 44 b4 bd 84 d8 19 be 8b 8f 0a bd
       -0.014064716 -0.08802076 -0.15024 -0.0338283
0002c0 81 4b cf bd 96 03 0a bd 9b 77 8a 3c a8 c4 ab bd
       -0.10121823 -0.033694826 0.016902735 -0.083871186
0002d0 c7 86 00 3e 0d fb a2 3d 81 34 9b 3c 07 89 47 3d
       0.12551413 0.079580404 0.018945934 0.048714664
0002e0 b3 f3 2d 3b 46 61 75 3c 02 0a dc bc 09 4d f3 3d
       0.002654296 0.014976805 -0.02686024 0.11879928
0002f0 bc 5b e2 3d 19 bd a3 3d 4e e8 63 3d 29 df bf 3d
       0.11052653 0.07995052 0.055641465 0.09368736
000300 0c 44 af 3d 91 51 04 be ce 1d ce 3b 89 2f c8 bd
       0.08557901 -0.1292174 0.006290174 -0.097746916
000310 42 de 77 bd fc 76 05 be b7 74 7d bd cf 53 3f be
       -0.060514696 -0.1303367 -0.061878886 -0.18684314
000320 ce 8e da 3d c3 38 2d 3e 4e 55 e9 3c f6 fa 78 bd
       0.10671769 0.16916184 0.02848306 -0.06078621
000330 b9 e7 3d bd f9 1f aa 3d a0 ea ee 3d 80 c9 00 3e
       -0.046363566 0.083068796 0.11665845 0.12576866
000340 a9 d1 cf 3d 7b eb 40 3e 50 08 c2 3d 1b d7 1b 3e
       0.101474114 0.18839829 0.09474242 0.15218775
000350 24 74 75 3d 6b 5b 66 3e a4 3a 22 3e 6b 05 31 3d
       0.059925213 0.2249581 0.15842682 0.043218058
000360 21 15 fd 3d d9 f7 b0 3d 96 97 92 3d e9 70 9f 3c
       0.12357546 0.08641023 0.07157819 0.01946302
000370 38 34 67 bb f0 2f bb bc cc 6a db bd aa e9 bf bc
       -0.0035278928 -0.022850007 -0.10713729 -0.02342685
000380 a6 08 8b 3c c1 ea c8 bb a0 c5 b4 3d 86 54 dc 3c
       0.016971897 -0.0061315005 0.088267565 0.026895773
000390 8d f2 0b bd d8 e3 45 bc b5 24 82 bd 4a 6c 5e 3d
       -0.03416686 -0.012078248 -0.063546576 0.05430249
0003a0 dd e5 bf 3d 47 71 01 3e 97 18 08 3e db 4f c2 3c
       0.09370015 0.12640868 0.1329063 0.023719719
0003b0 ce c7 c4 3c e6 6f 71 bd 62 2a 76 3d b5 20 90 bd
       0.024021056 -0.058944605 0.060099013 -0.07037488
0003c0 e7 03 b4 bd c3 ad e5 bd 48 1a 22 be 52 52 25 be
       -0.08789807 -0.11214783 -0.15830338 -0.16144684
0003d0 49 19 9c bd 64 3f 51 3d a3 24 ea bd 6c 39 2a be
       -0.0762201 0.051085845 -0.11432769 -0.16623467
0003e0 b6 39 a4 bd 92 eb 8c 3d 42 16 81 3c de 98 a5 bc
       -0.0801882 0.06880869 0.015757684 -0.020214494
0003f0 f7 8f 4d bd a0 c1 ac 3d 89 8f 03 be 3e 3f 23 3d
       -0.050186124 0.084353685 -0.12847723 0.039855234

model.conv1.bias f4 [6]
000000 a2 36 bc 3c 2f 92 c4 3d 8b 8f 5d 3e 03 ee d1 3d
       0.02297527 0.09598195 0.21636789 0.10250475
000010 0b 1c 38 3e 85 5b 7c 3e
       0.17979448 0.24644287

model.conv2.weight f4 [16, 6, 5, 5]
000000 af 34 03 bd d8 25 eb 3b c0 a6 87 bd e6 fc 9c 3d
       -0.032032665 0.007176142 -0.06623602 0.07665424
000010 9b bd 6e bd bf 7f 99 3d 78 0b 93 3d 55 ee 74 3c
       -0.05828629 0.07495069 0.07179922 0.014949401
000020 f7 ad 95 bd 9c 55 b6 bb 9c bd 0d bd a2 a3 c2 3c
       -0.07308572 -0.0055644047 -0.034604654 0.023759667
000030 27 29 36 3d 57 93 36 3d e7 ac c5 3c bc 67 7c bd
       0.04447284 0.044574108 0.024130298 -0.061622366
000040 53 68 8b bd 6b a7 c3 3c 4a b5 94 bc 1a 99 16 3d
       -0.06807008 0.023883542 -0.018152852 0.036767103
000050 c8 79 a5 3d 27 ab d3 3c b6 49 4b bd 30 ae cd bc
       0.080798686 0.025838448 -0.049630843 -0.025107473
000060 07 2d 44 3d 9b f5 85 3c df 31 82 3d 96 02 93 bd
       0.047894504 0.016352465 0.063571684 -0.071782276
000070 67 91 82 bb 32 77 05 bd ce 8c 8e 3d 38 7c 29 3d
       -0.0039846185 -0.032584377 0.0696045 0.04137823
000080 46 64 ab bb 7d 00 91 bd 58 b3 88 bb 05 23 94 3d
       -0.0052304594 -0.07080171 -0.00417177 0.07233242
000090 36 d1 02 3b 61 dd f1 39 c5 f0 93 bd 25 bb 8c 3d
       0.0019961125 0.00046132042 -0.072236575 0.068716325
0000a0 98 fa 92 3d 4e bb 80 bd 49 af 60 bd cb a3 01 3c
       0.07176703 -0.062857255 -0.054854665 0.007912586
0000b0 b7 40 27 bd dd 84 86 bd 79 e0 d8 3c f8 6a 94 bc
       -0.0408332 -0.065683104 0.026474224 -0.018117413
0000c0 31 b7 0c 3d ee f3 26 3d 40 df 89 3d b5 de 30 3d
       0.034354392 0.040759973 0.06732035 0.04318114
0000d0 83 49 a7 bd 7e 7a 90 bd 29 5f 79 3d 62 1d 98 bd
       -0.08168318 -0.070546135 0.060881767 -0.07427479
0000e0 bf 38 39 3d 31 a2 5e bd 17 ba 77 3d d0 f1 27 3d
       0.045220133 -0.054353897 0.060480203 0.041002095
0000f0 16 73 73 bd 66 18 91 bd 85 42 1e bd fa 8a 21 bd
       -0.059435926 -0.07084732 -0.038637657 -0.03943918
000100 54 ec 45 bd b2 43 5f 3d 31 14 8d 3c 28 e0 55 bc
       -0.048321083 0.05450792 0.017221542 -0.013053931
000110 ad 96 0b bc 59 92 f9 3c 14 be c0 3b e6 d9 44 bc
       -0.008519811 0.030465292 0.005882034 -0.012014842
000120 31 67 90 3d b2 20 5b 3d e7 f5 06 3b f1 8b 82 3d
       0.07050932 0.053497978 0.0020593347 0.06374348
000130 bb 1b 3e bc e7 02 67 bd 33 c4 56 3d 5b 69 57 3d
       -0.011603291 -0.056399252 0.052433204 0.05259071
000140 29 7f 9b 3c 10 e1 84 bd a9 de 80 3d 53 cf 13 3c
       0.018981533 -0.0648824 0.06292469 0.009021598
000150 33 62 1c bd f6 79 8a bd 0d 21 21 bd f1 48 a0 3d
       -0.038179588 -0.067615435 -0.03933816 0.078264125
000160 e5 48 2f 3d 66 c1 fb bc 72 79 90 3d 5a 76 92 3d
       0.042794127 -0.030731868 0.07054414 0.0715148
000170 35 6e 31 3d b4 d8 14 bb 55 87 af 3d 69 2e 9b bc
       0.043317992 -0.0022712173 0.085707344 -0.018943029
000180 fc 29 06 bd 0c 8d 33 3d d6 33 dc bc 0f 4e 8d 3d
       -0.032754883 0.043835685 -0.026880186 0.06899654
000190 46 01 22 bd 85 31 0c 3d 15 83 67 bd 4a 35 50 bd
       -0.039551996 0.034226913 -0.056521494 -0.05083207
0001a0 da 02 09 3c 15 10 8a 3d de 61 74 bd fb c2 99 bc
       0.008362496 0.06741349 -0.059663646 -0.018769732
0001b0 ae ed 25 3d 35 34 1d bc 27 db 91 bd ad 2b a9 39
       0.040509872 -0.009594967 -0.07121878 0.00032266733
0001c0 97 dc e1 bc 8b bf a7 3c e5 ea 16 3d f6 39 bc bc
       -0.027571006 0.020477077 0.036845107 -0.022976857
0001d0 d4 bd 27 bd 9c f2 48 3d 78 d0 8d bd 67 c1 2e 3d
       -0.04095252 0.049059495 -0.06924528 0.04266491
0001e0 65 05 0f 3d 6b 8d 0d 3d 37 5f 5e bd 8f 47 14 3d
       0.034917254 0.034558695 -0.054290023 0.036201056
0001f0 57 bd 32 bd 8d 84 20 3d 80 83 12 bd 85 34 af 3c
       -0.0436376 0.03918891 -0.03576994 0.021387348
000200 99 2a 1f 3b 5a 4a 6c bd db b6 94 bd be 12 8f bc
       0.0024286865 -0.057688095 -0.072614394 -0.017464992
000210 01 a8 53 3d af b5 8b bc 54 c1 c2 bc 83 fd 43 bd
       0.051673893 -0.017054407 -0.023773827 -0.04784919
000220 df ac 6c bd 69 4d 84 bb 3e bc a3 bc 5d 99 d9 3c
       -0.05778205 -0.0040375483 -0.019987222 0.026562387
000230 72 86 a6 3d 1d 7b 63 bd 39 0e be bc 23 b0 fe 3c
       0.08131112 -0.05553733 -0.023200141 0.031089848
000240 12 3a 68 bd 70 ae 03 bc 55 2f 28 bd 1d 8d 5a 3d
       -0.056696005 -0.008037195 -0.041060764 0.053357232
000250 66 e4 14 bc db e4 a5 3b ea 72 40 3d 73 f1 71 bd
       -0.009087658 0.005062682 0.04698459 -0.059068155
000260 43 4b 32 bd c9 f4 85 3d 17 cd 06 3d c4 77 07 bc
       -0.043528806 0.0654083 0.032910433 -0.0082683
000270 cc 4e a5 3d b0 59 98 3d ac 9e f1 bc c0 06 83 bc
       0.0807167 0.074389815 -0.029494606 -0.01599443
000280 8d 5b 10 3d bc bb 5d bd c0 db a8 bd 52 af 1c bd
       0.03524356 -0.054134116 -0.08245039 -0.038253136
000290 5e f1 89 bd 16 51 5f 3d 2a 9a 9c 3c 24 d3 8f bd
       -0.0673549 0.05452069 0.01911648 -0.07022694
0002a0 8c 9d 02 bb d5 00 b1 3d 08 78 07 bd 79 56 30 bd
       -0.001993033 0.08642737 -0.033073455 -0.043051217
0002b0 19 1c 31 3d d1 23 3e bd 1f 0c 74 bd b5 d5 6f 3d
       0.043239687 -0.046420876 -0.059581872 0.058553416
0002c0 75 c2 50 3b 18 9f 55 3d e6 54 48 bc f5 4c ab 3d
       0.0031854187 0.052153677 -0.012227273 0.08364288
0002d0 b8 c2 ac bc f9 19 c0 3d 97 27 d7 bc 52 3c 86 bc
       -0.021088943 0.09379954 -0.026263995 -0.016386185
0002e0 87 86 97 3d b7 eb 50 3d 91 cb ad bc 20 68 eb 3c
       0.07398706 0.051006045 -0.021215232 0.028736174
0002f0 a8 42 9f 3d 1b 0b 3a bd 19 84 3c 3c 11 e5 af 3d
       0.077763855 -0.045420747 0.011506104 0.08588613
000300 51 9e b5 bc 4c ef 86 3d c7 56 75 bd 16 b7 ca bd
       -0.022170218 0.06588611 -0.05989721 -0.09898202
000310 58 19 cf 39 41 33 88 bd 60 40 07 bd 9e 59 2b 3d
       0.00039501 -0.06650401 -0.033020377 0.041833512
000320 1a da 96 bc 57 04 6b bd 49 5d 82 3d 0b 68 b1 bd
       -0.018414546 -0.057377186 0.06365449 -0.08662423
000330 e7 21 01 3c f9 ae 60 bd 3b 36 3b bd b9 1d ee 3b
       0.007881618 -0.054854367 -0.045706015 0.007266727
000340 88 99 a3 3d 52 65 c8 bc d9 47 a6 bd 89 ae 96 3c
       0.07988268 -0.024462376 -0.081191726 0.018393772
000350 d4 5d 04 bd ae cb 5f bd d6 9b fb 3c db bc d8 3c
       -0.032316044 -0.054637603 0.030713957 0.02645724
000360 ad d3 44 bd 63 3c 2f bb 12 c7 a5 3b d9 2f 22 3a
       -0.048053432 -0.0026738874 0.0050591314 0.00061869394
000370 61 2a 8b bc 82 33 58 bd f7 4a 1a 3d ba 26 5c 3d
       -0.016987981 -0.052783497 0.03766915 0.05374787
000380 52 a2 71 3d 84 7c 97 3d 64 7a dd ba 4a c2 f5 39
       0.05899269 0.07396796 -0.0016897437 0.00046874798
000390 ec 3d 19 bd 10 3d cb bc 3c 8b 16 3d 45 4c d0 3c
       -0.03741257 -0.02480939 0.036753878 0.025426993
0003a0 d0 af 4d bd 07 b1 5e bd c5 cf 0c 3d e7 3a b6 3d
       -0.050216496 -0.054368045 0.034377832 0.088979535
0003b0 42 6c ee 3d 2e 6e ad 3d 0a f5 93 3d 50 cd 2e 3d
       0.11641742 0.08468281 0.07224472 0.04267627
0003c0 f8 f3 9a 3d d3 19 92 3c d3 35 59 3d 10 cc 78 3d
       0.075660646 0.01783458 0.053029846 0.060741484
0003d0 65 ce e0 3c 1d 49 a2 bc e8 a6 30 bd 78 05 64 bd
       0.027442167 -0.019810254 -0.043127924 -0.055669278
0003e0 ee 7e 4a bd 4e c0 a6 bb ad d3 ce 3d 89 bd 5d bc
       -0.049437456 -0.0050888425 0.10098968 -0.013533958
0003f0 81 af 4a bd be b7 58 bd 1b 08 5f 3d ab 4b 8d 3d
       -0.04948378 -0.052909605 0.05445109 0.06899198

model.conv2.bias f4 [16]
000000 90 67 05 bd 28 ea bf 3d 78 86 43 3c 8e cf 1f 3d
       -0.032569468 0.09370834 0.011933915 0.0390163
000010 ac 90 cc bc 83 43 6f bd fa 6e a5 bd 49 d1 7b 3d
       -0.024971329 -0.058413994 -0.08077808 0.061478887
000020 bd 2b 10 bd 55 26 14 3d 99 0f 9b 3d f1 b6 32 bc
       -0.035197962 0.03616937 0.075713344 -0.010907874
000030 b1 13 ce bc 64 2b 1f bd 10 f6 0a 3e 4d 60 87 3d
       -0.025155874 -0.03885974 0.13570428 0.06610165

model.fc1.weight f4 [120, 400]
000000 1d b5 2d bd b4 a4 13 bd 0b 26 d0 bc 8a a9 0c 3d
       -0.04240905 -0.036045745 -0.025408765 0.034341373
000010 aa 0f 07 bd d2 27 16 bc cc ff 1e bd be 8a 08 bd
       -0.032973923 -0.009164767 -0.038818166 -0.03333544
000020 0f 13 22 bd ca 71 13 3d fb ca e8 bc 48 1c 3a bd
       -0.039568957 0.03599719 -0.028417101 -0.045437127
000030 2a a8 9b bb 80 44 27 bd 20 7c 22 bd 92 39 80 bc
       -0.0047502713 -0.04083681 -0.039669156 -0.015652452
000040 d7 99 c1 bc 11 65 1e bd f3 1a f8 bc 7e 85 17 bd
       -0.023632927 -0.038670603 -0.030286288 -0.036992542
000050 29 b5 44 3c cf 86 0a bc 5f d3 28 bd 95 f4 57 3c
       0.012006083 -0.008454992 -0.041217204 0.0131808715
000060 a8 de 12 bd 37 03 1a 3d ca b6 3a bd c2 44 04 bd
       -0.035856873 0.037600722 -0.045584477 -0.032292135
000070 f5 af b7 bb ce a4 eb bc 27 a4 dc 3c 4c 07 ce bc
       -0.0056056925 -0.028765108 0.026933743 -0.025149964
000080 fc 84 d2 3b 46 a7 4d 3d cc 0c 0c 3c 7f 61 ed 3c
       0.0064245444 0.050208353 0.008547973 0.028977154
000090 4f f7 3f bd 5b 87 ec 3c c5 9c ca 3c 6a 45 2f bc
       -0.04686671 0.028873136 0.024732957 -0.010697702
0000a0 a8 b2 40 bb 8d 4f 12 bc bb b5 45 bd a1 97 b3 3c
       -0.0029403362 -0.008930099 -0.048269015 0.021922888
0000b0 04 2e f8 3b d6 3d 19 bc e2 28 3c 3d 95 1a d2 3a
       0.007573845 -0.009353122 0.045937426 0.001602965
0000c0 0a a5 7d bb 59 8d 38 3d 45 89 18 bd 36 32 3d bd
       -0.0038703107 0.045056675 -0.037240285 -0.046190463
0000d0 21 43 31 bd 02 c8 e8 bc 59 14 18 3d 23 62 f3 bb
       -0.04327691 -0.028415684 0.03712878 -0.0074274703
0000e0 40 fb 68 3c 10 28 05 bd 5c cc b8 ba 77 65 36 3d
       0.014220059 -0.03250891 -0.001409899 0.04453036
0000f0 55 42 ef 3c e4 e8 ef bb 23 64 7b bc 41 8a 93 bc
       0.029206434 -0.007321464 -0.015343699 -0.01801026
000100 64 68 9e bc 38 ce 71 3b c0 15 2d 3d 4e 9f c9 bb
       -0.019336887 0.0036896598 0.04225707 -0.006153024
000110 b9 f2 fe 3b 0b af 09 bd 2a d6 42 3d f9 91 27 3c
       0.0077803996 -0.0336142 0.047567524 0.010227674
000120 86 97 42 3d 3f 1f 22 3d 8b 08 ff bc c9 97 37 bd
       0.047507785 0.03958058 -0.031132003 -0.044822488
000130 3c c6 04 3d 08 8c 02 bd 9a 21 ef 39 d3 48 55 bd
       0.032415614 -0.031871825 0.00045610667 -0.052071404
000140 df ac 31 3c 7b 22 29 bd 3f 45 ae bb d2 33 20 3d
       0.010844438 -0.04129265 -0.0053183134 0.03911192
000150 58 4c f5 bc 88 cb 8f 3c af cf 8c 3c af 86 0c bc
       -0.02994363 0.017553106 0.017188875 -0.008577033
000160 e3 4a 8c bc aa 68 e2 3b ea 0f 50 bc 69 40 64 bd
       -0.017125553 0.0069094496 -0.012699107 -0.05572549
000170 a3 de d1 3c c0 80 98 bc 89 a8 41 3d 51 ef 49 3d
       0.025618857 -0.01861608 0.04727987 0.049300496
000180 6f 00 06 ba df 14 2c 3d 64 c7 17 bb 1d 13 18 3c
       -0.0005111759 0.04201209 -0.0023159618 0.009281901
000190 a7 60 18 bd 5b dd 61 3d 1e 04 0c 3d b7 4f 11 bd
       -0.03720155 0.05514274 0.034183614 -0.035476413
0001a0 c6 dd c3 3c cf c3 1f bc 84 77 0f 3d f9 5b 10 3c
       0.02390946 -0.009751274 0.03502609 0.0088109905
0001b0 1d f8 e4 bb bd 25 ec ba 57 8b 26 bc 36 64 ad bc
       -0.006987585 -0.0018016618 -0.010165057 -0.021165948
0001c0 7c e6 0a bd d3 18 88 bc d7 a9 ce 3b ee 20 38 bd
       -0.033911213 -0.0166134 0.0063068676 -0.04495328
0001d0 e3 de 25 3d 51 71 fe ba 79 d4 15 3d 0c ed f0 bc
       0.040495764 -0.0019412433 0.036579583 -0.029409908
0001e0 03 1c dd 3c f0 bb 91 3c 27 6b 18 bc 1c 52 91 bc
       0.026990896 0.01778981 -0.009302891 -0.017739348
0001f0 b1 7c 8c 3c f4 85 bc bc 12 90 3e bd 03 f3 01 3d
       0.017149301 -0.023013093 -0.046524115 0.031725895
000200 27 ed 31 3d 0b 3e d2 3c e8 97 18 bd 89 db 25 3a
       0.043439057 0.02566435 -0.037254244 0.0006326964
000210 aa 38 94 3b 97 96 36 3d d6 10 02 bd 7e cb dd 3b
       0.0045233564 0.044577207 -0.031754337 0.006768643
000220 ff 55 bc bb aa 59 d6 3c 81 b8 4b bd ad 41 af 3c
       -0.005747556 0.026165802 -0.049736504 0.021393621
000230 90 e8 f9 3c 42 cb 37 3d 00 74 12 3d eb 36 b9 bc
       0.030506402 0.044871576 0.035755157 -0.022609195
000240 4f c0 97 bc e9 af b9 bc c4 b9 6e 3c 7a 58 91 3b
       -0.018524317 -0.022666888 0.014570657 0.004435596
000250 dc db fd bc 60 20 2d bd 79 67 8c bb 50 aa 42 bd
       -0.030988626 -0.042267203 -0.004284796 -0.047525704
000260 c0 d9 35 bc 2b 47 66 bb 18 15 ed ba f5 2e 45 bd
       -0.011099279 -0.0035137634 -0.0018087951 -0.048140485
000270 8e 21 a8 3c b3 4d dc 3b d9 e2 e0 3b 54 0a d2 bb
       0.020523813 0.0067231297 0.00686298 -0.0064099226
000280 4d be 09 3d a0 d3 03 3d 30 ab 1c bd 7c 52 11 3c
       0.03362875 0.032184243 -0.038249195 0.008869763
000290 3b 72 16 bd b7 f6 0c bd 39 5c cc bc c9 43 a3 bc
       -0.036730032 -0.034414973 -0.024946319 -0.019929783
0002a0 a8 56 3b 3d d7 7f 3a 3d dc eb 90 bc 11 aa f4 3c
       0.04573694 0.045532074 -0.017690592 0.02986625
0002b0 7b 0b 57 3d db 6f e6 3c 97 cd 0c 3d 7a 55 03 3d
       0.052501183 0.028129509 0.034375753 0.03206394
0002c0 1f 0d 14 3d 1b dd 89 bb 7e 64 e6 3c af 36 1e 3d
       0.036145326 -0.004207266 0.02812409 0.03862637
0002d0 8c 18 ad bc 21 e6 08 bd 91 19 f7 3a 2a c5 16 bd
       -0.021129869 -0.033422593 0.0018852224 -0.036809124
0002e0 06 b0 43 3c 57 8d ae bc a3 49 1f bd 12 a0 16 3d
       0.011943823 -0.02130763 -0.038888585 0.03677375
0002f0 59 a5 41 3d 53 99 15 3d e7 be 37 3d e4 00 92 ba
       0.04727683 0.036523174 0.044859793 -0.0011139181
000300 54 cf 1b 3c d0 22 0f bd 44 d8 6f 3b ed f7 35 bd
       0.00950988 -0.03494531 0.003659741 -0.044425894
000310 c9 13 bd 3c 4c ee 85 bc c0 d9 73 bc 77 ae 48 3d
       0.023080723 -0.01634898 -0.014883459 0.048994508
000320 58 ca 52 3d 38 5a 02 3d d8 95 13 3c d5 a2 0d 3d
       0.0514625 0.03182432 0.0090078935 0.034579117
000330 f6 f9 0a 3d 1e 58 76 3c 97 d3 2a 3c 32 26 de 3b
       0.033929788 0.015035657 0.0104264235 0.0067794556
000340 70 e9 e2 3c c8 40 32 bd 22 69 97 3c 02 a6 24 3c
       0.027699202 -0.04351881 0.018482748 0.010049345
000350 23 e5 4d 3d 49 96 c1 bc 31 5a 56 bc 33 15 32 3d
       0.05026735 -0.023631232 -0.013083027 0.04347725
000360 48 57 db 3c 10 1a ac bc 3b cc 3e bd 43 3e d9 bc
       0.026775017 -0.021008521 -0.046581488 -0.026518947
000370 4f 26 cf 3c 26 6c 51 3d 52 6d 47 3d 17 48 d1 bc
       0.025286822 0.05112853 0.04868824 -0.02554707
000380 95 a5 0d bd 79 ba 02 3d bb a4 38 bb 19 f3 13 3d
       -0.03458174 0.031916115 -0.002817436 0.036120508
000390 b7 73 1c bd 1e a6 86 3c 76 55 6c bc d5 33 fa bb
       -0.03819629 0.016436633 -0.014424672 -0.0076355734
0003a0 b7 87 ec bc bb 92 4d bd 6d 2b 06 bd 59 cd d3 bb
       -0.028873308 -0.05018876 -0.032756258 -0.0064636883
0003b0 74 f2 3c bd 05 57 86 bc 60 16 97 bc 7b dd c8 3a
       -0.04612966 -0.016398916 -0.018443286 0.0015324795
0003c0 de c1 20 3d 09 c2 05 bc db 2e d5 b8 ec 62 58 bd
       0.039247386 -0.008163937 -0.00010165359 -0.052828714
0003d0 79 db 9c 3b 44 48 36 bd 58 c3 69 3c 48 7f 17 bd
       0.0047869054 -0.04450251 0.014267765 -0.03698662
0003e0 6d 56 3c bd f3 1f c4 bc ee 56 26 3d db 7f 01 3d
       -0.04598086 -0.023941016 0.040610246 0.031616073
0003f0 2e 8f 50 3d 10 1a cd 3b c2 a0 6b bc 36 3b 80 3c
       0.050917797 0.0062592104 -0.014381589 0.015653234

model.fc1.bias f4 [120]
000000 f2 55 30 bc 6a 87 8b bc 78 d7 19 3c 76 0c 5e bc
       -0.010762678 -0.017032344 0.009389751 -0.013552776
000010 99 52 6d 3d 84 b6 88 bc 1b 98 59 bd 0e 21 d4 3c
       0.0579401 -0.016688593 -0.053123575 0.025894668
000020 9f 18 fe 3a 08 b1 93 bc 6c 4c 81 3c d8 e4 15 3d
       0.0019386 -0.018028751 0.015783511 0.036595196
000030 56 ec 36 3d 80 66 2b bd 33 9c 70 3c b3 10 06 3d
       0.04465898 -0.0418458 0.014685678 0.03273077
000040 95 b5 8a 3d e6 d8 26 bc 1a 32 63 bc 46 ee c9 bb
       0.06772915 -0.010183549 -0.013866926 -0.0061624376
000050 16 1b 31 bd 29 df 30 3c 6e a9 68 3b c5 b5 53 bd
       -0.04323872 0.010795393 0.0035501379 -0.05168702
000060 3d d5 b9 3c c7 ac 04 bd 5b 2e 0e bd a6 7c 1e bd
       0.022684688 -0.032391336 -0.034712177 -0.038693093
000070 a8 6a bd bb 7a 63 00 bd 30 42 96 bc 18 ef f7 bc
       -0.0057805367 -0.03134487 -0.018342108 -0.030265376
000080 57 14 3d 3c 82 b1 0e 3d 48 27 b9 bc 9b 9c d2 3a
       0.011540494 0.034837253 -0.022601739 0.0016068401
000090 63 9e 07 bd bf 45 2d 3d aa 77 04 bc f4 09 17 3d
       -0.033110034 0.042302843 -0.008085171 0.036874726
0000a0 23 4b b5 3b 9c 8e c5 bc 21 2b ef bc 71 a5 4b 3c
       0.0055326386 -0.024115853 -0.02919537 0.012429581
0000b0 01 17 23 3d 48 b5 15 3d 5f ae 0b 3d f2 05 25 3d
       0.03981686 0.036549836 0.03410184 0.040288873
0000c0 3d 26 fc 3a f6 c3 ae 3c 1f a5 1f bb 31 c8 c0 bc
       0.001923747 0.021333676 -0.0024359894 -0.023532959
0000d0 0a 86 33 bc 1b be af bc 2e 9a d1 bc d3 51 29 bd
       -0.01095725 -0.021452954 -0.025586214 -0.0413378
0000e0 eb a6 54 3d fa 88 64 3c 8d 52 e4 bc ee c6 da 3c
       0.051916998 0.013948673 -0.027871395 0.026706185
0000f0 c4 d1 9f ba 15 be 1c 3d 98 44 31 3c de ee 4c bd
       -0.0012193252 0.038267214 0.010819577 -0.05003249
000100 44 11 aa bc d9 76 03 bb 01 a3 3c 3d 1b b6 41 3b
       -0.020760186 -0.0020059852 0.04605389 0.0029558006
000110 57 7e 0c 3d 3e 74 2a 3d 75 aa a2 3c 68 30 24 3c
       0.034300175 0.041614763 0.01985667 0.010021307
000120 8d d5 c7 3c ea f4 34 bd e7 a0 f1 3c eb d0 77 3d
       0.024393821 -0.04417888 0.02949567 0.060501974
000130 28 14 53 bd 19 2f da bc c9 be 58 3b d0 7a b8 3c
       -0.051532894 -0.026633786 0.0033072701 0.022519499
000140 09 01 2d 3d bb b1 5c 3d 5a 7e 53 bd 87 0e b8 3c
       0.042237315 0.053880434 -0.05163417 0.022467865
000150 30 cc 2d bd 21 e7 6f 3b 1e d8 12 3d f1 12 50 bc
       -0.042431056 0.003660627 0.035850637 -0.0126998285
000160 c5 12 05 3d 00 ce da 3b 11 91 28 3d 38 bc da 3c
       0.032488603 0.006677389 0.04115397 0.026701078
000170 6a 2c f7 3c 0b 43 3a bd d9 c3 d7 bc 7d aa ac 3c
       0.030172545 -0.045474093 -0.026338505 0.021077389
000180 b1 28 aa 3b 81 e8 2f 3d 38 ad cf 3b 17 c1 56 3d
       0.005192839 0.042946342 0.006337788 0.05243024
000190 4b ed b0 3c 7b 9c a8 bc b0 1b 9a bc 3c a8 b6 bc
       0.021597525 -0.020582428 -0.01881203 -0.022297017
0001a0 67 1f 27 b9 1a 3e 81 3c c6 77 0d bd 9b b5 da 3a
       -0.0001593806 0.015776683 -0.034538053 0.0016686203
0001b0 42 c6 d5 ba f4 59 5c 3d ad 72 ca 3c 67 6e 06 3b
       -0.0016309696 0.053796723 0.024712885 0.0020512582
0001c0 7a 5c 4c bc a3 5c 3f bd bd f5 b7 3c e4 51 3e 3d
       -0.01247322 -0.046719205 0.022456044 0.046464816
0001d0 93 b9 21 3d 2a 12 8e bc 3e e4 be bb a7 33 d9 3c
       0.039483618 -0.017342646 -0.0058255484 0.026513888

model.fc2.weight f4 [84, 120]
000000 24 57 35 3d 0a 0d 1f bd 2d ee 90 bd 16 3a bd 3c
       0.044272557 -0.038830794 -0.070766784 0.023098987
000010 23 28 64 bd 53 cc 04 3c 4d 87 51 3d 49 f9 f8 bb
       -0.05570234 0.008105355 0.051154424 -0.0075980765
000020 3d 28 b6 3d 11 dd ee bc 20 30 04 3d 21 8b a0 3d
       0.088943936 -0.029158147 0.032272458 0.07839037
000030 b4 1b 48 bd 33 f3 9c 3d 18 1f 79 3d ea 85 5a 3d
       -0.048854545 0.07663574 0.06082067 0.053350367
000040 18 ab dc bc 5e 29 15 3c d0 a8 7b bd a4 8e 9d 3c
       -0.026937053 0.009104101 -0.06144029 0.019233055
000050 c2 14 53 3c 27 25 8c 3d 83 e7 6f bd f2 27 84 3d
       0.012883367 0.06843024 -0.058570396 0.064529315
000060 c7 a3 0c bc 00 47 b0 bd 9b a1 4c 3d 7f 51 85 bd
       -0.008583969 -0.08607292 0.049958806 -0.06509685
000070 54 6c 88 3d 3a f9 0a bc 18 ca a1 bd 24 0f 17 3d
       0.06661287 -0.008482272 -0.078998744 0.036879674
000080 93 63 e0 3c 66 d9 85 bd ee 86 d7 bc 45 c3 9e bd
       0.02739123 -0.06535606 -0.026309457 -0.077520885
000090 25 49 1f bc a5 b8 58 bd 0c af 6a bd 23 9f a7 bd
       -0.009722029 -0.052910466 -0.057295844 -0.0818465
0000a0 ac 64 42 3d 4d 1b 79 bd 6e 23 3d 3c db 4c 92 bd
       0.04745929 -0.06081705 0.011544092 -0.07143565
0000b0 93 7a db bc 34 60 b4 bd 3d 00 11 bc c0 ae 09 3d
       -0.026791846 -0.08807412 -0.0088501545 0.03361392
0000c0 10 2f 90 3d f9 be b1 bd 74 81 0d 3d 65 55 dc ba
       0.070402265 -0.08679003 0.034547284 -0.0016810118
0000d0 f4 c8 87 3b 60 6c 6c 3d 8f 52 85 3d 8b 26 1c 3b
       0.0041438285 0.057720542 0.065098874 0.0023826684
0000e0 dd f8 1c bd 99 40 d3 bc 91 38 91 3d 47 b3 1f 3c
       -0.038323272 -0.025787639 0.07090867 0.009747333
0000f0 27 d5 ab bd 95 86 9f bd a9 8a 2a 3d 56 88 3e bd
       -0.08390265 -0.07789341 0.041636143 -0.04651674
000100 3f 0c 99 3b e3 e7 a7 bd a9 d4 48 3d ab 01 a5 3c
       0.0046706493 -0.08198526 0.049030934 0.020142397
000110 8b dc 89 bd 23 46 9a 3d 82 9e eb bc 3b 96 09 bd
       -0.06731518 0.07532909 -0.028762106 -0.033590537
000120 16 0b 53 3d b7 0d a8 bb db f6 42 3d 19 45 84 3d
       0.051524244 -0.005128588 0.0475987 0.06458492
000130 11 e6 85 3c ec 7d 63 bd 62 e8 b1 3d a3 52 a7 3d
       0.016345056 -0.05554001 0.08686902 0.081700586
000140 0e a1 3b 3d 05 fb 9c bd 98 e2 db 3c f7 db a3 bc
       0.04580789 -0.07665066 0.026841447 -0.020002348
000150 3f f5 99 3d be 19 8c 3d 21 0b 91 bd 84 1b f2 3b
       0.0751748 0.068408474 -0.07082201 0.007388534
000160 c7 12 39 bd 8f d8 97 3d 47 c8 53 bc f2 07 48 3c
       -0.045183923 0.07414352 -0.012926168 0.012208926
000170 db 3e 00 3d b4 a6 00 bd 41 32 94 bd 84 d7 a6 bd
       0.031309944 -0.03140898 -0.07236148 -0.08146575
000180 3a 01 8d 3d 77 1f bc 3d a4 09 87 bd 28 be a4 3b
       0.068849996 0.09185689 -0.06593636 0.005027551
000190 92 e4 9f 3d f0 99 3f 3d 27 74 28 bd 6d 3e 0d 3d
       0.07807268 0.046777666 -0.041126397 0.034483362
0001a0 2c 6a 90 bd 09 1f 8c bc fc 21 ab bd c1 60 84 3d
       -0.07051501 -0.017104642 -0.083560914 0.06463767
0001b0 62 5e cf 3c f8 0a 3c bd 1b dc 53 bd c0 a1 5d bd
       0.02531356 -0.045908898 -0.05172358 -0.054109335
0001c0 9a 4a 4a 3d ae 9b 2b 3d d1 aa eb 3c 70 55 92 3d
       0.04938755 0.041896515 0.028767975 0.07145202
0001d0 76 d5 0e 3c 11 95 9e bd 4f fe 54 3d b0 66 fd bc
       0.008717885 -0.07743276 0.05200034 -0.030932754
0001e0 47 98 95 3d 55 22 ae bd 99 3c bb 3d aa 92 df bc
       0.07304435 -0.08502642 0.091424175 -0.027291615
0001f0 5b c8 80 3d 0a a5 37 3c 51 91 6e bd b4 14 b9 bd
       0.06288215 0.011208782 -0.058244053 -0.09037152
000200 e7 b7 9c 3d 77 08 ad 3d 4b 6a 54 bd 99 84 9e bd
       0.07652264 0.0844888 -0.05185918 -0.07740135
000210 e9 da 34 bd 2c 8c 04 3d 4c 91 98 3d 41 e2 96 bd
       -0.04415408 0.03236024 0.07449588 -0.07367373
000220 89 c7 04 3d cc a1 53 3d d6 f3 8a 3d 9b ec 45 bd
       0.032416854 0.051667973 0.06784789 -0.048321348
000230 c3 e5 29 bd c2 44 81 bc ef 7f 9e 3d 46 1b 3e bc
       -0.041478883 -0.015779857 0.07739245 -0.011603182
000240 67 c4 3e 3a ec 17 e8 3c 3e c7 f4 bc 2d 45 a5 bc
       0.0007277191 0.02833172 -0.029880162 -0.020174587
000250 91 b1 82 3d a4 0b 88 3d d5 f8 8d ba 0d 46 71 3b
       0.06381524 0.06642845 -0.0010831604 0.0036815435
000260 d4 79 11 bd 1c 7c 9a bd d7 1e 5e b8 cf 32 00 3d
       -0.035516575 -0.07543203 -5.2957646e-05 0.031298455
000270 91 59 89 bd da f8 86 3d 7c 26 3a 3d ed d8 af bd
       -0.067065366 0.065904334 0.045446858 -0.08586297
000280 c2 44 8a bd 82 1c 2f bd d8 c6 2a bd 06 74 85 bd
       -0.06751396 -0.042751797 -0.04169354 -0.0651627
000290 8a eb 99 3d cb e7 a4 bc 93 47 b2 3d 2a d0 2f 3d
       0.07515629 -0.020130059 0.08705058 0.04292313
0002a0 00 83 83 bd 8f 22 38 3d 55 e2 e4 3b 08 ee 78 bd
       -0.06421471 0.044954833 0.0069849887 -0.06077388
0002b0 71 1e 7c bb 6a 6f 8e 3d b5 d2 a3 3c 89 25 67 3d
       -0.0038470293 0.06954844 0.019997934 0.05643228
0002c0 83 c4 73 bc e1 3d 77 bd 54 e6 34 bd 05 f9 76 3d
       -0.014878395 -0.060361747 -0.04416497 0.060296077
0002d0 50 b2 88 bd 5b 0a 8d 3c 29 d5 16 3d 4b 0e 49 bd
       -0.066746354 0.017216852 0.03682438 -0.049085896
0002e0 ba aa 3b bd 6d 83 17 3c 8e 07 91 3d 0b 50 82 3d
       -0.045817114 0.009247643 0.07081519 0.06362923
0002f0 04 06 08 bd 1e aa 83 3d c9 4d c8 bb 10 13 66 3d
       -0.033208862 0.06428932 -0.0061127883 0.056170523
000300 9a bd bf bc 77 55 aa bd 91 b6 9c bd 60 c6 28 bd
       -0.023405839 -0.083170824 -0.07652009 -0.04120481
000310 66 74 ef bc 06 0e 47 3c 14 c4 88 bd 4a 41 8b 3d
       -0.029230308 0.01214934 -0.06678024 0.06799562
000320 f8 9d 83 bd 0c 11 0b bd 80 15 a6 3d 6d e2 a9 3b
       -0.064266145 -0.033951804 0.081095695 0.0051844628
000330 18 2b 49 bc 79 cd 6d 3d d0 31 64 bd 7e c5 be 3d
       -0.012278341 0.058057282 -0.055711567 0.093150124
000340 cc 43 d8 bc 6a 17 5a bd a9 dd b4 3a de ef 3c 3d
       -0.026399516 -0.053244986 0.001379897 0.046127193
000350 93 b4 5e bd d9 80 bf bd 96 13 77 bd 60 67 20 3d
       -0.054371428 -0.093507476 -0.060321413 0.039161086
000360 7a 6e 25 bd 81 dd 84 bd 23 c0 83 3b b9 7c 61 bd
       -0.04038856 -0.06487561 0.004020707 -0.055050585
000370 a2 b8 ab bc 69 46 02 bd 35 49 40 bd 9e 82 74 3d
       -0.020962063 -0.03180543 -0.046944816 0.05969488
000380 3f 21 c1 3a aa e0 79 bc a3 f6 96 3d 83 0d 86 bd
       0.001473464 -0.015251318 0.07371261 -0.06545546
000390 6d 6d 06 bd ca b5 b2 3d 8d 36 b3 bc cc 8b 33 bd
       -0.0328192 0.0872608 -0.021876598 -0.043834493
0003a0 9a d5 85 3d 0f 0f 4f bd a2 5d a3 3d ee 12 f1 bb
       0.06534882 -0.05055147 0.079768434 -0.007356993
0003b0 59 f0 97 3d 39 53 37 bd 29 d6 3b 3c 25 ec d5 3c
       0.074188896 -0.0447571 0.011464634 0.026113579
0003c0 4c 12 25 3d 2e 61 35 bd b5 66 7d bd e9 95 82 3d
       0.040300652 -0.04428213 -0.061865527 0.06376249
0003d0 a5 91 af 3d 21 07 b2 bc 01 d0 9c 3d d2 88 ab bd
       0.08572701 -0.021731915 0.07656861 -0.08375706
0003e0 67 5e 88 3d fc 37 46 3d 73 8d 7c 3c 20 e1 96 3d
       0.06658631 0.048393235 0.0154145835 0.07367158
0003f0 3f 16 6c 3c ba 0e 94 3d 0f f2 71 bd e6 42 2d bd
       0.014409601 0.07229371 -0.059068736 -0.042300127

model.fc2.bias f4 [84]
000000 03 6f a6 bd e1 e1 05 bd f3 2d c9 bc 18 6e d0 3d
       -0.081266426 -0.032686118 -0.024558043 0.10177249
000010 89 ba c8 3c 47 da 94 3c e4 0e 94 bd 00 77 0c bd
       0.02450301 0.018170489 -0.07229403 -0.034293175
000020 ea eb a5 3d 74 66 af 3d 16 69 58 3d a8 4c 93 bd
       0.08101638 0.08564463 0.052834593 -0.071923554
000030 aa 17 f4 3d 02 4e 4e bc f8 94 96 3c f5 8f ae 3c
       0.11918576 -0.012591841 0.01838158 0.021308878
000040 74 9c 11 3c 2b 04 fa 3b ba b0 94 3d 58 75 10 3d
       0.008887399 0.0076298914 0.072602704 0.035268158
000050 54 d1 e0 3c 18 b3 32 bd cd 44 a2 bd 92 45 46 3d
       0.027443565 -0.04362783 -0.07923279 0.04840619
000060 57 f9 9e bd a3 61 a2 bc 7d 8f 92 bd 86 1a ce bc
       -0.077624016 -0.019821947 -0.071562745 -0.025159132
000070 2f 84 0b 3e 59 c4 9a bd 7e 0d 4a 3c f7 55 4e bd
       0.13624643 -0.075569816 0.012332318 -0.05037495
000080 40 49 dc 3d f1 36 53 bd 0e 3f 70 bd 23 e0 fe 3c
       0.10756159 -0.051566068 -0.058653884 0.031112736
000090 57 23 64 3d c5 6a 81 3d 96 64 7d bd 08 de ae bd
       0.055697765 0.06319193 -0.061863504 -0.08538443
0000a0 2d 6f 81 bc 79 0e 78 bd ed 3a 9f 3d 8a be 8c bc
       -0.015800083 -0.060560677 0.07774911 -0.0171807
0000b0 75 45 65 bc 60 9d be 3d 16 c9 9e 3d 73 4b 44 bd
       -0.013993611 0.09307361 0.07753198 -0.047923516
0000c0 f3 58 27 3d c2 84 40 bc 5b fe 1c 3d 4a ca 63 bd
       0.040856313 -0.011750402 0.03832851 -0.05561284
0000d0 c9 de 1b 3e a3 0c b3 bb 30 4c 7f bd a3 9f 8c bc
       0.15221705 -0.005464153 -0.062328517 -0.017165964
0000e0 71 86 9b 3d 39 bc 94 bd 04 1a 9b 3c ec 7f ed bc
       0.07594002 -0.07262463 0.018933304 -0.028991662
0000f0 80 ce a4 3d f9 c8 1f 3d 02 64 82 3c 80 c8 ba bd
       0.08047199 0.03901002 0.015916828 -0.091202736
000100 5c 73 cd 3d ef 89 d3 bc 91 e0 42 bc cd b3 2f bd
       0.10031769 -0.025822608 -0.011894361 -0.04289608
000110 6f b6 b3 3b ca 6e 84 3c 0d d4 af bd f4 6d e3 3d
       0.0054843943 0.01616611 -0.08585367 0.11104956
000120 ee 3d c1 bd 26 d8 48 3d b0 50 94 bd fb 6a 55 3c
       -0.0943564 0.04903426 -0.072419524 0.013025994
000130 6f 4a ac bd d3 3e 31 3d 44 9e 30 3d ee fc 1f bc
       -0.084126346 0.043272804 0.043119684 -0.009764893
000140 e0 55 5c bd 5e 54 c2 bd 1e 4a 86 bd e2 cc d4 bc
       -0.053792834 -0.09488748 -0.065571055 -0.025976602

model.fc3.weight f4 [10, 84]
000000 6f 90 65 bc f7 6e 5a bd 2b 02 44 3d 8f fe df 3d
       -0.014011486 -0.05332848 0.04785363 0.10937225
000010 8a 45 b3 bd cd 65 d2 3c 96 67 3d bc c4 7b f0 bd
       -0.08753498 0.025683308 -0.011560341 -0.117423564
000020 ec d9 9b bd 5c fe b4 3d a5 a5 c5 3b d0 6c dd 3a
       -0.07609925 0.08837578 0.0060317093 0.001689339
000030 02 ed 11 bc f1 83 3e bd cb 54 67 bd 46 16 e8 bd
       -0.008906605 -0.046512548 -0.05647735 -0.11332373
000040 c9 c6 df bd 0c 2b a9 bd e8 1e 2e 3e 0b e1 e3 bd
       -0.10926587 -0.08260164 0.17003977 -0.11126908
000050 17 14 54 bc 44 08 56 3d 3b 88 a9 3d 07 1c 90 3d
       -0.012944243 0.052253976 0.08277937 0.07036596
000060 f9 68 88 3c 46 e7 d5 3d 72 17 cc 3d 64 f5 de bd
       0.016651617 0.104445025 0.09965409 -0.10886648
000070 29 ac 01 be f1 8a 61 3d 23 de b9 bb 31 54 9d 3c
       -0.1266333 0.055064145 -0.0056722327 0.019205185
000080 5d 6b d0 3d a9 0b 44 bc 1f 37 c6 3d 11 98 c4 3d
       0.10176728 -0.011965671 0.09678482 0.09599317
000090 aa 67 c9 3c 14 77 06 3e 01 39 8e 3c 47 c7 b9 3d
       0.024585564 0.13131362 0.017361166 0.09071212
0000a0 82 aa a3 bb 9b 5b af 3d 90 81 db 3d 63 43 bc bd
       -0.0049946913 0.08562394 0.107180715 -0.091925405
0000b0 f2 ea 0f 3d 1a 2e 93 bc 8f d4 b4 3d 82 2b a3 bd
       0.03513617 -0.017966319 0.08829605 -0.07967283
0000c0 10 a9 ca bd 1f 7d 83 3d 5e 89 a2 3d fc 3f 82 bd
       -0.09895527 0.06420349 0.07936357 -0.0635986
0000d0 8e dd 82 3e 56 b4 85 bc 55 d9 c5 3c ee 12 ad 3d
       0.25559658 -0.016321342 0.024151484 0.08450876
0000e0 0d 8c 61 3d 5d f3 b4 3c c5 9f 5c 3c 6f 2d 83 bd
       0.055065203 0.0220887 0.013465826 -0.0640515
0000f0 e3 d7 cd 3c 65 53 e6 bd fe c7 d6 bd 7a 9c b3 bc
       0.025127357 -0.11246375 -0.10487364 -0.0219252
000100 d1 6b f4 bd 25 17 03 be 49 d3 ce bd 99 80 c6 bc
       -0.11934627 -0.12801798 -0.10098893 -0.024231242
000110 29 ce b5 3c f9 1a b9 3d 70 15 f4 bc 65 a0 d9 3d
       0.022193031 0.09038348 -0.029795378 0.10626296
000120 76 d8 2d 3d 9d a2 23 3e d7 89 dd 3d 78 57 66 3c
       0.04244276 0.15980001 0.108173065 0.01405894
000130 cb 9f ea bd 9f 0a 80 3d 52 1c 1a 3c ba e9 f1 3c
       -0.11456259 0.06252026 0.009406166 0.029530395
000140 1d 6d ca 3d 80 75 0c 3d a2 25 9c bd bc 73 68 bd
       0.09884093 0.034291744 -0.076243654 -0.056750998
000150 b5 f1 b1 ba 90 e9 8c 3d 2b ac 86 3d 45 38 85 bb
       -0.0013576063 0.06880486 0.06575807 -0.0040655457
000160 e2 27 6a bd 6e 13 43 bd dc fa 25 bd d6 46 0c 3e
       -0.05716694 -0.04762595 -0.04052244 0.13698897
000170 51 65 c3 bd 81 9a db bc d8 cf a4 bd 33 96 62 3d
       -0.09540809 -0.026807072 -0.080474555 0.055319022
000180 8b 29 e2 bd 89 14 12 bd e5 c7 bc 3d 25 62 0c be
       -0.1104308 -0.035664115 0.09217814 -0.13709314
000190 03 1f b6 bd d5 b0 a1 bb 2d cb a3 ba d5 2e 9f 3d
       -0.08892634 -0.00493441 -0.0012496464 0.077726044
0001a0 b0 b3 ef bc cb e1 e1 3d 33 dc 4c 3c 46 29 a9 bd
       -0.029260486 0.11029395 0.012503671 -0.082598254
0001b0 24 21 8d 3d 78 b7 ab 3d 7c 76 27 bd 5a 68 b1 bd
       0.06891087 0.08384603 -0.04088448 -0.086624816
0001c0 6d aa 1d be c9 69 c7 bd b6 26 d9 bd 16 85 61 bd
       -0.15397044 -0.09736974 -0.10603087 -0.05505856
0001d0 60 e9 b3 bc af 9f 18 bd 9d b2 89 3d 2a 07 b6 3a
       -0.021961868 -0.03726166 0.06723521 0.0013887633
0001e0 9a 1f 8b 3d 54 7e f8 3d f8 98 01 be b6 26 4e 3c
       0.06793137 0.1213347 -0.12656009 0.012582472
0001f0 cd cb f1 3d 63 bb cc 3d 87 58 ad 3d fa 0e d3 bd
       0.1180645 0.09996679 0.08464151 -0.10305591
000200 68 80 c2 3d 9c 9a a6 3d 4e c8 00 3d 1d 93 70 bd
       0.09497148 0.08134958 0.031441025 -0.05873405
000210 f5 af 0d bd 27 d4 b6 3d 06 54 c1 bd f6 5b 20 be
       -0.034591634 0.089271836 -0.09439854 -0.1566008
000220 93 00 bd bd cf 8e 36 3c 30 cd cf bd ad e1 0c bd
       -0.09228625 0.011142447 -0.10146558 -0.03439491
000230 31 40 c9 3d 83 fd 66 3d 29 c0 b3 3c 98 d6 5e bd
       0.09826697 0.05639411 0.021942215 -0.05440387
000240 69 4a 51 bd ed 07 ac 3d 04 8b 3f bd 62 cb af bd
       -0.051096354 0.08399949 -0.046763435 -0.08583714
000250 76 93 16 be f8 59 30 3e df 50 cc 3d 6c 02 83 3d
       -0.1470469 0.1722182 0.099763624 0.06396946
000260 50 50 93 bd 35 1a 17 3c 66 0f 80 bd 34 40 40 bd
       -0.07193053 0.009222557 -0.06252937 -0.04693623
000270 18 6c 80 bd 59 e4 f7 bd 4c b9 e3 bc 6a 9b 93 3d
       -0.06270617 -0.12104101 -0.027798317 0.07207377
000280 74 12 77 3c 5d 6c 1c 3e ae b1 1e bd db 7d 85 3d
       0.015080083 0.15275712 -0.038743667 0.06518146
000290 54 48 84 3c fd bc 84 bd 32 4a db bd a3 ca 87 bd
       0.01614777 -0.06481359 -0.10707511 -0.06630447
0002a0 bb e9 0e bd 28 f9 85 3d 04 18 ff bc 89 71 d9 3d
       -0.03489087 0.065416634 -0.031139381 0.10617358
0002b0 5d 7f ec 3c c5 77 3f bc 28 db cd bd 75 cb ce 36
       0.028869325 -0.01168627 -0.10051566 6.162964e-06
0002c0 11 2a 1d 3d 56 48 b8 3d 05 97 5b 3b b8 4d 87 bd
       0.038370196 0.08998172 0.0033506763 -0.066066206
0002d0 54 72 4f 3c c9 06 66 3d 3d f5 be 3d f8 da f5 ba
       0.012661535 0.056158815 0.09324119 -0.0018757274
0002e0 39 7d 22 bd db 48 5d bc 05 04 cb 3c db 38 e1 bd
       -0.039670203 -0.01350614 0.02478219 -0.109971724
0002f0 5b 8d af 3d 25 90 d7 3c 05 82 ad bd e3 27 4b bd
       0.08571883 0.02631385 -0.08472065 -0.049598586
000300 01 4a cf bd 78 e0 dd bd bc 37 c2 3d 6f e8 e3 3d
       -0.10121537 -0.1083383 0.09483287 0.111283176
000310 15 0f 58 3d 58 19 b6 bc de c2 b2 3d e0 5c e7 bc
       0.05274876 -0.022228882 0.08728574 -0.028242528
000320 1b 45 e2 3d 64 93 05 3d 64 49 ca 3d 7d 14 90 bc
       0.11048337 0.032611266 0.098772794 -0.017587895
000330 d0 cb 09 bd 0a 4c 17 be fb 7d f4 bd 59 d6 f7 bb
       -0.033641636 -0.147751 -0.11938091 -0.007563394
000340 06 c7 fd 3b b2 7d 70 bc 1d b4 90 3c 3e dd f7 3c
       0.0077446727 -0.014678406 0.01766401 0.030256864
000350 4e 16 d9 bc 40 55 f4 3d 35 0d 39 3d a1 bc af bd
       -0.026499894 0.11930323 0.04517861 -0.085809
000360 ea e1 b4 3d 7d a3 06 bc 9b 29 49 bd f6 6d 49 bd
       0.08832152 -0.00821769 -0.049111944 -0.049177133
000370 2a 47 23 3e 15 05 ae 3b 6e 6d f6 3d 84 1e 7a 3b
       0.15945116 0.0053106644 0.12032591 0.0038165161
000380 73 16 45 3d 81 53 03 3c 93 d8 d6 3c 2d ca 18 3d
       0.048117112 0.008015514 0.026226318 0.037302185
000390 59 d3 3b bd d6 c4 6c bd 57 53 78 3c 68 ae a1 bd
       -0.045855854 -0.057804905 0.0151565885 -0.078945935
0003a0 44 42 01 3e d2 82 0f be 2d 30 b7 3d 7e eb 80 3d
       0.12622935 -0.14014748 0.08944736 0.062949166
0003b0 ba 08 cf 3d 15 3f c4 bd 28 68 15 bd f6 0e d7 3d
       0.10109086 -0.095823444 -0.036476284 0.105009004
0003c0 e9 bf 5a bd 33 e6 c7 3d f2 a8 7a 3b 4e da 78 bd
       -0.053405676 0.09760704 0.0038247672 -0.060755067
0003d0 6e 44 d8 3d 54 7c 88 3c 2f 0c a5 bd 0d ba ce 3b
       0.10559927 0.016660847 -0.080589645 0.0063088
0003e0 2c 5c 82 bd 07 ba 49 3b 66 00 4c 3d 6d 72 72 bc
       -0.06365237 0.0030781047 0.049805067 -0.014797789
0003f0 d4 d0 08 bd aa 63 f4 3c a6 ee 24 3c 0d 08 b9 bc
       -0.03340228 0.02983268 0.010066664 -0.022586847

model.fc3.bias f4 [10]
000000 39 3c f1 3d 1d 59 f7 bd 18 55 e2 bc d8 af 98 bd
       0.11779065 -0.12077544 -0.027628466 -0.074554145
000010 61 1a 8b 3d 18 a3 c7 ba aa cb cb bd 01 d9 2e be
       0.06792141 -0.0015231101 -0.09950955 -0.17074968
000020 f7 98 13 3e 2a 57 e9 bd
       0.1441382 -0.11393578

momentum_buffer f4 [6, 3, 5, 5]
000000 e7 11 1d bd e2 42 54 bd 41 e4 55 bd 78 72 5f bd
       -0.03834715 -0.051821597 -0.052219633 -0.054552525
000010 e5 71 5a bd a9 80 10 bd e8 f6 65 bd dd 16 89 bd
       -0.053331275 -0.03527895 -0.05614367 -0.06693814
000020 64 ad 82 bd b7 98 76 bd 00 49 16 bd 1e 55 52 bd
       -0.06380728 -0.060204234 -0.036690712 -0.051350705
000030 f0 8b 8c bd b4 16 8b bd a0 6b 65 bd 6f 29 0b bd
       -0.068626285 -0.0679144 -0.056010842 -0.03397506
000040 a3 94 29 bd 70 f9 4d bd 7a 46 57 bd 67 3e 4c bd
       -0.041401517 -0.05028671 -0.052557446 -0.0498642
000050 c0 06 d6 bc d7 73 0b bd 90 a9 26 bd f8 44 20 bd
       -0.026126266 -0.03404602 -0.04068905 -0.039128274
000060 20 95 12 bd 56 c2 a6 bc 06 56 f5 bc 0a 11 ff bc
       -0.035786748 -0.020356338 -0.029948246 -0.031136055
000070 1a 0b 11 bd a8 80 17 bd b0 0b 67 bc 7c e7 00 bd
       -0.035410978 -0.03698793 -0.014101908 -0.03147076
000080 56 24 31 bd 6d 68 28 bd 6c e4 29 bd f7 e4 7e bc
       -0.043247543 -0.041115213 -0.041477606 -0.015557519
000090 00 50 fb bc b4 4b 49 bd 44 93 49 bd a1 c2 2b bd
       -0.030677795 -0.04914446 -0.04921271 -0.04193366
0000a0 06 ce 3f bc 3c 06 a9 bc 37 fa fe bc e7 bb 0c bd
       -0.011706835 -0.020632856 -0.031125171 -0.034358885
0000b0 9a 8c 11 bd d6 e1 a4 bb a0 d5 6b bc a6 be b7 bc
       -0.03553448 -0.0050318046 -0.014394194 -0.022429775
0000c0 bc 66 b5 bc 35 be b7 bc 8a 7d 88 bd bf 03 91 bd
       -0.022143714 -0.022429565 -0.0666457 -0.07080793
0000d0 ff 9c 8b bd 74 8b 91 bd 43 97 95 bd ba 82 5b bd
       -0.06817054 -0.07106677 -0.073042415 -0.053591467
0000e0 d4 8b 8a bd 57 27 9a bd cc 0e 94 bd 98 6f 97 bd
       -0.06764951 -0.07527035 -0.07229385 -0.07394332
0000f0 e1 18 47 bd 19 65 78 bd bf 2d 9b bd 6f e1 9e bd
       -0.04860771 -0.06064329 -0.07577085 -0.07757842
000100 88 d8 93 bd e6 e1 1e bd a4 51 40 bd 42 97 67 bd
       -0.072190344 -0.038789652 -0.04695286 -0.056540735
000110 e3 4c 7e bd 76 4a 85 bd a9 65 da bc 0d 97 14 bd
       -0.062085044 -0.06508343 -0.026659803 -0.036276866
000120 69 1a 34 bd fc e2 34 bd b6 eb 33 bd 6a 5b e0 bd
       -0.0439705 -0.04416178 -0.043925963 -0.10954936
000130 48 b7 d8 bd 2a c6 b4 bd b9 2b a9 bd aa fc 99 bd
       -0.10581833 -0.08826859 -0.082602926 -0.07518895
000140 03 87 a6 bd be f7 7d bd 79 f1 5d bd b2 68 6d bd
       -0.0813122 -0.062003843 -0.054185364 -0.057961173
000150 54 23 6e bd 4d 97 96 bd 95 58 37 bd ce 1a 31 bd
       -0.05813916 -0.07353077 -0.044762213 -0.043238454
000160 b9 17 5e bd 80 88 68 bd 06 ca 85 bc 20 05 20 bb
       -0.054221842 -0.0567708 -0.016331684 -0.0024417117
000170 e8 d9 40 bc ce e1 e2 bc 78 f5 09 bd 10 54 94 3b
       -0.011770703 -0.027695563 -0.033681363 0.0045266226
000180 e0 b6 66 3b 1c c0 41 bc 98 18 4a bc 44 4e e2 bc
       0.0035204217 -0.011825588 -0.012334965 -0.02762521
000190 d2 68 8a bc d8 2c 76 bc 40 3d 3f 3a 60 78 90 3b
       -0.016895685 -0.01502534 0.0007295199 0.004408881
0001a0 9c 6e 82 3c 38 bd af bc c8 82 af bb 80 62 03 3a
       0.015921883 -0.021452531 -0.0053561665 0.0005011931
0001b0 38 eb ca bb 60 df 70 bb c9 5e 1e bd cc ce 75 bc
       -0.006192591 -0.0036754236 -0.038664613 -0.0150029175
0001c0 aa 80 8c bc a0 0e e4 bc b0 5b e4 bc 34 4a 42 bc
       -0.017151196 -0.027839005 -0.027875751 -0.011858512
0001d0 b0 f5 78 bb 78 7f 6c bc 0e 98 e9 bc 78 f6 ff bc
       -0.0037988238 -0.014434688 -0.028514888 -0.031245455
0001e0 80 e3 7f bc 1c 17 9c bc ec 56 0f bd b4 d5 0f bd
       -0.015618205 -0.019053988 -0.034995005 -0.035115913
0001f0 33 2d 45 bd 39 76 52 bd 3a 69 66 bd f1 10 2f bd
       -0.04813881 -0.051382277 -0.056252696 -0.042740766
000200 ee 19 12 bd bd ef b5 bc ea c3 8c bd c7 52 7f bd
       -0.03566926 -0.022209043 -0.06873305 -0.062334802
000210 ee ca 6d bd e3 ea 76 bd 51 4b 60 bd 92 a4 c1 bd
       -0.058054857 -0.0602826 -0.054759327 -0.094552174
000220 fe 75 a5 bd f1 ff ae bd ed 98 bd bd 2e 5c ba bd
       -0.08079146 -0.08544911 -0.09257684 -0.09099613
000230 f0 7f 9f bd bb 46 98 bd bf de ad bd f0 bc c3 bd
       -0.07788074 -0.07435366 -0.08489751 -0.09557521
000240 fa 16 c6 bd 18 3b b5 bd 94 a5 be bd 5c e3 d9 bd
       -0.09672351 -0.08849162 -0.09308925 -0.106390685
000250 bb c8 d4 bd 48 1a e5 bd 7e 49 47 3d d4 2a d9 3c
       -0.10389849 -0.111866534 0.048654072 0.02650968
000260 12 98 48 3d e8 68 d5 3d 9d 84 be 3d b0 2a 17 3c
       0.04897315 0.104204 0.09302638 0.009226486
000270 70 c7 37 bc c0 72 ea ba c3 63 4f 3d 5c dd db 3c
       -0.011216983 -0.0017886981 0.05063225 0.02683895
000280 e4 50 ce bc dc 37 c3 bc bc 14 fe bc b8 b7 ac bc
       -0.025185056 -0.023830347 -0.031015746 -0.021083698
000290 52 7c 4d bd 1a d3 c7 bc 38 1f 05 bd 2d 1a 83 bd
       -0.05016739 -0.024392653 -0.032500476 -0.06401477
0002a0 7a 00 bc bd 1f 66 cd bd 48 19 74 bd 94 d3 aa bd
       -0.091797784 -0.10029244 -0.059594423 -0.083411366
0002b0 ea 4d df bd 50 f3 14 be 85 c6 21 be ae 8f c5 bc
       -0.10903533 -0.14545941 -0.15798385 -0.024116363
0002c0 6e 6a 51 bd 96 c0 09 bd 14 5f 39 3c 70 fb 7b bb
       -0.05112689 -0.03363093 0.011314172 -0.003844943
0002d0 c0 2c 82 bd fe 2f bf bd c7 62 b1 bd 3d 28 25 bd
       -0.06356192 -0.09335326 -0.086614184 -0.040321577
0002e0 84 ea 8c bd ba 70 ad bd da 65 bd bd e0 b9 d6 bd
       -0.06880668 -0.084687665 -0.09247942 -0.104846716
0002f0 c9 ce c7 bd 14 5b 07 be d9 93 a4 bd c1 10 b7 bd
       -0.09756238 -0.13218337 -0.08036012 -0.089387424
000300 77 95 01 be 55 be 1f be be e3 2c be 8b ba d6 bd
       -0.12654673 -0.1559995 -0.16883752 -0.10484799
000310 f4 be fd bd 94 2e 1d be 4c 53 47 be ac 98 59 be
       -0.12389937 -0.153498 -0.19465369 -0.21249646
000320 80 53 eb bc ea c1 4c bd e6 ba 07 bd 26 cc 15 3c
       -0.02872634 -0.04998962 -0.033137225 0.009142911
000330 28 af 81 bb 14 8a 83 bd cc ff b3 bd d8 59 a7 bd
       -0.003957648 -0.06422821 -0.08789024 -0.08171433
000340 31 1f 0b bd b6 e0 7f bd 80 ed 98 bd 6a 48 9e bd
       -0.033965293 -0.06247016 -0.074671745 -0.07728656
000350 3a 0c b6 bd 2c bc a4 bd 7c 9a ea bd 9c 62 6a bd
       -0.08889051 -0.080437034 -0.11455247 -0.057222947
000360 83 61 74 bd b0 f0 c3 bd 94 f6 ff bd ab 4c 0d be
       -0.059663307 -0.09567392 -0.12498203 -0.13798778
000370 a4 a9 97 bd b6 2b af bd 7a cf e2 bd 40 34 18 be
       -0.07405403 -0.08553259 -0.11074729 -0.14863682
000380 dc 78 28 be 0c 97 43 be e6 57 51 be 1f 5b 44 be
       -0.16452354 -0.19100589 -0.20443687 -0.19175385
000390 4a 5e 2c be 94 8b 22 be fe b0 25 be a6 87 29 be
       -0.16832843 -0.15873557 -0.16180798 -0.16555652
0003a0 05 42 18 be 3d fe 11 be 8e 51 0e be f5 80 ee bd
       -0.14868934 -0.1425714 -0.13898298 -0.1164569
0003b0 17 ea f3 bd a6 44 e0 bd ac c7 c8 bd f4 ad ce bd
       -0.119098835 -0.10950594 -0.098037094 -0.10091773
0003c0 8d 8e 8f bd 49 03 94 bd 38 88 68 bd fa f5 2e bd
       -0.07009611 -0.07227189 -0.056770533 -0.04271505
0003d0 ac 3f 4d bd 60 6f 8d bd 72 5f 90 bd 56 3e 62 bd
       -0.05010955 -0.06906009 -0.07049455 -0.05523523
0003e0 18 2d 20 bd 71 6b 53 bd 5f 71 94 bd 2a 5d a7 bd
       -0.039105505 -0.051616136 -0.07248186 -0.081720665
0003f0 20 84 8d bd 8e 2e 75 bd f4 62 72 bd 20 52 9e bd
       -0.069099665 -0.05985885 -0.0591764 -0.07730508

momentum_buffer f4 [6]
000000 1e 9d d6 bc 5e 1d 0e 3d 85 29 34 3f 24 e9 4f 3e
       -0.026197966 0.034695975 0.70375854 0.2030378
000010 94 7a cb be c2 45 5d bf
       -0.39741957 -0.86434567
