decorator_workspace/site-1/simulate_job/app_site-1/cifar_net.pth (torch, 251604 bytes, 10 tensors)

conv1.weight f4 [6, 3, 5, 5]
000000 77 ac c1 bc cb da 76 3e db ad fb 3d 90 f8 85 3e
       -0.023641808 0.241069 0.1228902 0.261662
000010 e1 8a df 3d 64 a8 d6 bd 2a f5 fb 3c 24 de 97 3e
       0.10915161 -0.10481337 0.030756552 0.29661667
000020 db 63 98 3e f7 36 36 3d 22 c6 d0 be a2 89 3e bf
       0.29763684 0.044486012 -0.40776163 -0.7442876
000030 52 50 63 bf 9a a6 2f bf 2b 0f aa be 67 8a d1 bc
       -0.88794434 -0.6861359 -0.33214697 -0.02557869
000040 c7 a2 8b be 32 d0 97 be e8 45 a9 be 20 98 8f bd
       -0.27272627 -0.29651028 -0.33061147 -0.070114374
000050 ec 02 a7 3e 85 3b e7 3e a4 35 f3 3e 3b 70 1b 3f
       0.32619417 0.45162597 0.47501862 0.60718125
000060 90 bd 9f 3e f6 82 68 3c 74 8c aa 3d 9a 0b d0 3d
       0.31199312 0.01419138 0.083275706 0.10158463
000070 1b 67 65 3e ec e5 0a be 6d c7 19 3e 76 e1 d9 3e
       0.22402613 -0.1356427 0.15017481 0.42554826
000080 8b 46 c7 3e a2 99 a4 3e 06 41 8b 3e 37 ed 2f be
       0.38921008 0.32148463 0.27198046 -0.17180334
000090 08 b9 c5 be 4e 79 1b bf a1 61 f9 be 05 0e 5b be
       -0.3861773 -0.6073197 -0.48707297 -0.21392067
0000a0 30 98 10 be a0 98 49 be 0d 18 53 be 89 e5 7b be
       -0.14120555 -0.19687128 -0.20614643 -0.2459928
0000b0 fb f1 ad bd df 36 da 3d d2 1c af 3e 19 92 dd 3e
       -0.0849342 0.10654997 0.34201676 0.43275526
0000c0 cf 18 61 3e 06 fc f3 bd 8d 7d e9 bd 4c 0b f0 bd
       0.2198212 -0.11913304 -0.114009 -0.11720905
0000d0 72 b3 32 be 51 c4 b2 bd 67 ab 20 be ba 00 38 3e
       -0.17451265 -0.08728851 -0.15690385 0.17969027
0000e0 db ae b6 3e 32 bc 04 3f b2 4b d7 3e e3 e6 84 3e
       0.3568028 0.51849663 0.42049938 0.25957403
0000f0 e8 64 a7 3c 8c 4d 88 be 72 2a de be fc 1c 55 be
       0.020433858 -0.26621664 -0.43391758 -0.20811838
000100 0c a3 8f 3d 55 0a b5 bd 92 33 d2 bd f5 bf 20 be
       0.070135206 -0.08839861 -0.102637425 -0.15698226
000110 0b 56 41 be f8 d6 ca bd cc 41 e9 3b 55 21 d9 3d
       -0.18880479 -0.09904283 0.0071184393 0.10602061
000120 d1 13 25 3e 35 48 02 3e 77 a7 0e be dd 7c 32 be
       0.1612084 0.12722857 -0.1393107 -0.17430444
000130 e3 71 8d be 68 d4 14 be 19 29 e6 bd 5c a7 4c 3d
       -0.2762595 -0.14534152 -0.112383075 0.049964294
000140 a8 55 cc bd f9 65 71 bd 4b 4f 98 bd ff ce 82 3d
       -0.09977275 -0.05893514 -0.07436999 0.063871376
000150 19 c1 de 3d 1b d5 e5 3d ac d8 88 3d d0 08 62 3e
       0.10876674 0.11222287 0.06681952 0.22073674
000160 f4 79 a8 3d 6f a9 2b 3e 66 30 5c 3e 25 2c 0d 3e
       0.08226386 0.16763853 0.21502838 0.13786371
000170 10 fb 5a 3e f1 f5 8e 3e 1e 5c 28 3e 24 22 72 3e
       0.21384835 0.27922013 0.1644139 0.23645836
000180 7e e5 ad 3d 3b 2e 3d 3e b2 dc 26 bc f0 58 99 3d
       0.08491038 0.18474667 -0.010184454 0.074876666
000190 02 8f 35 be 81 db e6 bd 80 24 57 be f5 46 5e bd
       -0.17730334 -0.11272336 -0.21010017 -0.05426689
0001a0 41 96 bc bc 0c 16 67 be 7b f8 a8 bd 9f 68 b9 bb
       -0.023020865 -0.22567004 -0.08250519 -0.0056582238
0001b0 d1 45 77 3d 9f f3 6f bd 33 e1 df bd dc ff 6b 3c
       0.060369316 -0.058581945 -0.10931625 0.014404263
0001c0 85 00 bd 3d 77 21 b5 3d 77 4b ab bd 8b 3b 9d bd
       0.09228615 0.088442735 -0.08364003 -0.076773725
0001d0 10 b8 4c 3d 18 d1 40 bc 19 04 83 bd 2b 44 3c bd
       0.049980223 -0.011768602 -0.06397266 -0.045963448
0001e0 00 95 8f 3d e8 5f c0 bc 38 7f fe 3b 84 72 08 bd
       0.07010841 -0.023483232 0.0077666305 -0.033312336
0001f0 9e cc 83 be 76 de 17 3e 3d b0 fa bc 7b 74 1b 3e
       -0.25742048 0.14830956 -0.030601615 0.15181153
000200 cb 12 93 3e 19 68 90 3e 85 ba 96 bd b5 c3 ad 3d
       0.28725275 0.2820442 -0.073597945 0.08484594
000210 e9 84 d3 3d cd b8 7b 3e a9 69 06 3d f6 58 58 3b
       0.10328085 0.24582215 0.03281561 0.003301201
000220 5b 75 38 3e 3e 74 c0 3d 5d 1c d6 3d ec 8d 4b be
       0.18013518 0.093971714 0.104546286 -0.19878358
000230 3e 08 6e 3d 1b 7f 72 3e d2 c1 82 3e f9 35 b9 bd
       0.05811333 0.236813 0.25538498 -0.090434976
000240 ec e5 48 be 6d 0b 88 bd fe e7 14 3e 5b ec fd bc
       -0.19618958 -0.06642804 0.14541623 -0.030996492
000250 2c 86 ab bd ef 9a 56 be 29 7d 13 3e 04 f3 6d be
       -0.08375201 -0.2095754 0.14403214 -0.23237234
000260 f3 4b 03 3d 55 fb 17 be 89 25 38 be a6 89 69 3e
       0.032054853 -0.1484197 -0.17983069 0.22806415
000270 ee 98 47 bf 98 6b 4f 3d 3f fe 84 3e ab 1d f9 bd
       -0.7796773 0.05063972 0.25975224 -0.12163862
000280 59 11 11 3e 8f 97 4c bf 50 b9 a8 3e c3 93 a2 3e
       0.14166774 -0.7991876 0.32953882 0.31753358
000290 15 2c e4 bd 99 a8 f5 be 7d c0 4b 3d 5b 14 07 3f
       -0.111412205 -0.47980192 0.049744118 0.52765435
0002a0 6d 4d da bd 16 63 31 3e 6a c2 c2 be bd 22 fd 3e
       -0.10659299 0.17322955 -0.3803895 0.49440566
0002b0 60 27 a8 3e 96 5b d1 be 7e 46 b1 3d c5 ff 29 3e
       0.3284254 -0.40890187 0.086560234 0.16601475
0002c0 fb 7b 43 be b2 65 5d 3e e3 7c e1 3c 08 4e 22 3d
       -0.19090264 0.21620825 0.027525371 0.039625198
0002d0 b3 d0 c7 3e f6 8a 1a bf 8f a9 8f 3e 8c 4a 9b 3e
       0.39026412 -0.6036829 0.2805905 0.30330312
0002e0 4a 77 96 bd 8a f2 52 3e 84 54 3f bf 5c 33 bb 3e
       -0.07346971 0.20600334 -0.74738336 0.36562622
0002f0 58 2e 01 3f de 98 14 be 95 83 b7 be 67 f4 e4 3c
       0.5046134 -0.14511439 -0.35842577 0.027948571
000300 1b a6 eb 3e f6 02 a0 bd ee d7 38 bc 6d e3 ab be
       0.46025166 -0.07813065 -0.01128195 -0.3357195
000310 15 39 c6 3e 93 eb b7 3e 0c e9 f7 be 39 a6 05 3e
       0.38715425 0.35921916 -0.48419988 0.1305169
000320 82 8b 42 3d f5 d5 20 be 98 b6 25 3d 1a a9 4b 3d
       0.047496326 -0.15706618 0.040457338 0.049721815
000330 d3 53 b6 bd 2a 91 61 3e 7c 50 1d bf 07 a4 11 3e
       -0.08902707 0.22028032 -0.61450934 0.14222728
000340 cf c7 9a 3e 38 47 ae bd ca eb 51 3e 54 cc 31 bf
       0.30230567 -0.08509678 0.20500103 -0.69452405
000350 28 67 e2 3e 5b 38 8c 3e ef 27 30 be 8c 0e da be
       0.44219327 0.27386746 -0.17202733 -0.42589223
000360 f3 f4 07 3e f6 3c 07 3f 66 a6 4a be 4c 69 fc 3d
       0.13277034 0.52827394 -0.19790038 0.12324771
000370 d3 3f e4 be 56 d8 74 3e d6 15 66 3e cf 29 0c bf
       -0.44579944 0.2391065 0.22469267 -0.54751295
000380 0b eb 2c bd fb b0 d2 bd 98 76 a1 3d d6 38 82 3d
       -0.042216342 -0.102876626 0.07883948 0.06358497
000390 c8 56 7b bd 9c b9 35 3c 55 ec 16 be fb 19 07 bd
       -0.061362058 0.011091616 -0.14738591 -0.03298376
0003a0 9b 79 f0 bd 00 78 2a bd 2b 31 d7 bd d9 38 4f be
       -0.117419444 -0.041618347 -0.10507425 -0.2023653
0003b0 91 b0 83 be ad ca 37 be cd a7 51 be 3f c2 00 be
       -0.25720647 -0.17948408 -0.20474167 -0.12574099
0003c0 5e b7 af be db 3f a0 be bc a9 a0 be 1c a2 04 be
       -0.34319586 -0.31298718 -0.31379497 -0.12952465
0003d0 16 b9 d7 bd ab 3a a4 be 8d ce a9 be 47 18 88 be
       -0.10533349 -0.3207601 -0.33165398 -0.26581022
0003e0 89 6f 5d bd 27 7e 03 be 31 c7 60 3d 88 d6 64 bd
       -0.054061446 -0.12841092 0.054877464 -0.055868655
0003f0 6a a4 c1 bd f9 81 7a 3d 86 1f 45 be 71 64 17 bd
       -0.094551876 0.061159108 -0.19250306 -0.036961023

conv1.bias f4 [6]
000000 b7 d6 b0 be ea 55 5f 3d 51 71 c7 bd 0b 96 e1 3e
       -0.34538814 0.054525293 -0.0973841 0.44059786
000010 ef 77 a8 be fd f4 0a bf
       -0.32904002 -0.5428007

conv2.weight f4 [16, 6, 5, 5]
000000 e0 8b 0d 3e 44 43 10 3e a4 a3 05 3e 77 d1 f4 bd
       0.1382289 0.1408816 0.13050705 -0.11954015
000010 7e 43 24 3d 22 2b 35 3e bf ae 6e bc 5d 75 fb bc
       0.040103428 0.17692235 -0.01456803 -0.030695612
000020 ae 9a 0d 3d 1d af 59 3d 68 c8 3b 3e 5e 10 04 3e
       0.034571342 0.053145517 0.18338168 0.12896869
000030 b8 98 e8 3d 68 5c 9e bd ca 77 97 3d 46 94 6f 3e
       0.11357254 -0.07732469 0.07395895 0.23396406
000040 8e 54 59 3d cc e3 e2 bd c3 75 df 3a 92 53 bd bd
       0.053059153 -0.11078605 0.0017048646 -0.092444554
000050 0b 60 ab 3d 1c 70 3c bd fe e9 47 3d 6f 32 13 3e
       0.08367928 -0.046005353 0.048807137 0.14374708
000060 a8 09 9d 3c d0 5e 71 be fc 05 64 be 82 78 19 be
       0.019169644 -0.23571324 -0.22267908 -0.14987376
000070 d3 d5 83 bd 36 56 14 be db ea bb bd 62 93 f3 3a
       -0.06437268 -0.14486012 -0.091756545 0.0018583352
000080 6d a6 d8 bd 97 ed 41 be 0e a1 05 be 53 ce b6 3d
       -0.10578618 -0.1893829 -0.13049719 0.08926072
000090 cf f3 a4 3d 71 b2 1a bd 7d ed 76 bd 53 ca 05 be
       0.08054315 -0.03776783 -0.06028508 -0.13065462
0000a0 a4 da f4 3d c8 ac fa 3a 67 5a 2b bd 27 2c 18 bd
       0.11955765 0.0019124979 -0.04183426 -0.037151482
0000b0 22 35 2e be 92 ff 62 3d 58 c1 69 3d d6 17 15 3d
       -0.17012456 0.055419512 0.057069153 0.036399685
0000c0 c5 04 11 3d a7 bf 2c 3c 2d 56 42 be a5 88 87 be
       0.03540494 0.01054374 -0.18978186 -0.2647144
0000d0 a2 b6 b0 bd 94 da 93 3d 8f ce 1c be 98 72 90 bd
       -0.086285844 0.07219425 -0.15313171 -0.07053107
0000e0 e7 a4 98 3d 01 d3 6e be 32 1d 33 bc 0f 8c 0e 3e
       0.074533276 -0.23322679 -0.010932254 0.13920616
0000f0 8a 64 14 be ea 2b fd bc 62 2f 41 3e aa d4 61 3e
       -0.14491478 -0.030904729 0.18865731 0.22053781
000100 3c f5 a3 bc 68 f9 49 be 42 93 87 3e 31 07 57 3e
       -0.020014398 -0.19724047 0.26479536 0.20998837
000110 75 9a 10 be fd 2f b6 3d 33 26 49 3d 93 4a 92 3e
       -0.1412142 0.08895872 0.049108695 0.2857252
000120 bb 34 19 be 1f 30 15 3e a3 b4 c7 3e 72 3f b2 bd
       -0.14961521 0.14569138 0.39005002 -0.087035075
000130 ac ed 35 bd f8 5e 48 bd b4 97 b7 3d 8d e1 20 3e
       -0.044416115 -0.048918694 0.08964482 0.15711041
000140 22 d4 0d be c7 e0 67 be 0a 0e 37 be 2c bd 66 3c
       -0.13850453 -0.2264434 -0.17876449 0.014083188
000150 74 19 a1 3d d4 7f 9f be 61 62 79 be df 3e 95 be
       0.07866183 -0.31152213 -0.24353935 -0.2914953
000160 1f 73 53 be 66 6d a3 bd 13 4f 3c be d6 71 97 be
       -0.20649384 -0.079798505 -0.1838954 -0.29579037
000170 bc af 2b be 42 36 e8 bd 86 a6 aa bd db 51 6a be
       -0.16766256 -0.11338474 -0.08332543 -0.22882788
000180 98 8c 9e be f3 05 0b be 8d 3f a1 3c c8 d0 51 3c
       -0.3096664 -0.13576488 0.019683624 0.012806125
000190 38 94 9e be a2 3f af be 77 0e f8 3d 92 e3 4c 3e
       -0.30972457 -0.34228235 0.12112134 0.20008686
0001a0 69 17 b5 bd 0a 53 8f be 91 09 92 be 88 eb 12 be
       -0.08842356 -0.2799304 -0.28522924 -0.1434766
0001b0 9e 45 5b 3e b6 2e f9 3d a3 ba 85 be 3b 25 1e be
       0.21413276 0.121671125 -0.26118955 -0.1544389
0001c0 f6 0d 8e be 10 50 16 3e 00 de ae 3d 82 4b 13 be
       -0.27745026 0.14678979 0.08538437 -0.14384273
0001d0 9e 57 82 be 6b 54 97 bd 2a 6b 3d be 06 f3 6a 3d
       -0.25457472 -0.07389148 -0.18497911 0.05736067
0001e0 82 ff 96 be c0 8c 8d be f9 4b 51 bd c5 c2 3d 3d
       -0.29491812 -0.27646446 -0.051097844 0.046328325
0001f0 71 85 d7 3d d8 32 2e be 2c bc 47 3c 55 14 18 bd
       0.10523499 -0.17011583 0.01219086 -0.037128765
000200 21 fd 04 3d a9 92 45 3e 81 9f 92 be 5d 50 f8 bd
       0.032467965 0.19294228 -0.28637317 -0.12124703
000210 56 78 bf bc 35 4c e5 3b df ae 9a bd 05 65 55 be
       -0.02337281 0.00699761 -0.07552885 -0.20839317
000220 b4 ae 99 bd 9a b3 08 be 37 51 fc bd e1 42 0f be
       -0.07504025 -0.13349763 -0.12320178 -0.13990356
000230 07 55 e6 3d a0 fd 84 bd 9a 5c 50 be 1b 8c 90 bd
       0.112466864 -0.06493688 -0.20347825 -0.07057973
000240 8f d8 7d 3e 01 86 05 bc 9e 43 08 be bf 44 b0 3c
       0.24789642 -0.008149625 -0.13307044 0.021517156
000250 23 7a ec 3d 0e aa 90 3e be 16 aa 3d 20 21 dd 3c
       0.11546733 0.2825474 0.08305119 0.026993334
000260 51 ac 35 3d d0 7b b6 bb ab 45 f5 3d f0 c9 1f bd
       0.044353787 -0.005568959 0.11976179 -0.039010942
000270 a4 3e d6 bd 7b af 37 be 0f ca 8b bd 59 47 11 bd
       -0.104611665 -0.17938034 -0.06825649 -0.035468433
000280 7c b9 f6 bc c2 c5 43 be ca 4c 0d be 20 d6 83 bc
       -0.030117743 -0.19118407 -0.13798824 -0.016093314
000290 e0 c9 5f 3d 85 1f 34 be c6 bb 92 be 4a f7 27 be
       0.054635882 -0.17590149 -0.28658885 -0.16402927
0002a0 d8 81 4e bd 57 4d d4 3c a6 90 e7 bd 2a 8b 0f be
       -0.050416797 0.025915785 -0.113068864 -0.1401793
0002b0 1e c4 23 be 5e 07 96 bd 88 1e fb 3d 48 7f ab 3e
       -0.15992782 -0.07325624 0.12261683 0.33495545
0002c0 b1 26 c4 3e 32 a3 8e 3e 93 28 11 3e e7 03 83 3e
       0.3831077 0.27858883 0.14175634 0.25588915
0002d0 79 9f e9 bc b5 a2 b6 3d da 59 22 3c 54 3a f9 3c
       -0.028518425 0.08917753 0.009909118 0.03042332
0002e0 7f 7a 5b bc d8 f8 c2 bd 70 1c fc 3b e9 f3 8a 3c
       -0.013395905 -0.095201194 0.0076938197 0.016962009
0002f0 f0 fa 06 be 57 86 bc 39 35 68 1d be 7d a7 2f bd
       -0.13181663 0.00035958245 -0.15371783 -0.04288434
000300 8c 1a 72 bd c1 de db bd df 72 04 be 11 c9 2e be
       -0.05910735 -0.10735846 -0.12934445 -0.17068888
000310 5b 5c 14 3d 9a 11 d5 bd fc e2 32 be 68 a2 ad bd
       0.03622089 -0.10403748 -0.174694 -0.08478242
000320 62 d1 89 3c d0 d4 43 3d 9e 80 66 bd 75 5c 21 be
       0.016823474 0.047810376 -0.056275003 -0.15757926
000330 3e c1 b9 bd cb 64 30 bd 19 47 67 3e 75 be 0e be
       -0.09070061 -0.043064874 0.22585715 -0.13939841
000340 9c e1 24 bd c8 67 19 3b 99 9e f5 3c bf 3a 9e 3e
       -0.04025422 0.0023407806 0.029982852 0.30904195
000350 6c d7 3e be 2d 7d 27 3e 42 d0 aa bd 67 bd 87 3d
       -0.18636864 0.16356345 -0.08340503 0.066279225
000360 e2 7c 68 3e 93 47 94 bd ef 49 82 3e 35 41 7d bd
       0.22703889 -0.07240214 0.25447032 -0.061829764
000370 a5 a1 f7 3d 34 93 23 3e c9 57 81 bd 62 9c 0d 3e
       0.12091378 0.15974122 -0.06315572 0.13829187
000380 10 59 ce bd 76 52 80 3d 17 66 37 3d 8d ea 2e 3e
       -0.10075581 0.06265728 0.044775095 0.17081662
000390 82 1d 60 3e 7b c2 be 3e 7e 77 15 bd 0e 31 8a 3c
       0.21886256 0.37257752 -0.03649091 0.016869094
0003a0 2a 60 ce bd b7 c7 b2 3d 49 a3 59 3d 83 79 0a bd
       -0.100769356 0.08729499 0.053134236 -0.03380729
0003b0 2b 19 55 3d 99 8d 06 be 90 ae 17 3e 9f d3 a7 3c
       0.052025955 -0.13139953 0.14812684 0.020486651
0003c0 8b cf ab bd 1c e8 dc 3d a8 89 48 be 43 01 30 bc
       -0.08389195 0.10786459 -0.19583762 -0.010742488
0003d0 6c 7d 3f bc d1 16 a0 bd 31 fe 40 bd 7e f7 23 be
       -0.011687618 -0.07816852 -0.047117416 -0.1601238
0003e0 c0 e9 10 bd 13 ae 89 be 9d 87 4b be a3 cb b2 bd
       -0.03537917 -0.2689062 -0.19875951 -0.08730247
0003f0 54 ca 7e bd 02 7d 93 bd 0a 9e 90 3c 40 6e c3 3d
       -0.062204674 -0.07201578 0.017653484 0.09542513

conv2.bias f4 [16]
000000 5e 6e 87 3f c7 b3 23 bf b2 28 00 3f de d7 6c be
       1.0580556 -0.63946193 0.50062096 -0.23129222
000010 5d 30 7e 3f 46 32 ca be 96 52 2b 3f 37 4d 6b 3f
       0.99292547 -0.3949148 0.6692289 0.91914696
000020 dd c8 64 bd 38 01 a9 be b6 16 4b be 78 7b 8e 3d
       -0.05585562 -0.33008742 -0.19832882 0.069571435
000030 f5 88 04 bf de d5 9b be 3a c8 25 bf 5c 54 13 3e
       -0.5177148 -0.30436605 -0.64758646 0.1438765

fc1.weight f4 [120, 400]
000000 f3 91 a3 3d d1 6f 81 3d 45 55 dc 3d 61 80 ee 3d
       0.07986822 0.063201554 0.10758451 0.1164558
000010 9e 16 dc 3d d8 30 59 3c 6a b7 af 3d bf d3 a8 3d
       0.107465014 0.013256274 0.08579905 0.08243512
000020 26 dd 5f 3c 3b 54 2b ba ca f7 ad 3d 78 78 9a 3d
       0.013663566 -0.00065356836 0.08494528 0.07542509
000030 82 00 bb 3d 72 67 5e bc 8d 93 54 bc dc a1 71 bc
       0.09130956 -0.013574468 -0.012974632 -0.014748063
000040 ba 87 84 bc b4 f8 cc bb 54 dd fa 3c bc 95 6a bc
       -0.016178 -0.0062552337 0.030623116 -0.014317926
000050 a6 22 09 bd 4d f3 87 bc 4b de 2a bc d7 5d 55 bd
       -0.03348031 -0.016595507 -0.010428975 -0.052091446
000060 48 a4 63 bc 8d a7 de 3d 97 12 d5 3d 85 15 6b 3d
       -0.013894148 0.108718015 0.10403936 0.05739357
000070 b1 39 25 3d 88 a2 8a 3d c4 9e 24 bd ca 4d bf 3c
       0.040338222 0.067692816 -0.040190473 0.023352522
000080 87 d1 8b bc 66 c9 31 3c fa 89 85 3d 0d 92 ea 3b
       -0.017067684 0.01085124 0.065204576 0.007158524
000090 d2 f8 41 3d a4 89 3a 3c b5 cf 3d 3d 97 2f 60 3d
       0.047356434 0.011385355 0.046340663 0.054732885
0000a0 e8 cc 79 3d ae a2 14 bb b5 ea db bc 32 a3 ed 3c
       0.06098643 -0.0022679972 -0.026845315 0.029008482
0000b0 20 b8 0c bd 98 6a 5e 3d 85 7f 21 bc a2 43 15 bd
       -0.034355283 0.054300874 -0.009857063 -0.036441453
0000c0 a7 f7 86 bd f6 5c 51 bd ce c7 35 bc f8 57 85 bc
       -0.06590205 -0.051114045 -0.011095 -0.016277298
0000d0 53 dc 5c bd 8b df d4 bd 29 1c 5d bd 70 04 c3 bb
       -0.053921055 -0.103942 -0.053981934 -0.0059514567
0000e0 3e c1 bc 3b d9 58 ca bd 93 3f 57 bd 05 21 63 bb
       0.005760341 -0.098802276 -0.052550863 -0.0034657132
0000f0 c2 4c 95 bd 03 73 17 bd 6a c9 26 bd b5 9e 62 bc
       -0.07290031 -0.036974918 -0.040719427 -0.013831784
000100 f4 d6 95 bc 1c 68 d0 bd 8a ff 50 bd 5c d8 b4 bc
       -0.018290974 -0.10176107 -0.05102495 -0.022075824
000110 f0 a7 c6 bd a3 ff f7 bd ad 01 26 bd fe 4e a5 bd
       -0.097 -0.12109306 -0.040528942 -0.08071707
000120 0a 41 be bc 18 ce 30 bd 44 5b 7e bd a0 08 98 bc
       -0.023224372 -0.043165296 -0.062098756 -0.0185588
000130 26 2d 16 bc dc c8 01 bd a6 ee cb 3b 59 b9 a5 3c
       -0.009166038 -0.031685695 0.0062235175 0.020229982
000140 2d ca c4 3b ab 34 87 bc 8f 54 43 3c 59 5f f2 3c
       0.0060055465 -0.016504606 0.011922016 0.02958648
000150 6c 04 1f 3d 3e 3b b5 3d e0 88 0e 3c 34 f5 6e bc
       0.038822576 0.0884919 0.008699626 -0.014584828
000160 6f 25 4d 3d 1c 97 1a 3b a1 8e f5 bb 4a c9 ac 3c
       0.050084528 0.0023588603 -0.0074938093 0.021092076
000170 d4 fd b1 bd 64 03 44 bd 1c 44 3f bd 49 45 aa 3c
       -0.08690992 -0.047854796 -0.046695814 0.02078499
000180 2e 8e d9 3b 5d 33 af bd e1 6f 30 bd c6 cc fa bc
       0.0066392636 -0.08554719 -0.043075446 -0.030615222
000190 96 f9 b9 3d 2d 9b a4 bc 7f 0b b0 3c f7 2d f0 3c
       0.09080808 -0.020093525 0.021489857 0.029318793
0001a0 51 0f 83 3c 21 8f e8 3c 4f f0 ba 3d 58 bf 8c 3d
       0.015998514 0.028388562 0.091278665 0.068724334
0001b0 b6 94 88 3d 26 e8 7b 3d bd 69 d4 3d 21 3b 82 3d
       0.06668989 0.06150069 0.103717305 0.06358934
0001c0 d3 ca 34 3d 33 e2 5e 3d 86 c7 cc 3c be f9 0f 3e
       0.04413874 0.05441494 0.024997484 0.14060113
0001d0 9e d6 d8 3d d7 44 b4 3c 50 46 79 ba 71 ac b7 3c
       0.1058781 0.022005482 -0.00095090736 0.022421094
0001e0 ab 4c c2 3d 7e c0 19 3d 95 6c da 3c ac c4 51 3c
       0.094872795 0.03753709 0.026663104 0.012803238
0001f0 aa 86 49 3d a7 94 93 3d 5b 82 97 3c 66 cb 13 bd
       0.04920069 0.072060876 0.018494776 -0.036082648
000200 fe 04 d5 bb ad 42 d1 bb 03 d3 14 3d ad 61 69 3d
       -0.0065008393 -0.006386122 0.03633405 0.056977917
000210 29 e9 6f 3d 76 8c fc bb 37 11 d3 3c d5 f7 05 3e
       0.05857197 -0.007707174 0.025765045 0.13082822
000220 55 92 8b 3d 4f 3d 5e 3c 59 3e 25 3b 45 4b 99 3d
       0.0681502 0.013564422 0.0025214164 0.0748506
000230 ce 98 16 ba d3 99 ec bc f7 10 02 bc 0a fc 4c 3d
       -0.00057448156 -0.028881943 -0.007938615 0.05004505
000240 59 dc 08 bd 59 c6 64 ba d6 ed c7 bc 7a 8f 7c bd
       -0.033413265 -0.0008727066 -0.024405401 -0.061660267
000250 33 c5 e4 ba d7 6f e2 bc 38 ec 90 39 8e be 80 b9
       -0.001745379 -0.02764122 0.00027641817 -0.00024556037
000260 7d 7b 6d bd 67 83 ad bd 9b eb 94 bd e2 90 4e bd
       -0.057979096 -0.08472329 -0.07271501 -0.05043114
000270 96 3a ea bb de 88 a6 bd 1e 19 bb bb 61 55 ad bc
       -0.0071480973 -0.08131574 -0.0057097813 -0.021158876
000280 fa 94 72 bc 2d e9 2d bd a0 3c 8e bd dd c9 52 bd
       -0.014806027 -0.042458702 -0.06945157 -0.051462043
000290 41 9b 21 bd 11 a3 6e 3c 54 17 42 bd 8c 88 72 bb
       -0.039454702 0.014565245 -0.04738553 -0.0037007658
0002a0 3c 26 56 bc 95 82 90 bd aa fd 49 3a 5b 32 2b 3c
       -0.013070639 -0.070561565 0.00077053404 0.010449017
0002b0 3c b9 22 bd ca e0 30 bd 11 80 00 bd d4 ed 75 bd
       -0.039727435 -0.043183126 -0.031372134 -0.060041264
0002c0 5e 32 8d bd 29 e2 84 3b c6 b4 8c bd 9b 59 8a bc
       -0.068943724 0.0040552807 -0.06870417 -0.01688843
0002d0 58 88 f2 bd 8c 31 dc bd 43 0f 2c bd fb 2d 86 bd
       -0.11842412 -0.10751638 -0.042006742 -0.06551739
0002e0 ca 32 60 bd 1d f7 34 bd 7f a3 36 bd 29 f1 a7 bd
       -0.054735936 -0.044180978 -0.044589516 -0.082002945
0002f0 47 4d 8e bc 1e e3 f8 bd 74 c1 fe bd 84 c1 4e bc
       -0.017370833 -0.12152694 -0.12439242 -0.01261938
000300 fb 2e ac bd f2 7d f8 bd 49 cb cb bd f7 02 8c bd
       -0.08407398 -0.12133397 -0.09950883 -0.06836503
000310 f1 40 43 bc 2b ed 29 3d 40 98 62 bd 90 57 de 3c
       -0.011917339 0.041485947 -0.05532098 0.027141362
000320 6d 4d 48 3d 29 a1 4f 3d e7 4d 1d bd b9 3b fa bc
       0.048901964 0.050690804 -0.03840437 -0.030546056
000330 d2 71 30 3d fb 93 6d bc 6f 73 11 3c 6f 6c c3 bd
       0.043077298 -0.014500613 0.008877619 -0.095421664
000340 7a 6d 8f 3d 9e 38 6d 3d 08 f6 9a 3c 7e 6a 40 bd
       0.07003303 0.057915322 0.018916145 -0.04697656
000350 d9 23 1a bc df b5 f9 3b d2 26 26 3d 0d 47 24 3d
       -0.009407961 0.0076205577 0.040564366 0.04010682
000360 46 df d9 bb 32 3d 5b bc 59 e6 ea 3d b0 71 15 bc
       -0.0066489307 -0.013381289 0.114697166 -0.0091213435
000370 7a 11 75 3c 1d 6f 17 bd 57 1b 81 bd bb d8 93 bc
       0.01495778 -0.0369712 -0.06304043 -0.018047681
000380 ba 43 1c 3b 7e 01 1f 3d 80 64 3b bb 7e 51 be 3b
       0.002384408 0.038819782 -0.0028593838 0.0058080545
000390 dd d5 8c 3d 3d a7 8c 3c c3 ff 51 bd 8d 73 c7 bc
       0.06876729 0.01716959 -0.051269304 -0.024347091
0003a0 00 f7 1a 3b c7 eb 87 3d 9a bb 2c bc c2 b1 1c bb
       0.0023645759 0.06636768 -0.010542775 -0.0023909663
0003b0 aa 1b a4 bc 6c 5e 39 3d a7 90 35 3d 80 97 15 bd
       -0.020032723 0.045256063 0.044327404 -0.036521435
0003c0 a4 de 8c 3c c0 66 14 3c e4 78 a7 3c bc d5 63 bd
       0.017196007 0.009057701 0.020443387 -0.055623755
0003d0 5a 56 cd 3c e9 2f 2a b7 89 72 9d 3d 11 0f 62 bd
       0.02506559 -1.0143945e-05 0.076878615 -0.05519015
0003e0 6b 78 43 3b 21 15 2a 3d 2d e1 31 3d f5 cb 86 3d
       0.0029826413 0.041524056 0.043427635 0.065818705
0003f0 90 b9 82 bd 4b ec 93 3b 32 40 6b bd 3b 7a 03 bb
       -0.063830495 0.0045142523 -0.05743427 -0.0020061869

fc1.bias f4 [120]
000000 e2 5d 1c 3d 39 bc a6 bd 7d cb e8 3d 7b e5 0c 3e
       0.03817547 -0.081413694 0.11366937 0.13759415
000010 b6 15 60 3d d6 35 cb 3d b8 93 6d ba 69 fd f7 3c
       0.054708205 0.09922378 -0.00090628443 0.030272203
000020 5b 9c 8c 3d ba 3f c7 bd de 30 fa 3d 30 85 9f bd
       0.0686576 -0.09728952 0.12216352 -0.077890754
000030 46 20 e8 3c 5b 20 dd bc 84 ea 63 3e 6b a6 a3 bd
       0.028335702 -0.026992967 0.2225743 -0.07990726
000040 ba 7e 3c 3d 55 74 24 3c 8c 0b 8e 3e 8f 9a 4f 3c
       0.046019293 0.010037501 0.27743185 0.012671127
000050 ee 8c ad bd 10 11 a4 bc 77 4c 8c bd 28 f3 27 3d
       -0.08474146 -0.020027667 -0.06850522 0.041003376
000060 bb ca 24 3d 79 c8 88 3d 55 d3 9f bc b3 a4 f9 3d
       0.0402324 0.06678862 -0.01950995 0.12189617
000070 cf 1e 87 3d 59 99 8b bd 7a 90 e5 3d 16 8e 47 bc
       0.06597673 -0.06816358 0.11209197 -0.012179872
000080 6d 20 08 3e e4 58 26 ba 91 3a 73 3c 12 17 33 bd
       0.1329362 -0.0006345643 0.014845506 -0.043723173
000090 a4 0b 4f 3d bd 8a 17 3e 29 bf a8 3d eb 93 2b 3d
       0.05054821 0.14799018 0.08239586 0.041889112
0000a0 12 a1 2f 3b c2 a8 6e bd d6 88 5d bd 2b 95 7e 3e
       0.0026798886 -0.05826641 -0.054085575 0.2486159
0000b0 f9 b4 59 bd 5e 3b 97 3e c1 69 22 3e 0c 8d e4 3c
       -0.053151105 0.2953748 0.15860654 0.027899288
0000c0 87 ba 17 3d 20 a0 a2 3d 0a 7e d9 bc 1f 8d 03 be
       0.03704312 0.07940698 -0.026549358 -0.12846802
0000d0 a1 f2 7c 3e b5 57 2f bd 40 da 13 bb cc b9 1d 3d
       0.2470193 -0.042808253 -0.0022560507 0.038507268
0000e0 05 3d ee 3c 80 59 1e 3e e5 f7 50 3c 51 1a b0 3b
       0.02908183 0.15463829 0.012754415 0.005374231
0000f0 ff f4 b6 bc 3e e4 2f bc 2e 28 08 bc 50 55 e0 bc
       -0.02233362 -0.0107355695 -0.008310361 -0.02738443
000100 2f 9d 32 bd 48 a3 aa 3b 71 9e 94 3d 3c 69 31 3d
       -0.043606933 0.005207453 0.07256783 0.04331325
000110 34 35 88 bd 68 1e 2c 3d 4c c4 25 be 24 89 ef 3c
       -0.06650773 0.042021185 -0.16188163 0.029240198
000120 e2 38 92 bd b9 1f 1a be bb 54 ab bc 68 7b 1d bd
       -0.07139756 -0.15051164 -0.020914426 -0.038447767
000130 d3 c2 2f 3c 7f 98 af 3d 2c 96 7d 3e 79 5e c1 3d
       0.010727602 0.08574008 0.24764317 0.09441847
000140 a1 2a ea bc f1 77 7b 3d 97 e3 a3 bd ad d0 08 3e
       -0.02858478 0.061393682 -0.08002394 0.13360853
000150 56 7b 06 bd e8 9a 11 3d 21 5c 15 3e 2a 07 d4 3d
       -0.032832466 0.03554812 0.14585926 0.10352929
000160 c8 cd 93 3e 9e 18 c4 3c e7 29 86 3e b2 0c 4d be
       0.28867936 0.02393752 0.26203844 -0.20024374
000170 c1 fa 18 be 65 bd ab bb 01 2b 5a 3d 9d 17 cd bd
       -0.14939405 -0.0052410834 0.053263668 -0.100142695
000180 2d 6b 62 39 45 b1 6c 3d 15 53 05 be bb a6 83 bd
       0.00021592966 0.057786245 -0.13019975 -0.06428286
000190 21 78 e9 3d d3 ac 80 bb 36 90 ff bd e9 dd 10 3d
       0.11399866 -0.0039268523 -0.12478678 0.03536788
0001a0 e8 f5 56 3e c4 60 66 3c 52 d3 55 bc c2 91 2c 3e
       0.20992243 0.014061157 -0.013050871 0.16852477
0001b0 be 55 06 3e 56 c5 a4 bc 1f 8a 64 bc 35 25 ec 3d
       0.13118646 -0.020113628 -0.013948946 0.11530534
0001c0 d3 8a 1d bd 6a 05 94 bd f4 63 30 3e 78 f1 73 ba
       -0.03846247 -0.07227595 0.17225629 -0.0009305696
0001d0 97 45 4c bd 9c 20 95 3e ce d6 8f be ae 40 53 3d
       -0.049871054 0.2912644 -0.2809357 0.051575355

fc2.weight f4 [84, 120]
000000 26 7e fa bd 06 f4 03 be 13 3c 27 bc 71 e9 0a bc
       -0.12231092 -0.12886056 -0.010207194 -0.008478508
000010 8c c1 9e bd 21 29 c9 bb 71 5c 3e bd b1 17 19 be
       -0.0775176 -0.006138936 -0.046474878 -0.14950444
000020 dc 0d c0 bd 64 8c aa bc 03 a7 67 3c 38 b3 86 3d
       -0.093776435 -0.020818897 0.01413894 0.06577152
000030 4a 28 bc bd 1e 6b 14 3d 1c 75 58 bd ab 54 ce bd
       -0.09187372 0.036234967 -0.05284606 -0.10074743
000040 3c 90 df 3b 78 04 75 3d f2 ae e2 3d 10 9b 0c 3d
       0.006822614 0.059818715 0.110685244 0.034327567
000050 12 51 40 bd 28 bf 5c bd bf 46 39 bc 48 91 6f bc
       -0.046952315 -0.05389324 -0.011308371 -0.01462204
000060 39 d2 01 bd f9 b1 95 3d 22 8b 43 3d 47 f4 b3 3b
       -0.031694625 0.07309336 0.04774011 0.0054917666
000070 da 5a a0 bd b2 74 de 3c c8 79 85 bd 8e 4d 83 bd
       -0.078298286 0.027155254 -0.065173686 -0.06411277
000080 76 cb 23 bd 27 fd 05 bd 24 78 0e 3d 44 31 48 bd
       -0.039988957 -0.032712128 0.034782544 -0.04887511
000090 d0 6a 32 3e 85 38 24 3e 53 9b 69 bc 8a 97 77 bd
       0.17423558 0.16037185 -0.014258224 -0.060447253
0000a0 74 b9 f9 bc 28 21 ac 3d ff 4f 07 3d 13 94 bd bd
       -0.030483939 0.084047616 0.033035275 -0.092567585
0000b0 c9 2c 39 3c 6f b8 fe bc c8 7d e6 bc f3 b6 95 3d
       0.0113021815 -0.031093804 -0.028136149 0.073102854
0000c0 3d f2 da 3d 84 fa 0f 3e ef 2e 47 bd 1c 3d 89 bd
       0.106907345 0.14060408 -0.048628744 -0.06701109
0000d0 4d 3a 8a bd b7 b4 61 3d e8 5e 82 bd 34 39 26 3e
       -0.06749401 0.055103984 -0.06365758 0.16232759
0000e0 6e 27 dd bb b1 9c e4 3d 5c 5f 95 3d 2a d5 33 3e
       -0.006749085 0.11162699 0.07293579 0.17561784
0000f0 22 1a 74 3d 59 02 42 3d 66 de ef bd e5 f2 51 bd
       0.059595235 0.04736552 -0.11712341 -0.051257033
000100 4a bc 7d bd 1d c2 ab 3d 47 c2 2a bd ba d4 d7 3d
       -0.061947145 0.083866335 -0.041689184 0.10538621
000110 d2 f2 7b bb 48 fb 8a bd 32 5d 0e bd f4 88 78 3d
       -0.0038444293 -0.06786209 -0.034756847 0.060677484
000120 77 d6 45 bd d7 68 89 3c d4 9f 16 bd 37 a8 90 3b
       -0.048300233 0.016773624 -0.036773518 0.004414584
000130 03 0a 70 bd 1d 92 b3 3c be ba 71 bd 12 9e 82 bc
       -0.058603298 0.021920258 -0.05901598 -0.015944514
000140 32 40 06 be 93 ad a8 3b 31 14 ca bd 1d 03 c4 bd
       -0.13110426 0.005147645 -0.098671325 -0.09570906
000150 d9 0b d7 bd 32 7f 40 3d 8f 0f b2 bc 43 cf c9 bc
       -0.10500307 0.046996303 -0.021735935 -0.024634963
000160 36 e9 8a bd 0b cd 8c 3b 0d fb b6 3c 5c 07 cb 3c
       -0.06782763 0.004296904 0.022336507 0.024783783
000170 c0 04 c8 bd 63 0b 4f bc e0 c9 9f bd 75 a5 2a bc
       -0.09766531 -0.012636992 -0.078021765 -0.010415425
000180 08 92 85 bc 56 1e eb 3d c7 c7 a8 bb 5a 76 b4 3d
       -0.016304985 0.114803955 -0.0051507684 0.08811636
000190 48 d9 85 3d 75 45 8f 3d 54 d7 82 3b 7d ab 3b bd
       0.06535584 0.0699567 0.0039929543 -0.04581784
0001a0 0f 53 45 3d 61 2c 59 bd e3 32 af bd ff 51 a3 bd
       0.048174914 -0.05302084 -0.08554628 -0.07974624
0001b0 b7 d3 0d bc 71 71 e4 bc b9 6e c1 bc 31 9c c3 3d
       -0.008656434 -0.027886124 -0.023612367 0.095512755
0001c0 1d 60 af bc fa f6 f6 3b 29 4c 60 bd d8 64 7c 3d
       -0.021408135 0.007536766 -0.054760132 0.06161961
0001d0 7f 12 d6 bc c6 41 02 be 7b d6 17 bc 0a 5d df bc
       -0.026131866 -0.12720403 -0.009267445 -0.027266044
0001e0 55 3c 23 3d 0f 0b 4d 3d d4 55 f6 bb 07 ea eb 3d
       0.03985246 0.050059374 -0.0075175557 0.115192465
0001f0 a0 80 02 3d 1d 97 c4 ba d8 c3 0c 3e a2 d7 d2 ba
       0.031860948 -0.0014998649 0.13746583 -0.0016085992
000200 f3 56 df 3d 11 9e cc 3c 9e bb bd bc 51 3d f2 bc
       0.10905256 0.024977716 -0.023160752 -0.029570254
000210 75 a3 9a bd 12 56 19 bb aa 28 c3 bd 6d 23 26 bd
       -0.07550708 -0.002339725 -0.095292404 -0.04056113
000220 1c 2c 0c bd aa 88 21 bc bf d3 ea bb 40 26 e4 bb
       -0.034221753 -0.009859243 -0.0071663554 -0.0069625676
000230 96 a7 a6 bd 4f eb dc 3d 86 c1 b1 3d 0a 28 4e 3d
       -0.08137433 0.10787069 0.0867949 0.050331153
000240 ee bb fa 3d af dc 03 be a1 26 6f bd ca ff 1b bd
       0.12242876 -0.12877153 -0.05838645 -0.038085736
000250 b8 10 2d bc 73 84 de bc a6 97 8e bd 0c 07 34 bc
       -0.010563068 -0.027162766 -0.069625184 -0.010988008
000260 cf c1 a4 bd c9 59 4b bd 10 eb 3e bd 6b 85 5f bd
       -0.080447786 -0.049646173 -0.04661089 -0.054570597
000270 b8 34 06 be b5 9d 55 3d a2 45 70 bc a6 12 be bd
       -0.13106048 0.052152354 -0.014665039 -0.09280901
000280 b4 64 c5 3d 2b 4a ab 3d 0a 8f 32 bb 76 5e 93 bd
       0.09638348 0.08363756 -0.0027245902 -0.07195751
000290 ff 61 87 bd 3a 95 49 3d 1a d2 67 bd af 5f 86 3d
       -0.06610488 0.04921458 -0.056596853 0.06561219
0002a0 c3 d1 b2 bd a1 f0 9a bd 27 70 cc 3c da 5c 13 bd
       -0.08731415 -0.075654276 0.024955822 -0.035977222
0002b0 a0 16 4d 38 64 dd 41 3b 8c f0 2c 3e c0 5d cc 3c
       4.889688e-05 0.0029581422 0.16888636 0.024947047
0002c0 8b c2 b0 3d 68 33 fb bd 18 ca a8 bc d1 72 2d 3d
       0.08630856 -0.12265664 -0.020604178 0.042345826
0002d0 f8 d6 85 bd 14 46 d3 bd 29 f2 a0 3d 41 51 d6 3d
       -0.06535143 -0.10316101 0.078586884 0.10464717
0002e0 e2 ef 49 3c 4d 98 0c 3d 68 10 1c 3d c8 af 0b 3d
       0.012325259 0.034324933 0.038101584 0.034103185
0002f0 3e 22 d3 bb 69 6d df bd 53 d0 11 bd b9 37 71 3d
       -0.006443291 -0.1090954 -0.035599064 0.058891032
000300 49 0f 8f bc 54 a1 f3 3b e6 a3 9e 3d a4 cd c7 bd
       -0.017463343 0.0074350033 0.07746105 -0.0975602
000310 7d 41 d7 3b 19 7c 8a 3d 5e e4 93 bd da 02 ed 3c
       0.006569086 0.06761951 -0.07221292 0.028932024
000320 45 48 12 3c 6d e9 0a be fc aa 73 bb 3f 5f d2 3d
       0.008928363 -0.13565607 -0.0037180772 0.10272073
000330 d0 56 c7 3c 17 97 e0 bd 88 bc 05 be c9 bc 7c bd
       0.024333388 -0.10966318 -0.130602 -0.061703477
000340 e3 fb 8d bd 9c 31 44 3d 2f e2 34 be 47 1b cc 3d
       -0.06932809 0.047898874 -0.17664407 0.0996614
000350 98 3d ce bd 4b 9b a3 3d 6d 11 3c bb 61 75 ab bc
       -0.10070342 0.07988604 -0.002869691 -0.020929994
000360 a7 6c fc bd 63 15 52 bd 1e 94 97 3c a7 90 12 3d
       -0.12325411 -0.051289927 0.018503245 0.035782482
000370 f6 54 a4 bd 8b 18 6e bd c9 bb f9 bc 5d f4 a6 bd
       -0.080240175 -0.058128875 -0.03048505 -0.08152077
000380 72 5b a0 bc 11 c2 c1 bc f0 8b f4 bc 63 c7 2e bd
       -0.019574855 -0.023652108 -0.029851884 -0.04267062
000390 10 3f 4f bd 12 89 2b 3d 98 73 74 bd 3c 2f fc bd
       -0.05059725 0.041878767 -0.05968055 -0.12313697
0003a0 28 ea 2f bd 6a 49 60 bd 20 32 2f bd 00 56 85 bc
       -0.04294792 -0.054757513 -0.042772412 -0.01627636
0003b0 8b 49 cd bd 8e f4 1b 3d cc 71 6e 3c 9a 99 ab bd
       -0.10023793 0.038075022 0.0145534985 -0.083789065
0003c0 85 d4 ba 3c 3c 61 a7 3d 97 df c6 3d 26 75 4b 3b
       0.022806415 0.08172843 0.09710615 0.0031045168
0003d0 51 04 c9 bd 8d 9e bf bd 7a 54 3c 3d 2d cb f9 bd
       -0.098152764 -0.09356413 0.045979 -0.12196956
0003e0 8a c3 fe bc 5b c0 ae bd ca 42 34 bd 49 0b 07 be
       -0.0310991 -0.08532783 -0.044009008 -0.13187899
0003f0 a7 0c e5 3c f6 70 c7 bd fc de e6 bb dd d4 97 bd
       0.027960135 -0.097383425 -0.007045625 -0.07413647

fc2.bias f4 [84]
000000 0d 34 34 3d 82 9f 0b 3d 1d d9 0f 3e b2 bb 5a 3b
       0.043994952 0.034087665 0.14047666 0.0033376035
000010 af 7e 40 3b 5f db a5 3d db 06 a7 3e 8b 80 a4 bd
       0.0029372384 0.08098482 0.32622418 -0.0803233
000020 1e a4 10 3d 92 e8 88 3d 9e fe 6e 3e eb f5 12 3e
       0.035312764 0.06684984 0.23339316 0.14351623
000030 84 0d 73 3e 69 37 9b 3e 36 57 79 3d bb 8b b9 3e
       0.23735625 0.30315712 0.060874186 0.36239418
000040 d7 7c 7b 3e 9e 5e a9 3a ec be 6e 3d 4a 0e 32 3e
       0.24559341 0.0012921875 0.058287546 0.17388263
000050 32 7c 2d bd 30 2d c6 3e 11 f8 3a be 83 c5 92 3e
       -0.04235477 0.3870635 -0.18258692 0.28666314
000060 49 15 a9 3e 4a b9 0d 3e 9e df cb bd a4 8a 0d 3c
       0.33024052 0.13840213 -0.09954761 0.0086390115
000070 b3 59 bc 3e 75 f2 80 3e 8d 04 aa 3c a9 90 ae 3c
       0.36787185 0.2518498 0.020754123 0.021309214
000080 6d 22 cc 3c 13 e2 e1 3e e1 68 6d bd d1 ef 3a bd
       0.02491876 0.44117793 -0.05796135 -0.045638863
000090 c9 99 80 3e bb 7b 41 3e 06 87 c9 bd 87 8e a0 bd
       0.2511733 0.18894856 -0.09840207 -0.07839685
0000a0 6c b5 a6 3c 74 0c 48 3d ef 42 5a 3e ef 23 4d 3b
       0.02035018 0.04884 0.21314596 0.0031301936
0000b0 f0 95 90 bd b2 cb 1c be ab bc e2 3e 51 75 3e bc
       -0.07059848 -0.15312079 0.44284567 -0.01162465
0000c0 d6 82 5a bd 81 90 fe 3d 8d 1f 46 3b 19 c6 43 bc
       -0.05334743 0.12429906 0.0030231208 -0.011949086
0000d0 e9 b2 93 3e b5 73 96 bd c3 31 54 bd 4b 62 93 3d
       0.28847435 -0.07346288 -0.05180527 0.07196482
0000e0 6e 66 85 bd 06 09 7f 3e 81 97 02 3d f0 86 fb 3e
       -0.065136775 0.24905786 0.031882767 0.49126387
0000f0 c3 da 3c be 8b 95 29 be f5 af f7 3d e5 62 8f bd
       -0.18442826 -0.16560952 0.12094108 -0.070012845
000100 1b de c5 3d ce 67 1c 3e 9a a7 29 3f 48 3f b8 3d
       0.09661504 0.15273973 0.66271365 0.08996445
000110 46 f8 08 3c 39 f2 da bc e5 fc fe 3e 66 1c d0 3e
       0.008359974 -0.026726829 0.49802318 0.40646666
000120 e4 3f 1e bd dc d3 52 3c a7 05 ef 3d c3 40 80 bb
       -0.03863515 0.012867894 0.11671 -0.00391397
000130 82 40 11 3b 79 be 43 be ab a3 21 3e 6f 2e 91 3e
       0.0022163694 -0.19115628 0.1578509 0.2835574
000140 24 06 34 be 29 b5 26 be f8 94 f5 3b a9 39 29 bb
       -0.17580467 -0.16280045 0.007494565 -0.0025821722

fc3.weight f4 [10, 84]
000000 0c f7 fd 3d 8e 77 93 bd 20 9d 02 3e 29 9f 26 3e
       0.12400636 -0.072005376 0.12755251 0.16271652
000010 9f c4 d7 3d 6d a6 0f 3e 4f 8f 20 3e 4f 92 26 be
       0.10535549 0.1402833 0.15679668 -0.1626675
000020 e8 82 a5 bc 13 f7 4a 3e f6 84 00 3e 81 55 40 3e
       -0.020204023 0.19820814 0.1255072 0.18782617
000030 28 43 07 be d1 7e 90 3e 8a 9a 19 bd e7 bc 94 3d
       -0.13209212 0.28221753 -0.037500896 0.07262593
000040 f4 ce cf bd cc 5b 33 3e 65 98 4a 3c 96 4f 59 be
       -0.10146895 0.17515486 0.012365435 -0.21221766
000050 61 d9 bf bd 52 fc 1c 3e 62 ec d2 3c 61 fd 58 3e
       -0.093676336 0.15330628 0.025747482 0.21190406
000060 be ed c6 be 80 ac 54 3e 25 38 35 3e d2 62 9a bd
       -0.38853258 0.20768929 0.17697199 -0.0753838
000070 b4 55 0e be 79 4f 80 be d4 cc 76 bd 5a f8 3b 3d
       -0.1389988 -0.25060633 -0.060253933 0.045891143
000080 16 32 0a 3e 7c d0 5e 3d 43 93 67 3d 9d 1e b3 3d
       0.13495669 0.054398045 0.056536924 0.087460734
000090 8b c2 23 be 50 d3 85 3e 1d a4 cf 3d 56 47 14 bd
       -0.15992181 0.2613778 0.10138724 -0.036200844
0000a0 b8 96 35 bd a9 ff d4 3d 81 c0 65 be 46 66 fc bc
       -0.04433319 0.10400326 -0.22436716 -0.030810487
0000b0 2f 14 17 3e 5a 21 af bc 3c 84 6b be 2a 3b fd bc
       0.14753793 -0.021378208 -0.22999662 -0.030912
0000c0 48 f3 68 3d fe 88 03 be 04 55 74 3e 1a 85 c9 bd
       0.056872636 -0.12845227 0.23860556 -0.0983984
0000d0 e4 f1 b2 3b bc db 07 bd f8 8f 9f bd 95 26 8c bd
       0.0054609645 -0.03316854 -0.07791132 -0.068432964
0000e0 a1 15 96 3d 0b a8 31 3e d5 88 49 3e 3a 98 b5 be
       0.07328344 0.1734926 0.19681104 -0.35467702
0000f0 d1 5c 73 3e 67 b8 68 3e 76 99 11 3d aa db d0 bd
       0.23765875 0.22726594 0.035546742 -0.101981476
000100 93 76 28 bd c4 89 b0 3d d2 3b 8d be a1 ec 23 3e
       -0.041128706 0.08620027 -0.27584702 0.16008236
000110 b4 8c 56 3d 1e cd 01 3d 44 d8 a8 be 89 2d a1 bd
       0.05238028 0.031689756 -0.32977498 -0.07870013
000120 ba 3c 75 3d f9 9d 6b be d0 c4 b8 3c 00 b4 04 bd
       0.059872366 -0.2300948 0.022554785 -0.032398224
000130 d7 19 ef 3d ef 56 e9 3d 92 93 75 3e 9a b5 7e 3e
       0.116748504 0.113935344 0.23982075 0.24873963
000140 7b 06 8e 3d 0f 28 14 3d 37 fa 36 be 69 7a 76 bd
       0.0693483 0.036171015 -0.17868887 -0.060175333
000150 03 66 bd bd 2e 1b 9e 3c 24 0c 11 be 05 c2 a8 3e
       -0.09247973 0.01930007 -0.14164788 0.32960525
000160 50 96 5f 3c 9e 55 df 3d ef 03 80 be 54 45 b5 3d
       0.013646677 0.10905002 -0.25003 0.08851114
000170 cb 06 f5 bd f6 6c de bd 85 b6 d1 bd 2b de 7b 3e
       -0.11964186 -0.108606264 -0.10239891 0.24596469
000180 67 0b ad bd 95 44 3f be 46 6b 48 bd 99 f8 36 bd
       -0.084494404 -0.18678506 -0.04893043 -0.044670675
000190 93 a0 2f be 98 13 62 3e 11 86 6e be c0 90 d8 bd
       -0.17151098 0.22077787 -0.2329333 -0.10574484
0001a0 b2 08 b1 3d 1f 9f 6c 3d 71 9c 6a 3e b5 b2 93 bd
       0.086442366 0.057768937 0.2291124 -0.0721182
0001b0 ab e7 de 3d 18 16 ac 3d b4 83 9e bd a9 88 cb 3e
       0.10884031 0.084026515 -0.07739964 0.397527
0001c0 5d b0 21 bd 0e 69 81 bc 34 a8 3c be 68 c8 49 3d
       -0.039474834 -0.015797164 -0.1842354 0.049263388
0001d0 72 ee 12 3e bb 46 91 be e1 e9 96 3d 6a 85 e7 3d
       0.14348772 -0.28374276 0.073688276 0.113047436
0001e0 44 c4 ff bd 88 47 2f bd d4 ab 9c bd 7e d6 15 bd
       -0.124886066 -0.042792827 -0.07649961 -0.03658151
0001f0 16 01 a3 3d 09 25 96 3d 5e 10 8a 3d be de c0 bd
       0.079591915 0.07331283 0.06741403 -0.09417485
000200 e6 8d 14 ba d3 3b 83 3e a7 70 f1 bd 0b 60 46 3d
       -0.00056668965 0.2563158 -0.11789065 0.048431437
000210 09 10 a2 3d 7e 8e e9 bd 7b d7 ed 3d ac 38 64 bd
       0.07913215 -0.11404131 0.11613365 -0.05571811
000220 1a b6 5a bc 09 d5 21 bd 75 d4 2e 3e 6e 90 cb 3d
       -0.01334908 -0.039509807 0.17073233 0.09939657
000230 90 5e 2e 3c cd d1 59 3e 4c a0 93 be 5b b4 52 be
       0.010642663 0.21271439 -0.28833234 -0.20576613
000240 4e d0 1b 3e d8 45 10 3e 76 69 2e 3e fa ed 06 3e
       0.1521618 0.14089143 0.17032418 0.13176718
000250 82 ba dd bd db cc f7 bd 45 f9 5c be 84 11 c9 be
       -0.10826589 -0.1209962 -0.21579464 -0.39271176
000260 46 3a f8 bc f3 55 4c 3d d2 31 89 be 19 c8 99 be
       -0.030301224 0.049886655 -0.26795822 -0.30035475
000270 50 59 ab 3b ea f2 04 3e bf b8 b8 3d ad fa 8f 3e
       0.0052291527 0.1298329 0.090196125 0.28120938
000280 bf 70 ee 3d f5 5f 4b 3e 67 db 9c be 98 1e 2d 3e
       0.11642598 0.19860823 -0.3063614 0.16906202
000290 a7 a3 82 3d d3 d2 1e 3e 9b 39 7a 3e 5e 47 46 3e
       0.063788705 0.1551011 0.24436037 0.19363162
0002a0 a8 32 a1 3d 10 d6 d7 bd d2 0d 4c bb 6f 1e 42 be
       0.0787099 -0.10538876 -0.0031136167 -0.18956922
0002b0 46 18 2e 3d 0a ce 5d be 41 5c bf 3d 64 12 25 3e
       0.042503618 -0.21660629 0.09343768 0.16120297
0002c0 7c 75 1a 3e 42 f0 6a 3e a1 ef 71 3e d5 cc 45 be
       0.15083879 0.22943214 0.23626567 -0.19316418
0002d0 7b f4 01 be 47 30 c3 3d 82 5e ee 3d c6 4a 75 3e
       -0.12690918 0.095306925 0.1163912 0.23954305
0002e0 e5 03 fb bd a5 ea 5e bd b1 7e b9 3d 6d 99 82 bd
       -0.12256602 -0.054422993 0.090573676 -0.0637692
0002f0 da 90 30 3e 2c 58 7a bc 4d a7 52 3e 3b 0a d1 3c
       0.17242756 -0.015279811 0.20571633 0.025517574
000300 05 67 9b bd 97 75 e2 bd ee 56 1e 3e f6 6b bc 3d
       -0.07588009 -0.11057585 0.15462849 0.092002794
000310 51 fe 17 3e 68 ca d4 3d 9c 41 45 3c 12 6e 48 bd
       0.14843108 0.103901684 0.012039568 -0.048933096
000320 4f d8 5b 3d a7 7c e7 bc 8a fc 8f 3d ce ed f6 3d
       0.053673085 -0.028257681 0.0703059 0.120570764
000330 e8 84 fa bd 8f b4 2a bc 3d dc 30 3d 28 a7 0f 3e
       -0.12232381 -0.010419025 0.043178786 0.14028609
000340 3b 48 bb bd 5d c9 b8 bd b5 2e 94 3d e0 cf c2 3d
       -0.09144636 -0.09022782 0.07235471 0.09512305
000350 3c 85 33 be a4 4a e2 bd 6d 48 a9 bd ad e9 0b 3d
       -0.17531294 -0.11049393 -0.08265767 0.034158397
000360 33 75 31 be f9 d7 65 3e 5f 58 23 3e 89 e8 8f bb
       -0.17329864 0.22445668 0.1595168 -0.004391734
000370 90 35 33 be ec 80 ba bd 78 a9 c4 bd e6 93 9b ba
       -0.17500901 -0.09106621 -0.09602636 -0.0011869639
000380 43 6c 96 bd 32 2a ce bb 99 e8 86 3d 81 ae 47 3e
       -0.07344868 -0.006291651 0.06587333 0.19500162
000390 58 4e 38 bd 18 3d 59 3e 43 57 6e bc ca 29 e1 3c
       -0.04499659 0.21214712 -0.014547172 0.027485747
0003a0 6c cc 3b 3e 3e ef 86 3e 74 c4 a7 3e 33 26 43 3e
       0.183397 0.26354402 0.3276707 0.1905754
0003b0 02 a5 3d bc e8 d9 08 be 45 3e 5d 3e bb 55 d5 bc
       -0.011574985 -0.13364375 0.21605785 -0.026041856
0003c0 47 34 9d bd f7 11 84 bd 90 9f 2a 3e 3e d1 1e be
       -0.07675987 -0.06448739 0.16662431 -0.15509507
0003d0 5d df 8f 3d bf 50 e1 bd 66 9d 04 3e a8 f0 65 3d
       0.07025025 -0.11001729 0.12950668 0.05613771
0003e0 99 52 4e 3e 77 d6 81 bd 15 5d e6 bd fa 07 c2 bb
       0.20148696 -0.06339734 -0.11248223 -0.005921361
0003f0 aa 11 68 3c 0e 7c 3d bd 8d 3d 03 be b5 f4 4e be
       0.014164368 -0.046260886 -0.12816449 -0.20210536

fc3.bias f4 [10]
000000 ce ce ab be ce bf 48 bf fc 17 c4 3c e3 ff 03 3f
       -0.33556217 -0.7841767 0.023937218 0.5156233
000010 16 67 56 3f 6e f8 96 bd e9 60 68 3e 35 05 49 be
       0.83751047 -0.07371603 0.22693218 -0.19630893
000020 10 7b a6 3e 5e 5c 6a be
       0.32515764 -0.22886798
