client_api_workspace/server/simulate_job/app_server/best_FL_global_model.pt (torch, 251694 bytes, 10 tensors)

conv1.weight f4 [6, 3, 5, 5]
00000000: 80dc 3bbe ff7c d8be 2102 cebe 9f3e 61be
00000010: 79ce 0abe f6c0 8abe fe76 bbbe 2b14 22be
00000020: ad05 09be 1ee3 44be 648f f33d 361f 863e
00000030: ead9 073f d297 a73e 2885 bb3e 5cc9 c23e
00000040: babf 053f 3846 3e3f a2a6 0f3f 5d05 b63e
00000050: 279b b83e 5faa 553e 9604 8f3e 743a 2c3e
00000060: 33cb 4e3e fd06 e33d 52a3 2e3e efb9 373d
00000070: b438 c03d 9b93 6a3e 24be 85be 0671 41be
00000080: 6146 0fbe c442 62bd 6717 89be 006a 8abe
00000090: 3bff e9bc 92af 633b 7cbd f2bd b034 debe
000000a0: 039d 0dbe 0766 be3d 6cab 89bd 0524 4cbe
000000b0: 2327 09bf b879 2ebe 5cba 86be 1d61 c4be
000000c0: fa11 c2be f6a5 c1be 014b 883e f005 b63d
000000d0: 3bcd 903e 1aba b23e 98bd 563e 6e3a 843d
000000e0: 4089 1d3c 1842 9b3b fc4a 793e 8274 d83d
000000f0: 50cb e7bd dc33 843e d4a9 853e 2304 183e
00000100: 7f41 0abe f892 8f3d b651 e13d e8ee b23c
00000110: 7267 20be 2a54 72be 5c4d 683e e631 733e
00000120: a047 753d 52a5 19be b052 2dbd 0040 e4b6
00000130: fcad 833e e284 ba3e 639c bd3e 565a 493d
00000140: a931 40be a648 553e b6b4 a63e c612 a93e
00000150: 2d4e b43d 71a8 3a3e 99ff ac3e 4d23 efbe
00000160: c11e 7e3e 3dea a03e 337e 823e 0c6c e03e
00000170: e7d1 85bf 4ca6 8d3c f513 173f de71 8c3e
00000180: 88cd 11bd 9e68 6bbf 7860 99be ac44 09bc
00000190: 0a1b b3be 1c99 39be ca2e 9dbe e8b6 9abe
000001a0: 6598 89be 8b5f 023d 46c1 d4bd 9158 d1be
000001b0: 861b 16be 828f 5bbe 58e9 bc3e 4885 9d3c
000001c0: 46d3 84bf acf1 fa3c e4c0 8f3b aa33 fd3e
000001d0: da07 803e af2a b7bf aa12 64be efe6 1b3f
000001e0: ae71 f43e bc98 813c e4aa 7abf 8c4e 80be
000001f0: ab34 843e e16a 35bd bb08 483d 3a6b 583d
00000200: d396 0e3e 8826 cd3c 8001 a03c b046 0ebe
00000210: c620 bfbd e2c8 5a3d b4c0 adbd a622 223e
00000220: 0de3 893e f4ae 39bf aa86 543e 88f4 68bd
00000230: 4a80 0b3f f2d7 d33e f4dd 94bf 9e34 843d
00000240: 89a6 a13e 028e 443f 44e1 273f 9e2d 12bf
00000250: b8e2 97bc 28d7 69bc 4a49 023d 52f8 163d
00000260: ca2d a9be fa86 87be 305e db3b 2d66 6cbd
00000270: 3450 b33e f617 8d3f 09f0 333f deeb 723e
00000280: 8f71 a1be eac5 d9be c1f2 fcbc 48ca 2e3c
00000290: 0d6c 86be 43e9 c73d 7dca 20bf 7320 75bf
000002a0: 7d6a 59bf 1b31 78be 7ac0 ff3d fa65 6a3e
000002b0: 2b57 303e daf7 8b3e 9f51 ea3d 9dc8 e23d
000002c0: 9610 4bbd cac2 34be 4cd6 b8be 7d4a 573e
000002d0: c6ff 533e a0b0 3a3f af86 b93f 37ab 4e3f
000002e0: 34a3 9d3e 0763 c0bd 4edb 92bd c735 d13e
000002f0: b5f9 dd3e 3cb2 1f3d 68a4 163d aab3 d7be
00000300: 9e2b 48bf 45ae 35bf cf2d 33be b22e 3fbe
00000310: 12ff f7bc 8086 9fba 5177 1cbe c9e3 4cbd
00000320: 980b c4bd 52ce 87be 9bd2 58bf 23b5 6cbf
00000330: 3a23 b8be d98b 353d 3695 b73e 28a0 413f
00000340: 8017 d23e c240 923d ceb8 c63d 4c8c f9bd
00000350: 8a27 be3d d95f 883e cf85 cb3d b19e 5e3e
00000360: d0d5 01be 92d0 1abf 5817 d9be 2098 983d
00000370: 6f4d 9e3d c071 6a3e 0f9a b13e ecdf b73e
00000380: 5daa b53e 36d5 2d3e cc05 4e3d b23d 83bd
00000390: a3d9 6a3d 5810 423d e2f5 c73d 894e b0be
000003a0: cc20 51be c016 973e 7a95 09be 3011 94bd
000003b0: e02b 1abf 4c92 8fbd 509a 1b3f b2c7 fc3c
000003c0: 8162 43be aa35 dcbe d982 c43d 9efd 9a3e
000003d0: 2c72 a7bc a259 12bd d6ea 29be 5bc0 103d
000003e0: d053 043d fb62 d03d 32b5 db3d 3e74 acbd
000003f0: 0009 4dbd 3669 0d3e 5135 b43d 5a06 cf3c
-0.18345833 -0.42282864 -0.40236 -0.21996544 -0.13555326 -0.27100343 -0.3661422 -0.15828006
-0.13381071 -0.19227263 0.11892584 0.26195687 0.53066885 0.32733017 0.36625028 0.3804425
0.52245677 0.74325895 0.56113636 0.35550967 0.36055872 0.20865773 0.27933186 0.16819173
0.20194702 0.11085317 0.1705449 0.044855054 0.09385815 0.2290787 -0.26121628 -0.18890771
-0.13991691 -0.055239454 -0.26775667 -0.27033997 -0.028564086 0.00347421 -0.118525475 -0.43399572
-0.13829426 0.09296804 -0.06722149 -0.19935615 -0.5357534 -0.1703862 -0.26314056 -0.38355342
-0.3790434 -0.3782193 0.26619723 0.08887851 0.28281578 0.3490761 0.20970762 0.06456457
0.0096152425 0.0047381036 0.2434501 0.10569097 -0.11318076 0.25820816 0.2610613 0.14845328
-0.13501547 0.07010454 0.11001913 0.021842435 -0.15664461 -0.23664919 0.2268576 0.23749503
0.05988276 -0.15004471 -0.042315185 -6.80238e-06 0.25718677 0.36429507 0.37033376 0.049158417
-0.18768944 0.20828494 0.32559747 0.33022135 0.08803973 0.18228318 0.33788756 -0.4670662
0.24816419 0.3142871 0.25486907 0.43832433 -1.0454682 0.01729121 0.59014827 0.27430624
-0.0355964 -0.9195651 -0.29956412 -0.008378189 -0.34981567 -0.18124813 -0.3069976 -0.3021767
-0.2687408 0.031829398 -0.103884265 -0.40887883 -0.14658937 -0.21441463 0.36896777 0.019228593
-1.0376976 0.030632816 0.004387008 0.4945348 0.2500599 -1.4309901 -0.22272745 0.6089925
0.4774298 0.0158199 -0.9791701 -0.25059927 0.25821432 -0.04429138 0.04883645 0.052836634
0.13924722 0.025042787 0.019531965 -0.13894153 -0.09332423 0.053414233 -0.08484021 0.1583353
0.26931038 -0.7253258 0.20754495 -0.05687383 0.5449263 0.4137569 -1.1630235 0.064553484
0.3157237 0.76779187 0.65578103 -0.57100856 -0.018540725 -0.014272489 0.031808175 0.03685791
-0.33042747 -0.26470166 0.0066945776 -0.05771463 0.35022128 1.1022937 0.7028814 0.23722789
-0.3153195 -0.4253381 -0.030877473 0.010668345 -0.2625431 0.09761288 -0.6280897 -0.9575264
-0.84928113 -0.24237482 0.12487884 0.22890463 0.17220752 0.27337533 0.11441349 0.1107342
-0.049576364 -0.17652431 -0.36100996 0.21024509 0.20703039 0.7292576 1.4494227 0.80730003
0.30788577 -0.09393888 -0.07170735 0.4086134 0.43354574 0.038988337 0.036777884 -0.4212926
-0.78191555 -0.7096904 -0.17497943 -0.18670157 -0.030272994 -0.0012170821 -0.1527989 -0.05002192
-0.09572524 -0.26524597 -0.8469636 -0.9246389 -0.35964376 0.044322822 0.35856026 0.75635004
0.41033554 0.07141258 0.097032174 -0.12184963 0.09284885 0.26635626 0.09937631 0.21740223
-0.12679219 -0.60474503 -0.42400622 0.074508905 0.07729613 0.22894955 0.3468785 0.35913026
0.3548154 0.16975865 0.050298497 -0.06408252 0.05733646 0.047378868 0.09763695 -0.34434918
-0.20422667 0.29509544 -0.13435927 -0.07229841 -0.602232 -0.07010326 0.6078234 0.03085694
-0.19080545 -0.43009692 0.0959527 0.3027162 -0.020440184 -0.03573001 -0.16593489 0.035339694
0.032306492 0.10175129 0.1072792 -0.08420609 -0.05005741 0.13809666 0.08799232 0.025271583

conv1.bias f4 [6]
00000000: cada 4b3e 9d88 bfbe 314f cfbe 3734 1dbe
00000010: 09b6 a0bd 243b 073f
0.1990768 -0.37408915 -0.40490106 -0.1535195 -0.078472205 0.52824616

conv2.weight f4 [16, 6, 5, 5]
00000000: 0756 593e 145c bbbb 3ead 96bd aad7 09bd
00000010: b084 55be 63df 713e 0243 333e efab d3bc
00000020: 3a47 45be 5ee5 49be bf48 b33e 03a6 c63e
00000030: 763c b83e 6ded 833d fba8 10be 2fc0 bb3d
00000040: b2fd e93d 0395 403e c106 9a3e 3bf8 aa3d
00000050: 6994 e33c ea83 e9bc 5664 24bc 5e02 b9bc
00000060: ec87 c0bd 3dcd 893d 1e46 bd3d faeb 123e
00000070: eced dbbd befd 30be 2ab4 d0bd efc8 33be
00000080: b780 b8bd f239 52be a3cd a8be 1819 3cbe
00000090: a5da febe 8620 e3be 773b 2dbd 497f ed3d
000000a0: 7836 34be f4da c7bd d297 6abe 4edb 57be
000000b0: 3056 c3bd c404 85bc 117d 123e 5744 5d3d
000000c0: baf5 c0bc e701 ffbd a4fd 633e 982b 85bd
000000d0: c9e2 12be 2563 f7bd 5bc3 223e 65c7 453e
000000e0: 2ee3 d53d b8f2 cc3d fa77 88bd 4605 a9bd
000000f0: 5868 893e 62db 053d f2c3 3cbe 2e8f a23c
00000100: 4175 133e 223a 6cbd ccfb e33c eed7 7d3e
00000110: 7fca 033e bc1e ccbc 33d4 ac3b 8c78 cfbd
00000120: 768a 94bd 783f 183c c826 053e 8e81 89be
00000130: 6226 88be cf48 44be 46ab 9cbe 7404 8ebe
00000140: 512a dcbd bf37 67be 82fd 7bbe f496 81be
00000150: 8661 85be 6970 193d e93a 893c 366d 89be
00000160: 64fb 9cbe d4dc 8dbe 176b 35bd ba71 c73c
00000170: 2086 683d 5c6d 1fbe 7780 82be 72ae 09be
00000180: 2843 92bd eb4c 423e 4092 8839 f26e fbbd
00000190: d45a 833e 91ff 113e 7e10 543d 8a5f 333d
000001a0: a912 833e 9007 9c3c def2 9a3e cb5d 893e
000001b0: 86e6 3a3e c849 6f3e 10f9 43be bd38 8c3d
000001c0: 4e2e 3a3e 3d7f 353e f49d 6b3e 4a42 f0bd
000001d0: b26d e6bd b03f b8bd 2530 7b3e 4531 c13e
000001e0: b3e0 733d 2919 cfbd c099 41be 7412 80be
000001f0: 44aa 9f3c 83fc 1fbe 48af ecbd e159 243d
00000200: 523e dfbd 0f34 143d 98a9 90bd 0028 07ba
00000210: 9b65 3abd ef0e 24bd 5174 663d 109c 45be
00000220: 0fe1 a83c 4d92 4ebd b04e abbd f284 993d
00000230: 0fe0 0fbe f09b 8d3d f833 0f3e 143a 573e
00000240: b4b2 be3d f6d5 ffbc ba30 bb3d 88fc 023e
00000250: a5d5 683e 5da7 443e b4fe e4bb de82 a83d
00000260: a8d9 73bc 60da 65bb 2379 b2bc 9eb2 063d
00000270: 1aae 0e3e a5a3 e83c a267 8dbd 111e 153e
00000280: ee12 633d ece0 573d 7d68 e8bd a68a 1abd
00000290: d84f 00bd 54d7 26bd 52f8 29bc 1e4e fabd
000002a0: 9885 aebd 706d b6bc 5e36 c6bc d30d 7b3d
000002b0: 0d52 2f3d 9eb1 8cbc d51d c8bd 80a5 51be
000002c0: acfa cd3d a912 db3e 0b4f a43e 461f 903e
000002d0: 46a7 06bf 0a70 9fbe bfbc fc3d 4922 c13e
000002e0: f75c 8d3e 7242 0fbf 5394 90be ec2a dbbc
000002f0: 101d 453e 4c30 8c3e ce53 dfbe 0e8c e6bd
00000300: 10d2 273b 60c8 61bb 8759 263e d8db 12bf
00000310: 98ce 54be 8d5c a1bc af25 0ebc 2b12 0d3e
00000320: eb4f 233e 3c87 86bb 9ca4 aabe 0581 96be
00000330: 3a16 35bd 2423 923d c4b0 a33c b96c 7fbe
00000340: 60b7 ccbe 7269 48be e711 933d 6c6c 01be
00000350: cede 13be 5780 b4be c1e7 5fbe 60c4 e53c
00000360: 6868 68bd 8400 27be a2a6 b3be 9966 84be
00000370: ab03 2d3e 6cfc e03d 6023 5ebd 1055 b0bd
00000380: 6bfd ccbd 1870 e7bd dcd6 3cbe 5fe1 0abe
00000390: 2cf1 ec3c 7ae1 fb3d f2af 4ebd 567c c7bd
000003a0: becb 44bd aa93 ddbc e4b3 69be 08c4 413b
000003b0: a057 503d 2850 96bc b0e8 64bd 421c 4dbe
000003c0: 63c1 8cbc ed08 ed3d 4e8f e3bd 052f b53b
000003d0: 629b a1bd 42b3 e83c b337 5fbd bc76 7dbc
000003e0: bea4 1c3e 8048 5e3b 1c5f e03d 7e36 db3e
000003f0: b6f8 043e a4ba fcbd 5ad5 1ebe 43ce 62bd
0.21224223 -0.0057177637 -0.07357262 -0.03365294 -0.20851398 0.23620372 0.1750603 -0.02583882
-0.19265452 -0.19716403 0.35016438 0.38798532 0.35983628 0.0644177 -0.14126961 0.091675155
0.11425342 0.18806843 0.30083278 0.083481275 0.027780728 -0.028505284 -0.010033688 -0.022584137
-0.09400925 0.06728599 0.092418894 0.1434783 -0.10738739 -0.17284295 -0.101906136 -0.17557119
-0.090089254 -0.20529917 -0.32969388 -0.18368948 -0.49776188 -0.4436075 -0.04229304 0.11596543
-0.17598903 -0.09758559 -0.22909477 -0.21079752 -0.09537923 -0.016237624 0.14305522 0.054020252
-0.023554672 -0.12451535 0.22264725 -0.065024555 -0.14344324 -0.12079457 0.15894835 0.19314344
0.10443722 0.100072324 -0.06663509 -0.08252959 0.2683742 0.032679923 -0.18434122 0.019843664
0.14400198 -0.057672627 0.027830027 0.24789402 0.12870215 -0.024916999 0.0052743196 -0.10130414
-0.07252972 0.009292476 0.13003075 -0.26856655 -0.26591784 -0.191684 -0.3059942 -0.27737772
-0.10750259 -0.22579859 -0.24608424 -0.2531048 -0.26050967 0.03746072 0.016751723 -0.26841134
-0.30660546 -0.2770754 -0.044291582 0.024346221 0.056768537 -0.15569061 -0.25488636 -0.13445452
-0.07141715 0.18974654 0.00026048906 -0.122770205 0.25655234 0.14257647 0.05177354 0.043792285
0.25600174 0.019046575 0.30263418 0.2682937 0.18252 0.23367989 -0.19137979 0.068467595
0.18181726 0.17724319 0.23009473 -0.11731394 -0.112513915 -0.089965224 0.24530084 0.37732902
0.05954046 -0.10112221 -0.18906307 -0.2501408 0.019490369 -0.1562367 -0.1155687 0.040124778
-0.109005585 0.03618246 -0.070635974 -0.0005155802 -0.045507055 -0.040053304 0.05626327 -0.19297814
0.020615129 -0.050432492 -0.08364618 0.074960604 -0.14050315 0.06914508 0.13984668 0.21018249
0.09311429 -0.031229954 0.09140153 0.12791646 0.22737749 0.19204469 -0.006988371 0.08228086
-0.014883436 -0.0035072789 -0.021786278 0.032885186 0.13933602 0.028398344 -0.06904532 0.1456225
0.055437975 0.052704737 -0.113480546 -0.03772988 -0.031326145 -0.040732697 -0.010374146 -0.12221931
-0.08521575 -0.02226898 -0.024195846 0.06129248 0.04280286 -0.017174538 -0.09771315 -0.2047329
0.100575775 0.42787674 0.32091555 0.2814886 -0.5259899 -0.31140167 0.12340688 0.3772147
0.2760999 -0.5596076 -0.28238162 -0.026753865 0.19249368 0.27380598 -0.43618625 -0.11257182
0.0025607385 -0.0034451708 0.1624509 -0.57366705 -0.20781934 -0.019697452 -0.008675977 0.13776462
0.15948455 -0.0041054767 -0.33328712 -0.2939531 -0.04421065 0.07135609 0.01998175 -0.24943818
-0.39983654 -0.19571474 0.07181149 -0.12639016 -0.14440462 -0.35254166 -0.21865751 0.02804774
-0.056740195 -0.1630879 -0.35088068 -0.25859526 0.1689593 0.10985646 -0.054232955 -0.086099744
-0.10009273 -0.11300677 -0.18441337 -0.13562535 0.028923593 0.122988656 -0.050460763 -0.09740512
-0.048045866 -0.02704795 -0.22822529 0.0029566307 0.050864816 -0.018348768 -0.05588597 -0.20030311
-0.017182058 0.11573968 -0.111113176 0.005529287 -0.07890965 0.02840579 -0.05449648 -0.015470203
0.15297219 0.0033917725 0.10955641 0.42815012 0.129855 -0.123402864 -0.15511075 -0.055372488

conv2.bias f4 [16]
00000000: f7a1 9abd c202 0a3f 0a34 b33f 181e 93bf
00000010: 1a84 0fbf 9441 0340 f498 e1bd 1136 2cbf
00000020: 983e a83e ca80 22bf baf3 1d3f c064 36bf
00000030: 3312 9dbf c19c 2f3e cb1d 46bc 367c 6fbf
-0.075504236 0.5391046 1.4000256 -1.1493559 -0.56060946 2.0508776 -0.110155016 -0.6727
0.32860255 -0.63477767 0.6170002 -0.7124748 -1.2271179 0.1714964 -0.012092064 -0.93548906

fc1.weight f4 [120, 400]
00000000: 980e c43c aa0b e0bd e245 8abd 06a5 babd
00000010: 26d1 1ebc 5494 84bd 6603 a9bd 8f1f 253d
00000020: 87d6 4cbd b708 a53c 50d6 8fbd 43b4 d4bd
00000030: 944d 4e3d b420 8f3d c45b 653d 5ccd fb3b
00000040: cf41 15bd 0815 e8bd 37f3 cabd 5771 4e3d
00000050: df4b 16be 7622 d2bd 1716 adbd 0050 e1bd
00000060: b1f0 c0bd 2b84 4a3d ed05 61bd 0ea8 39bc
00000070: 5473 b6bd a014 28bd 2379 253d 48a8 a23c
00000080: 5862 83bd b31f 083c 7756 aebd 4b2c 3d3d
00000090: 44af db3d 5683 293c ac92 dcbc df78 0abe
000000a0: 78cc b23d 2625 d83d 3cb0 693d bdff c13b
000000b0: 3c64 6b3c 32ca d33d 8ed6 203d e833 ab3c
000000c0: 98f0 143d 05f3 de3d 26c1 b23d dc5e 1cbd
000000d0: d09d 50bd 368e 803c 6e2c 963d 1a3d 2bbd
000000e0: 1f45 86bd b2aa 25bd 26c4 923d bcdf 5c3c
000000f0: f435 14bd 6ed4 2fbd e643 d73c c9fd 9cbc
00000100: 783e 8dbb 2244 69bc 0b35 09bd 0fec f5bc
00000110: 67d9 a8bd b60f d9bd 1612 cbbd bc09 57bd
00000120: c3e7 99bd 96a0 adbd fd48 c5bd 9ec2 253e
00000130: f42a 083e 66a6 fa3d 9277 b63d a7a9 3d3d
00000140: 3de2 153d e27a c83c fecc 17bd f39d 42bd
00000150: ac2b 033e de32 7a3d 164e c6bd 1e98 853c
00000160: fbfa 773d 5a25 c83d 0cac 8cbd eebe abbd
00000170: e063 00bd 16aa 913c cf6d 3bbd 10d4 c9bd
00000180: d3ef 0dbd 0c26 1c3d d936 84bd 4e54 e2bd
00000190: 1971 94bd 74f1 503c 6ac2 323d 8559 163d
000001a0: e559 973d 489a c2bd aea9 4e3d 7907 d33c
000001b0: 037b debc df48 d2bd f245 11bd 2aba 0b3d
000001c0: bfac 6bbd 1b72 2c3d d0a2 9bbd d31f fbbb
000001d0: fb95 a0bc 5c51 223c de6a 1f3d fa45 a0bd
000001e0: e09e 3ebd 405d 5f3b 1a43 ab3b 1766 de3c
000001f0: 1ef9 1dbd 1a62 8fbd c694 ffbd 80da bebc
00000200: 6e2f b6bd fea8 f9bd adbc 32bd 13e7 8a3c
00000210: 0d81 0fbe 956c 3cbd 9ae6 533c db50 f3bd
00000220: be46 febd f3aa 82bd a9aa 053d 8450 6f3d
00000230: 1e74 093d 3ad5 91bd 48b6 c23c 5076 b53c
00000240: 8a53 4e3e 10bb e53d 5c17 2f3e ec25 4e3d
00000250: 3fae 863d 8b41 8e3e a15c 0c3e 233b 1cbc
00000260: f986 973d d156 cf3d 9ee3 493d e372 0e3d
00000270: 83e3 5d3d d112 1f3d 20a6 d73b 4f94 3dbc
00000280: 7417 d23d cd0f 0a3e b9c1 64bc 3033 79bc
00000290: 3889 dd3d 5c63 553d ddcc a43d aeea 38bc
000002a0: faa4 eb3c e3d3 883c 181a 193b 60a8 febd
000002b0: 2c7d 94bd fcdd f7bd ef23 2abd 8884 f33d
000002c0: 6d3e 9a3c 83a6 07bc 9624 df3d 4ef9 113e
000002d0: 70a1 3ebd 063e 52bc 94d3 8d3c c084 f23b
000002e0: f7e0 8f3d 880a ebbd 0f69 003d 00c4 763d
000002f0: 011d 2a3d 82e5 95bd a6a8 10be d493 b33c
00000300: 0074 ecbc 5cc1 9a3c 11d2 76bc ebce 24be
00000310: 50b6 28be 28f3 09be 667d 4abd fb43 563d
00000320: f5d3 05bc a3b8 13bd 47d2 e03d 47ef e33d
00000330: 2289 de3d 96ba ffbd 9a2c af3c 0086 c8b8
00000340: 4aab 8a3d 2306 b33b 8a75 0fbe e07b 7c3c
00000350: a1eb cfbb 52e3 dc3d d2b9 4cbd a38b d0bd
00000360: 19da f23c 0c20 643d 46b9 503d 83b3 033d
00000370: 38e5 bcbc dc44 ef3d 03e7 ed3d 5415 e03c
00000380: 6388 a33d 5c09 7ebc b657 2e3d 1b9e 19bd
00000390: 4496 71bd b7c9 803c 46ab 86bc abdd 7cbc
000003a0: 47c8 55bd 6291 99bd f883 173b c952 4ebd
000003b0: 9616 88bd 0b41 92bd d190 133c 4ed2 63bd
000003c0: 1022 61bb ec32 30be 38a4 46bd 31b3 a6bd
000003d0: 32fa f33b 2669 833d 0019 1cbd 9375 9d3d
000003e0: 9242 463d 71df 3b3d fc5a a53e f8d9 6f3e
000003f0: 870b 113e a274 a93d 463f 0b3e 91a7 8f3d
0.02393274 -0.10939725 -0.0675161 -0.09113507 -0.00969342 -0.06473604 -0.08252601 0.0403133
-0.050009277 0.020145757 -0.07023299 -0.10385945 0.050366953 0.069886595 0.055995718 0.007684393
-0.036439713 -0.113321364 -0.09909671 0.050401058 -0.1467738 -0.10260479 -0.08451479 -0.11001587
-0.09420908 0.04944245 -0.054937292 -0.011331571 -0.08908716 -0.041035295 0.040398728 0.019855633
-0.06415242 0.008308339 -0.085125856 0.04618482 0.10726789 0.010346254 -0.026925407 -0.13522671
0.087304056 0.105539605 0.057052836 0.005920379 0.014367159 0.103413 0.039267115 0.020898774
0.03636226 0.10886196 0.087282464 -0.038176402 -0.05093175 0.015692811 0.07332693 -0.041806318
-0.065561526 -0.04044599 0.071663186 0.013481077 -0.036184266 -0.042927198 0.026277494 -0.019163983
-0.0043104254 -0.014237436 -0.03349785 -0.030019788 -0.08244591 -0.105987 -0.09915559 -0.052499518
-0.07514908 -0.08477895 -0.09633062 0.16187522 0.13297635 0.12238769 0.08909525 0.04630437
0.03659271 0.024472658 -0.03706073 -0.047513913 0.12809628 0.061083667 -0.096828625 0.016307887
0.060542088 0.09772749 -0.06868753 -0.08386026 -0.03134525 0.017781299 -0.04575902 -0.09854901
-0.034652542 0.03812222 -0.06455774 -0.11051236 -0.07248134 0.012752879 0.04364244 0.036706466
0.07390193 -0.09502083 0.050454788 0.0257604 -0.027158266 -0.10267805 -0.035467096 0.034113087
-0.05753779 0.042101007 -0.075994134 -0.007663706 -0.019602766 0.009907093 0.038920276 -0.07825847
-0.046538234 0.003408268 0.005226505 0.02714829 -0.038567655 -0.07001133 -0.12479548 -0.023297548
-0.08895765 -0.12190436 -0.043636966 0.016955888 -0.14014073 -0.04600199 0.012933398 -0.11880656
-0.12415837 -0.06380262 0.032633457 0.058426395 0.033558004 -0.07120748 0.02376856 0.022151142
0.20149055 0.1121732 0.17098755 0.050329134 0.065762036 0.2778438 0.1370721 -0.009535584
0.07398791 0.10123981 0.04928934 0.034777533 0.05417205 0.038836304 0.006581083 -0.011571004
0.102583796 0.1348259 -0.013962203 -0.015209958 0.10817188 0.05209671 0.08046887 -0.011286421
0.02876519 0.016702598 0.00233615 -0.12434459 -0.07250437 -0.12102887 -0.041538175 0.11890513
0.018828595 -0.008279446 0.1089565 0.14255258 -0.046540678 -0.01283217 0.017312802 0.007401079
0.070253305 -0.11476618 0.03135019 0.060245514 0.041531567 -0.07319166 -0.14126834 0.021921076
-0.028863907 0.018891029 -0.015064732 -0.16094558 -0.16475797 -0.13471663 -0.049435996 0.052310925
-0.00816821 -0.036064755 0.10977607 0.11129623 0.10866 -0.1248676 0.021383572 -9.5617026e-05
0.06770952 0.005463378 -0.14009681 0.0154103935 -0.006345228 0.107855454 -0.0499819 -0.101828836
0.029645013 0.055694625 0.05095794 0.032153618 -0.023058519 0.11683056 0.116163276 0.02735392
0.07984998 -0.015505161 0.042564116 -0.037504297 -0.058981195 0.015721185 -0.016439091 -0.015433709
-0.052192952 -0.07498433 0.002311943 -0.05037192 -0.06644933 -0.07141312 0.009006695 -0.055620484
-0.0034352578 -0.17206925 -0.048496455 -0.08139647 0.007445597 0.0641654 -0.03810978 0.07688441
0.04840333 0.045867387 0.32295978 0.23422992 0.14164554 0.08274199 0.13598356 0.07014383

fc1.bias f4 [120]
00000000: daeb 463d 5394 223e 0299 9dbc 0ae2 babd
00000010: 7924 b13e f071 17bd 804e 1c3e c222 65be
00000020: 67af bb3d 0875 793e cc9b 193b c171 a93d
00000030: b0a9 15be 2ad0 c2bd b71e 64be 4aa7 babd
00000040: 72c5 97bd 0845 223e 4ab1 97bd 262a b03d
00000050: e0d8 833e 326a a23d 0e3d 373d 8abe 453e
00000060: df12 c33e 61aa 733e 1e64 b73e aa11 e8bd
00000070: 9039 9d3d dce5 e4ba 8f0e 6a3c 16c3 d03d
00000080: 1046 473c 983b 9bbd 9a34 c73d 207f 35bb
00000090: 6546 4f3c 4b88 86be f956 943e cd7f 3ebe
000000a0: 62a3 323d efde 4fbd 3e20 d43e 7051 013a
000000b0: 968a 92bd d054 933d 8c52 f63d d2bb 25bd
000000c0: 8d71 16bd 24fe 093d 8073 44bd 56a5 9b3e
000000d0: 3cd7 963e 683a a13e 9f13 fe3d 1613 eb3b
000000e0: 8604 36bd f2c6 da3d 4bf4 8f3d d5f6 2d3e
000000f0: a2a0 10be 1cd0 523e c45a ec3d c4b5 a7bd
00000100: e07d e53d bd48 a53d c2b2 89bb 78fc 253e
00000110: b046 2fbe 79ed e6bd 6999 48be a997 563d
00000120: ce17 9f3e 7b9e 76bd 5992 86be cc17 bd3d
00000130: f79c 5a3d 640d 113e af50 c7bd dc8c ad3d
00000140: ac9e ed3d 2a6e ec3d ac2b 41be 81f7 aabd
00000150: 3732 9dbd 16d1 423e 0c85 28bd eb5a 933e
00000160: 4026 c3bd c6b3 98be 5fab 9fbe 4079 a13d
00000170: b71e b73c 8a18 2cbe 3627 fb3d 0000 54bd
00000180: 9efc 09bd 83f7 8d3e ad2c 35bd 1449 113d
00000190: feef d93d 2791 e03c 693b 9a3d 00cf 47bc
000001a0: 24c8 20be 7cad 32bd 4cb5 a8bb 8c1b c4be
000001b0: 93a4 053d fecd eebd 2e05 92bd a41d 31bc
000001c0: 80b4 8939 0487 d13c d278 623e 626b 993e
000001d0: bbb6 a83e 2c6a e5bd f66d b2bd 8298 acbc
0.04856477 0.15876894 -0.019237999 -0.09125145 0.3459814 -0.036973894 0.1526432 -0.2237654
0.09164315 0.2436105 0.002343881 0.0827365 -0.14615512 -0.095123604 -0.22277342 -0.09113939
-0.074107066 0.15846646 -0.07406862 0.08601789 0.257514 0.079304114 0.04473596 0.19310966
0.38100335 0.23795463 0.3581857 -0.11331494 0.07676995 -0.0017463523 0.014285698 0.1019346
0.0121627 -0.07579726 0.0972683 -0.002769418 0.012651061 -0.26275858 0.28972605 -0.1860344
0.043612845 -0.050749715 0.4143085 0.00049330946 -0.071553394 0.07193911 0.12027463 -0.040462323
-0.036729384 0.033689633 -0.047961712 0.3039958 0.29461086 0.31489873 0.12406086 0.007173906
-0.044437908 0.10682477 0.07029017 0.1698869 -0.14123777 0.205872 0.1154075 -0.08188966
0.112056494 0.08070514 -0.004202218 0.1620959 -0.17116809 -0.11275763 -0.19589771 0.05239073
0.3107285 -0.060209733 -0.2628353 0.092330545 0.05337235 0.14165264 -0.09732186 0.084741324
0.1160253 0.115444496 -0.18864316 -0.08347989 -0.07675593 0.19025072 -0.04114251 0.28780302
-0.0952878 -0.29824656 -0.31185433 0.07884455 0.022353513 -0.16806236 0.12263338 -0.051757812
-0.03368818 0.277279 -0.04423206 0.035470083 0.10641478 0.027412964 0.07530863 -0.012195349
-0.15701348 -0.04362248 -0.0051485654 -0.38302267 0.032627653 -0.11660384 -0.07129894 -0.0108102895
0.0002626516 0.025577076 0.22116402 0.2996474 0.32951912 -0.11201891 -0.0871238 -0.021068815

fc2.weight f4 [84, 120]
00000000: 007f efb9 0de2 913d 0ea8 0dbc 34ad a93d
00000010: a054 213d 78d8 b0bc ce92 36bc 9be0 b7bd
00000020: dbea 50be dacd 95bd 3cb0 0f3e 782f 35bd
00000030: 9ab1 e33d 2a15 873d 70a0 1d3e 23db 6fbd
00000040: f8be 61bc 80c1 0b3a 20c0 9cbc f600 bebd
00000050: 5810 e3bd 513e 8fbd cdb4 17be 36b4 1cbe
00000060: 8473 ec3d 05c0 8a3c f84e 05bc bb34 f3bd
00000070: 6c43 16be 4904 19bd d842 b73d eb81 24be
00000080: 5da0 f23d 0c7f d13c dc97 9d3d bc8f a73d
00000090: d4d2 6a3b b6aa 3dbd 9bf2 82bd 8d3f d13d
000000a0: deec 913a de95 323d b07e 4fbe 8259 54bd
000000b0: d937 72bd 547f 0b3d e416 90bd 4722 55be
000000c0: fa93 233d 56db 0fbd a15f 043d a067 223d
000000d0: e997 1a3e 8172 30be b2f0 f13d fc33 103e
000000e0: 3eb7 1d3e bfb2 1dbe bcf8 22bc 9890 8cbb
000000f0: fde9 edbd 5883 d1bd cdc5 f83d 78b3 81bc
00000100: 22cb 87bc 1d84 11be b04b 7ebd 3fd1 cfbd
00000110: eb2b 55be 8b66 9b3d f61e 813d 808d b53d
00000120: 0051 5fb9 5ef5 3f3d 7584 0abe 930f 0cbd
00000130: 50f9 1d3d f8a5 c1ba 1737 5fbd c621 743d
00000140: 5255 82bd fd28 8ebd 14ff eebc 28db e03d
00000150: 02eb b83d d65c 0b3d 3627 82bd 7f95 86be
00000160: a3dc 563e e0e1 13bc 2aad 023d 4e1f 5b3e
00000170: 6b5d 1abe 6c97 ee3d 29f1 03be 5d3c bb3d
00000180: 2279 8bbd 9a43 3fbc f4fb 4fbe 0bd2 74bd
00000190: ac17 723d 05a9 743d 3021 04bc 2b40 f8bd
000001a0: 34b2 46bd 5769 d93b 684c bebc fd37 f63d
000001b0: 9e14 703c 3df0 b53d baaa f5bd 759e 57bd
000001c0: 80c5 be3d 4645 27bd d71d 733d b78a cdbd
000001d0: b8ef e1bd 16b4 1c3e e08d 2aba 0061 cf3d
000001e0: 3540 eebc 3741 13be 2c45 36be 0b71 f4bd
000001f0: 927d 2ebe 16f7 cb3d 460f 5abd 7132 db3c
00000200: 0653 41bd 9a78 3fbe 3ae9 b93d 9cb1 d1bd
00000210: 3b13 dd3c 20b7 533d 96f3 a43d af9d 993d
00000220: a079 76bc 6a04 353e 179f 6abd 3eed 81be
00000230: 1360 dcbc d2d0 d3bb 4c12 16bb 8bb9 973d
00000240: 56f9 4ebd 5547 7cbd 6ce7 d73d e229 163d
00000250: 126d b1bd d2e4 16bd ce1e 61bd ffcb 8d3c
00000260: 1ad0 cd3d 1530 08be 953d 18be d4a1 0d3e
00000270: 86aa 07be ae2c 803b 629d dd3c d910 3e3e
00000280: 0cba ef3c 8846 303d c516 0ebd b4dc fe3c
00000290: 88f6 863d f416 f53c 49bb c4bd a29e 693d
000002a0: 6a89 fcbd 72d1 9bbd 5ea3 76bd ee29 953d
000002b0: cdae b8bd ee5f 1d3d 4aa1 6abd af0e 483e
000002c0: 051e e13d e080 99bc 9461 043d 9613 abbd
000002d0: 2cea 16bc 718d d83c c60f a3bd 0822 65bd
000002e0: 7f84 04bd 5c42 5ebd 2132 433e e937 1c3e
000002f0: 72ac 943c a070 b2bd 0018 1ebd 8554 a33d
00000300: a294 663d 9509 b53d 1a5a 5dbe 4a18 bbbd
00000310: be15 3dbe e13f 8e3d f042 f23c 9036 d23a
00000320: 1c5f 17bd a2f7 7e3d 3cf2 67be 1b63 1d3d
00000330: 0b48 00be 9c30 4b3d 22fe 40bd 5a3b 2d3d
00000340: ea5a f7bd 9e08 f0bd b0ad bbbb 6499 0d3e
00000350: a4bf c9bd 2031 fcba 56cc 143c c420 243e
00000360: a225 e13b 3aa3 deba 698f 00bd 74eb ab3c
00000370: ec59 c1bd 40c5 b2bd c240 b1bd f637 71bd
00000380: fd80 02be 27cc 153e 4112 cc3d 180c 4f3d
00000390: f199 c7bd f1d3 b0bd e8e2 efbc 1aab 2abc
000003a0: aaf2 443e 4df1 f4bd 24bc b8bd 55f1 fc3c
000003b0: e6ff 3cbe 9c29 193e 5098 eb3d 6e90 313d
000003c0: 7f82 89bc 5a58 b13d e6d1 42be 0000 aa36
000003d0: c23b 883d 601c 103e 1824 7c3e 1804 143e
000003e0: 0572 ca3d 85c2 d13d 652e 8ebd f5ec 123e
000003f0: d8f1 2ebe 1202 1abe 12a7 14be dff0 9ebc
-0.00045680255 0.07123194 -0.008646024 0.08284989 0.039387345 -0.021587595 -0.011143399 -0.08978387
-0.2040209 -0.07314654 0.14032072 -0.044234723 0.11117859 0.065958336 0.15393233 -0.058558594
-0.013778441 0.0005331263 -0.019134581 -0.09277527 -0.11087102 -0.06994308 -0.14815064 -0.1530312
0.1154547 0.016937265 -0.008136503 -0.11875292 -0.14674157 -0.037357602 0.08948296 -0.16065185
0.11846993 0.025573276 0.076949805 0.08181712 0.003583123 -0.04630538 -0.063939296 0.102171995
0.0011133214 0.043599956 -0.20263171 -0.051843174 -0.05913529 0.034056976 -0.07035616 -0.20813857
0.039936043 -0.035121284 0.03231776 0.039649606 0.15097012 -0.1723118 0.11813487 0.1408233
0.15401933 -0.15400217 -0.009946998 -0.004289698 -0.11616895 -0.1023013 0.121471025 -0.015832648
-0.016576353 -0.14210553 -0.0620839 -0.101473324 -0.20817535 0.07587918 0.063047335 0.088648796
-0.00021297112 0.04686486 -0.13527091 -0.03419454 0.03856784 -0.0014774194 -0.054495897 0.05960252
-0.0636393 -0.06941412 -0.029174365 0.10979301 0.09029199 0.034024082 -0.06355135 -0.2628593
0.20982604 -0.009026021 0.031903423 0.2139866 -0.15074699 0.11649975 -0.12884964 0.09142373
-0.068102136 -0.011673832 -0.20310956 -0.059770625 0.059104607 0.059731502 -0.008064553 -0.12121614
-0.04850979 0.006634872 -0.023229793 0.12022398 0.014653353 0.088837124 -0.11995454 -0.05264135
0.09315014 -0.04083755 0.05935463 -0.100362234 -0.11032051 0.15303072 -0.00065061264 0.10125923
-0.02908335 -0.14380346 -0.17799824 -0.11935624 -0.17040089 0.09959237 -0.053237222 0.02675745
-0.047198318 -0.1869835 0.090776876 -0.102389544 0.026986709 0.051688313 0.08054273 0.07500779
-0.015043646 0.17677465 -0.057280626 -0.25376314 -0.02690128 -0.0064641023 -0.002289909 0.074084364
-0.050530754 -0.061591465 0.10542187 0.036661036 -0.08663382 -0.036839314 -0.05496102 0.017309187
0.10049458 -0.13299592 -0.14867242 0.13831264 -0.13248643 0.0039115762 0.027052585 0.18561114
0.029263519 0.043036014 -0.034689683 0.031111099 0.06589991 0.029918171 -0.09606034 0.05703605
-0.12330897 -0.07608308 -0.060214393 0.07283388 -0.090177156 0.038421564 -0.057282723 0.19536851
0.10992054 -0.01873821 0.03231962 -0.08353345 -0.009211104 0.026434632 -0.07961993 -0.055940658
-0.03235292 -0.054262504 0.19062091 0.15255703 0.018148635 -0.08712888 -0.038597107 0.07975105
0.05629409 0.08839718 -0.21616402 -0.09135492 -0.18465325 0.06945778 0.029572934 0.0016037989
-0.036955938 0.06224788 -0.22650999 0.038424592 -0.12527482 0.049606904 -0.04711736 0.04229293
-0.12077887 -0.117203936 -0.0057274923 0.13828045 -0.09851006 -0.0019240715 0.009081921 0.16028124
0.0068709413 -0.0016985901 -0.031386767 0.020986296 -0.09440979 -0.08729029 -0.0865493 -0.05889126
-0.12744518 0.14628659 0.09964419 0.050548643 -0.09746159 -0.086341746 -0.029283002 -0.01041677
0.19233194 -0.11960087 -0.0902026 0.030876795 -0.18456993 0.14957279 0.11503661 0.04335063
-0.016785858 0.0865943 -0.19025382 5.066395e-06 0.06652023 0.14073324 0.24623144 0.14454687
0.09885029 0.1024218 -0.06942443 0.14348204 -0.17084444 -0.15039852 -0.14516857 -0.019401966

fc2.bias f4 [84]
00000000: 903a 823e c024 563b c1b2 fd3e a8fc 83bc
00000010: 66a0 933e 92a5 4fbd f8f7 733e 16fc 1fbe
00000020: 3e44 273f 7c99 37bd bee5 a3bd 148d 063d
00000030: f511 933e 696d 8a3e 84c0 d03e 2ea8 0d3e
00000040: 6e78 2d3f bc82 483f 2add abbd 6055 273f
00000050: 91f1 a33e e59b 82bd ff86 1ebc d5eb af3e
00000060: cbac 783e e00d 363e 8641 17be aaa4 033d
00000070: 4d1e c13e 9e66 aa3e d574 5b3e aec6 3e3e
00000080: 8acb 723d f469 c33c 9a8f 323d fe38 513e
00000090: 3a01 933e 7ad2 e63e 9c8e a3bd 5633 473d
000000a0: 6ccc e3bd fe57 92bd a229 1fbe 482f 123f
000000b0: 4217 52bc 655c b83d a7d3 163e 78b5 68bc
000000c0: 1289 a03d 84e3 debc e1ba d6bc b191 a33c
000000d0: e196 7e3e 2e86 2bbd 1e9b eabc 282b 403e
000000e0: 1e2d 7dbd b0a8 423e 60b0 8e3e 403c f83e
000000f0: 24dd da3e e66a aa3e 3232 3a3e 6634 803e
00000100: dbea d83d 0cd3 e33d da5d c9bc 3711 673e
00000110: 3b1e 07be 22df f73e 8664 36be 2864 023e
00000120: b28b 1ebd c6fc 023f a639 bc3e 6039 2d3d
00000130: 868d 683c c996 913d d88c 303e de8e 26be
00000140: 8009 cd3e 2c2e 2e3e 09f0 e13e de2d a93d
0.25435305 0.0032675713 0.4955044 -0.016111687 0.28833312 -0.05069501 0.23825061 -0.15623507
0.65338504 -0.04482411 -0.08002804 0.032849386 0.28724638 0.27036598 0.40771878 0.13833687
0.67761886 0.78324485 -0.08391793 0.65364647 0.32020238 -0.06377391 -0.00967574 0.34359613
0.24284665 0.1777873 -0.14771089 0.032139458 0.3771843 0.33281416 0.21431287 0.18630478
0.05927614 0.023854233 0.04359398 0.20431897 0.28711873 0.45082456 -0.07986185 0.048632942
-0.11122975 -0.071456894 -0.15543225 0.57103395 -0.012822928 0.09001998 0.14729176 -0.014203422
0.07838644 -0.027208097 -0.026212158 0.019966932 0.24862243 -0.04187601 -0.028638419 0.18766463
-0.061810605 0.19009662 0.27868938 0.48483467 0.42746842 0.33284682 0.1818321 0.25039977
0.1059167 0.11124238 -0.024580885 0.2256516 -0.13195126 0.48412424 -0.17811784 0.12733519
-0.038707443 0.5116695 0.36762732 0.042291045 0.014193898 0.07108838 0.17241228 -0.16265437
0.4004631 0.170098 0.44128445 0.082607016

fc3.weight f4 [10, 84]
00000000: f8d0 f13c 0712 43bd ae50 fa3d aa65 cd3d
00000010: b0c5 363e 01e7 a2bd b682 d3bd 2be7 633e
00000020: b6ec 16be dae4 173e ae15 a0bc 06af d33d
00000030: 28ee ec3d 801f 79be 8151 8b3e 069c 113e
00000040: c7c8 c1be 069a 97be 5f9a babd 1085 19be
00000050: 1031 03bd 6e4a 2c3e 9019 413e f663 363e
00000060: 2008 c83c 84a4 9ebd f44a 793d f20f 853e
00000070: d8a3 f7bd 8839 883b 0588 4dbe 582a 73be
00000080: 7b2f 24be 6519 893b 5ad4 9c3d bb2f 823d
00000090: 86c0 4ebd d3c7 e1bd 22a5 013e 919f 19be
000000a0: d7c9 1fbe 82e4 453e 7dde 813e 7484 a13d
000000b0: 4112 d5bd 60cf dd3d fbbf 99bc e660 dabd
000000c0: 63fa 113e 00db a83a 88ea a33e 88b8 0d3d
000000d0: 7410 b93d 20ab 0d3e 373d ccbd 9b7a f83d
000000e0: 54a0 8ebd d4b7 923d 2770 e03d f6f2 18bd
000000f0: 67d2 663e 3830 a33c 83ff 70be fe42 c2be
00000100: acb5 613d 5229 8bbe 7473 203e 36e7 283e
00000110: 49a7 053e 8850 c7bd c097 d73d dc1b 263e
00000120: 4045 243a 38fb bcbc c1f8 773e 5139 c23d
00000130: e574 34be ab40 0f3d 46f3 bcbd 5d60 283e
00000140: 0cd2 9d3e 3e74 9b3d 3680 953d 8d64 813d
00000150: d64d 35be d0bd 013e 50b4 bbbb f81c 89bc
00000160: 5ff7 05be b9fb 6abc 64b9 40be 254d 64be
00000170: 0738 adbe de9f b63d d45d bb3d 6384 b6bd
00000180: f3e7 273c f837 ae3c 6140 d73d afc5 0cbe
00000190: eef3 5abe d611 d9be c945 093d 9d53 76be
000001a0: 7b7b 5a3d 623b 063e d267 9e3d 28b4 e6be
000001b0: 46a3 963d 5702 cf3d 69b0 6fbd da3a 40bc
000001c0: 6e23 16be a8f8 7fbd 0f24 f33d 87eb 533e
000001d0: 108c b73d e327 263e d244 bd3d b63a 0cbe
000001e0: 0e3c 9cbd 5c5e c23c e527 6b3e f297 eabd
000001f0: d5d6 f83c 6263 9c3d 62f4 91bd 8cc4 3ebe
00000200: aa39 653e 7895 2abe 7168 c23e f8b0 90bd
00000210: eb62 fd3d 7cd1 533d 2e07 f7bc 8692 48bd
00000220: e624 99be 107b e1bd 7420 423d b797 04be
00000230: 5a53 843e 35f6 23bd eb34 3abe 249d 8ebc
00000240: 8475 263e 3013 cb3c 9e49 143e 8463 08be
00000250: c57c b93e 0e71 323e 79c2 6b3e d06b d83d
00000260: 80e9 7e3e d615 10bd 227c 223e 4503 57bc
00000270: b86e 033e 5fce 40be 8d2c 6f3e a9b4 9a3e
00000280: 2759 4ebd c5e1 1a3e 12be 153e a2be 313e
00000290: 3979 803e 5215 e2bd d039 50be 03b0 ecbd
000002a0: d8dd 783e ec9f 623e e743 edbd 69f6 d4bd
000002b0: b824 6abe 3b4c 74bd 2809 643e ac22 023e
000002c0: 9c5c a13c 14e4 e73c aca1 9a3c c27f ae3d
000002d0: 8695 05bd 7071 25be fc2b fcbd 977c 3f3e
000002e0: 8a9f 9c3d d790 543e d24b 8a3d cf2c 743e
000002f0: 8624 21be fe1f 8c3d d6de a33d a907 003e
00000300: 945c 983e ffb3 7cbd c888 443e ea24 353e
00000310: 4f21 643e 20a6 36be abe9 3b3e 4acb a0bd
00000320: b0f9 9d3a 6e02 0ebd 0d03 023e a0a5 9ebd
00000330: 9c85 32be 7cf5 473d fc5b 693c 86ef 4f3e
00000340: dd26 8d3d 64bd d5bb 0aea 3d3c 1ac9 453e
00000350: 9c05 a0bd 783f da3c 75ec a6bd 9863 383e
00000360: 1228 973b 2c7c 3e3e ef24 6b3e 568c e83d
00000370: 56b2 a23e 3c09 71bd 81ff 463e 3c8b 5d3e
00000380: e2c8 03bc 4067 503a aed3 353c 0132 d13d
00000390: 3b63 84be 0985 9abd e0d8 67bc 5de8 873e
000003a0: 1baf 3abe f83b d8bb 0692 34bc 69b8 3f3d
000003b0: e84c fdba dc00 433e c6a5 b4bd 0e2c 4a3e
000003c0: 2641 98bd 419e fe3c 0d5c 42be a7af d7bd
000003d0: c213 1f3e 868c 32be 4261 06bd fea9 3c3d
000003e0: a8cc 86bb a7de 263d a925 933d e81a 1dbe
000003f0: b73f 273e 0ac2 b13d 8414 c3bd c528 043d
0.02951859 -0.047624614 0.1222242 0.100291565 0.1784885 -0.07954217 -0.103276655 0.22256152
-0.14738736 0.14833394 -0.019541588 0.103361174 0.11568862 -0.24328423 0.2721062 0.14219674
-0.37848493 -0.29609698 -0.09111475 -0.14992166 -0.03202921 0.16825268 0.18857408 0.1781157
0.024417937 -0.077462226 0.060862496 0.25988728 -0.120917976 0.004157249 -0.20071419 -0.23746622
-0.16033737 0.0041839355 0.0765769 0.0635676 -0.050476573 -0.110244416 0.1266065 -0.15002276
-0.1560434 0.1932545 0.25365058 0.078865916 -0.10403872 0.10830569 -0.018768301 -0.10663013
0.14255671 0.001288265 0.3201487 0.03459981 0.09036341 0.1383481 -0.09972613 0.1213276
-0.06964174 0.07163969 0.10958891 -0.03734108 0.225412 0.019920453 -0.2353497 -0.37941736
0.055104896 -0.27179962 0.15669042 0.1649445 0.13052095 -0.09732157 0.10526991 0.16221565
0.00062664226 -0.02306901 0.24215986 0.094835885 -0.17622717 0.03497378 -0.09226088 0.1644301
0.30824316 0.07590531 0.07299845 0.06318007 -0.17705473 0.12670064 -0.005728282 -0.016737446
-0.13082646 -0.014342242 -0.18820721 -0.22295053 -0.33831808 0.08917211 0.09148756 -0.089119695
0.010248172 0.021266922 0.10510326 -0.13747285 -0.21382114 -0.4239642 0.033513818 -0.24055333
0.053340416 0.1310859 0.07734646 -0.45059323 0.07355361 0.10107868 -0.058517847 -0.011732781
-0.14661953 -0.062492996 0.11872112 0.20695315 0.08962262 0.16226153 0.09241642 -0.13694271
-0.07628642 0.023726635 0.22964437 -0.114547625 0.030375877 0.07636143 -0.071266904 -0.18629664
0.22385278 -0.1665858 0.37970307 -0.07065004 0.12372383 0.05171345 -0.03015479 -0.04896786
-0.29910964 -0.110098004 0.04739423 -0.129485 0.25844842 -0.040029723 -0.18184249 -0.017408915
0.16255766 0.024789423 0.14481208 -0.13319212 0.36228004 0.1742594 0.23023404 0.105674386
0.2489376 -0.035177074 0.15867665 -0.013123338 0.12835205 -0.18828724 0.23356839 0.30215958
-0.05037799 0.15125187 0.14623287 0.17357877 0.25092486 -0.11039223 -0.20334554 -0.11557009
0.24303377 0.22131318 -0.11585217 -0.103985615 -0.2286557 -0.05964301 0.22269118 0.12708539
0.01969748 0.028306998 0.01887592 0.085204616 -0.0326133 -0.16156554 -0.12313077 0.18699871
0.07647617 0.20758377 0.06752743 0.23845218 -0.15736589 0.068420395 0.08001487 0.12502922
0.29758132 -0.061695095 0.19192803 0.17689863 0.22278331 -0.17836809 0.18350856 -0.07851274
0.0012052562 -0.034670286 0.12696476 -0.07746434 -0.1743378 0.048818097 0.014243122 0.20306215
0.06892178 -0.0065228213 0.011591444 0.19314995 -0.0781357 0.026641592 -0.08150569 0.18006742
0.004612931 0.18602055 0.22963308 0.11354892 0.31776685 -0.058846697 0.19433405 0.21635145
-0.0080435 0.0007949956 0.011097832 0.102146156 -0.25856957 -0.07544906 -0.014150828 0.26544467
-0.1823086 -0.0065989457 -0.011021143 0.046806727 -0.0019325288 0.19043297 -0.08820681 0.19743368
-0.07434301 0.03108132 -0.18980427 -0.1053155 0.15534881 -0.17436418 -0.032807596 0.046060555
-0.0041137524 0.04073968 0.071849175 -0.15342295 0.16332899 0.08679588 -0.095253974 0.032265443

fc3.bias f4 [10]
00000000: 3ade cebe e46a 82bf e5f9 97be e457 473f
00000010: a3a6 113f 206a c03d 58a4 413d a913 52be
00000020: dea2 f63e 69f1 73be
-0.4040392 -1.018887 -0.29682842 0.77868485 0.5689489 0.09395242 0.04727587 -0.20515312
0.48171133 -0.2382256
