client_api_workspace/server/simulate_job/app_server/FL_global_model.pt (torch, 251560 bytes, 10 tensors)

conv1.weight f4 [6, 3, 5, 5]
000000 3c 80 42 be 0a 9a e7 be 51 98 e1 be bf 66 7e be
       -0.1899423 -0.4523471 -0.4406152 -0.24843882
000010 0e bc f7 bd c0 5d 89 be 01 e8 ca be 85 b8 3a be
       -0.120964155 -0.26829338 -0.3963013 -0.18234451
000020 0e 31 09 be 04 3e 1e be f3 9c f1 3d ca 81 9b 3e
       -0.13397619 -0.15453345 0.11797514 0.3037246
000030 ce 2b 14 3f 76 c4 c1 3e 2d 51 dd 3e a3 03 cc 3e
       0.5787934 0.378452 0.43225995 0.39846525
000040 f4 4a 10 3f 5e 18 4c 3f e1 92 1d 3f 16 90 d1 3e
       0.5636437 0.7972468 0.61552244 0.4093024
000050 43 59 c7 3e 26 65 46 3e a4 c9 94 3e 54 b2 50 3e
       0.3893529 0.19374523 0.2906009 0.20380527
000060 5d 65 8c 3e 36 f3 1c 3e a1 b7 47 3e f9 2f 8c 3d
       0.27421084 0.15327153 0.19503643 0.068450876
000070 ec 45 cb 3d b4 a5 80 3e e8 d4 86 be 5a c4 4c be
       0.09925446 0.2512642 -0.2633431 -0.19996777
000080 3a 31 01 be 16 4a 7b bd a2 cc 95 be aa 3f a5 be
       -0.12616435 -0.06134995 -0.29257685 -0.32275134
000090 6e 7a 36 bc b8 18 08 3d 36 8e 10 be 4b 5e f6 be
       -0.011137588 0.0332267 -0.14116749 -0.48118815
0000a0 0d 90 1c be 7c ec d5 3d b8 7f 75 bd 59 c9 76 be
       -0.15289326 0.104454964 -0.059936255 -0.24100246
0000b0 0f 8a 17 bf ce 3e e9 bd 2b 40 88 be d5 85 c4 be
       -0.59195036 -0.11388932 -0.26611456 -0.38383356
0000c0 a0 68 c3 be ed 2e b4 be d5 1b 92 3e 2e 49 b2 3d
       -0.3816576 -0.35192052 0.2853686 0.08705364
0000d0 bc 26 98 3e f0 21 ba 3e 72 34 69 3e 03 43 82 3d
       0.29717052 0.36354017 0.22773913 0.06360438
0000e0 84 87 9e 3c 6c 86 ef 3c 71 18 84 3e 39 36 fd 3d
       0.019351728 0.029238902 0.25799897 0.12363858
0000f0 d5 a4 09 be 3c ee 9d 3e e0 ba 96 3e 9b 48 0d 3e
       -0.13441785 0.3084582 0.2943945 0.13797228
000100 68 4a 0c be 78 57 36 3d 55 80 dd 3d b8 af d9 bb
       -0.13700259 0.04451701 0.10815493 -0.0066432618
000110 1c fa 70 be 11 d0 9b be 96 83 7e 3e 11 86 5c 3e
       -0.23532909 -0.3043218 0.24854884 0.21535517
000120 74 54 b9 3c 73 9c 48 be 58 54 39 bd f5 eb a7 bc
       0.022623278 -0.1959093 -0.045246452 -0.020498255
000130 18 45 61 3e f3 8e bc 3e 26 7f cb 3e f4 f4 18 3c
       0.21999013 0.36827812 0.39745444 0.009335745
000140 0a 04 84 be 06 38 6e 3e b4 21 b0 3e d8 21 aa 3e
       -0.25784332 0.23263559 0.34400713 0.33228946
000150 e8 88 b7 3d ec 60 0a 3e 92 99 b8 3e ce e0 05 bf
       0.0896166 0.13513535 0.36054665 -0.5229615
000160 87 07 8e 3e c5 0b 96 3e 87 17 8a 3e dd f8 f1 3e
       0.27740118 0.29305854 0.26971075 0.4726018
000170 96 62 98 bf 88 62 92 3d 7d 0d 1d 3f 75 aa 8f 3e
       -1.1905086 0.071476996 0.61348706 0.28059736
000180 ca b0 83 bc a0 bb 80 bf 62 8d 89 be fd b4 8d bb
       -0.01607551 -1.0057259 -0.2686568 -0.004324554
000190 c3 f7 b1 be 3b f3 73 be 8e 98 c2 be 92 84 9c be
       -0.3475934 -0.23823254 -0.38007015 -0.30569893
0001a0 fa 7e 93 be 40 84 8c bb 8f 8e b5 bd dd f6 ed be
       -0.28807813 -0.0042882264 -0.088650815 -0.46477404
0001b0 74 28 37 be 78 32 45 be 85 90 b5 3e 21 f7 7e 3d
       -0.17886525 -0.19257534 0.35461822 0.0622474
0001c0 f2 fc 8d bf d2 85 8f 3d 18 37 aa 3a 3f aa 03 3f
       -1.1092818 0.07007946 0.001298639 0.5143165
0001d0 39 81 9a 3e fe e7 c9 bf ba 1d 13 be 4c 3c 1e 3f
       0.30176714 -1.5773923 -0.14366809 0.61810756
0001e0 fa d0 e6 3e 9e d1 e3 3c ec 4e 8a bf 30 47 74 be
       0.4508131 0.027809914 -1.0805335 -0.23855281
0001f0 08 a2 65 3e 8e 1c b3 3c a0 37 75 3d 94 b1 54 3d
       0.22425091 0.021864202 0.0598675 0.051927164
000200 02 8c 4f 3e 33 36 61 3d 33 7e 18 3d c6 39 af bd
       0.20268252 0.05498333 0.037229728 -0.08555941
000210 14 96 eb bd 87 e9 44 3d 22 fe 83 bd 9f 97 15 3e
       -0.115032345 0.04807427 -0.06444956 0.1460862
000220 0c 61 ae 3e ce 54 46 bf e2 e4 7b 3e f3 10 e8 bd
       0.34058416 -0.7747315 0.2459903 -0.11331358
000230 73 0c 15 3f e7 33 01 3f ba fb a3 bf f8 a1 0f 3e
       0.5822212 0.5046982 -1.2811196 0.1402663
000240 a0 d5 80 3e bc 31 47 3f 6c 3d 3f 3f fb 07 1b bf
       0.25162983 0.77810264 0.747031 -0.6055905
000250 b4 d1 21 3c ff 7a f3 bd 92 a8 81 3c d2 a3 ad 3d
       0.009876657 -0.11888694 0.01582745 0.08478512
000260 9c e6 b9 be 84 53 a9 be 77 75 25 3d 04 3c f4 bd
       -0.36308753 -0.3307153 0.040395226 -0.119255096
000270 cc 0e b1 3e 3a 94 9e 3f 6e c3 3c 3f 31 c7 48 3e
       0.34581602 1.2388985 0.737357 0.19607235
000280 f4 27 a0 be 27 bc 02 bf 14 0b d4 bb 90 a2 b1 3d
       -0.31280482 -0.5106835 -0.006471047 0.086735845
000290 b4 a9 99 be 83 1e 1e 3e 65 a1 25 bf 01 b0 87 bf
       -0.30012286 0.15441327 -0.64699394 -1.0600587
0002a0 e8 ee 66 bf e1 45 56 be b7 da 0a 3e fa 34 83 3e
       -0.9020829 -0.20925094 0.13559996 0.25626355
0002b0 65 54 3f 3e 92 f3 9d 3e 04 98 26 3e a9 eb b3 3d
       0.18684538 0.30849892 0.16268927 0.08785183
0002c0 ae ea 00 bd 7b 90 75 be e4 65 df be dd a1 83 3e
       -0.031473808 -0.23980896 -0.43632424 0.2570943
0002d0 55 74 0f 3e 70 9d 37 3f 7b 88 c8 3f 8b 59 53 3f
       0.14009221 0.71724606 1.566665 0.82558507
0002e0 ac 31 89 3e d2 73 fb bd 46 08 2a be db ca e0 3e
       0.2679571 -0.1227795 -0.16604719 0.43904766
0002f0 f0 3e 00 3f 54 2a e0 bc 3a 80 17 3d 15 50 f2 be
       0.50096035 -0.027363934 0.03698752 -0.47326723
000300 2c 4d 68 bf b8 f4 4e bf 56 19 64 be 00 4e 8a be
       -0.90742755 -0.8084216 -0.2227529 -0.27012634
000310 8d 60 b1 bd 2c 38 8b bd 14 51 5e be 46 5f ed bd
       -0.08660994 -0.06797823 -0.21710616 -0.115904376
000320 32 f6 22 be ea cf a3 be 98 c7 7d bf ae b4 86 bf
       -0.15914229 -0.31994563 -0.9913268 -1.0523889
000330 ec ed ac be 87 09 18 bd 37 86 90 3e c8 42 44 3f
       -0.3377527 -0.03711846 0.28227398 0.766644
000340 44 3b bf 3e 29 d5 08 3d fb 41 da 3d bc 2b 34 be
       0.37349904 0.03340641 0.10657116 -0.17594808
000350 ee 68 fc 3d e9 b4 a9 3e ce 96 97 3d 4c 9f 82 3e
       0.12324701 0.33145836 0.074018106 0.2551216
000360 d9 44 ef bd 4b b5 27 bf ec 9b ea be a0 93 c4 3d
       -0.116830535 -0.65511006 -0.45822084 0.0959847
000370 05 2f 52 3d f4 37 75 3e 00 01 bd 3e de 4d c7 3e
       0.051314373 0.23947126 0.36914825 0.38926595
000380 aa 8c c1 3e 1e 1c 28 3e 50 10 c8 3d 56 39 56 bd
       0.3780263 0.16416976 0.09768736 -0.052300774
000390 b0 5d fa 3b 34 ee 37 3c 6e 16 20 3e f6 fc b8 be
       0.007640563 0.011226226 0.15633556 -0.36130494
0003a0 03 60 58 be 12 a3 a4 3e ca 63 30 be 20 f0 67 3b
       -0.21130376 0.32155663 -0.17225567 0.0035390928
0003b0 06 bf 27 bf 18 aa 41 bd 8b b8 28 3f 20 a8 23 3a
       -0.65525854 -0.047281355 0.6590659 0.0006243009
0003c0 f1 be 3b be 09 d1 ea be 0a a6 d0 3d 60 0c b0 3e
       -0.18334557 -0.45862606 0.101879194 0.3438444
0003d0 2f d9 5a bd 82 70 54 bd a7 ba 16 be 4e fd 31 3c
       -0.05342978 -0.05186511 -0.1471964 0.010863615
0003e0 b7 bb 37 3d f4 f1 e6 3d 0a 19 79 3d d7 51 ac bd
       0.044856753 0.11276618 0.060814895 -0.08414047
0003f0 80 ac 67 bd 8e 1b be 3d b2 98 92 3d 82 c3 48 3d
       -0.056560993 0.092825994 0.071580306 0.049014576

conv1.bias f4 [6]
000000 24 c2 27 3e 7e 5e cc be e2 80 e9 be 7f 2f 82 be
       0.16382653 -0.39915842 -0.45606142 -0.25426862
000010 1c 43 6b bd 19 a5 0d 3f
       -0.057437047 0.55330044

conv2.weight f4 [16, 6, 5, 5]
000000 b4 71 78 3e 7b 74 89 3c b0 99 63 bd 02 5c 3e bd
       0.24262124 0.016779175 -0.05556649 -0.046474464
000010 a0 f1 5e be 8e 3b 8a 3e b8 5f 49 3e 9c 16 ba bc
       -0.2177186 0.26998562 0.1966542 -0.02271586
000020 4c 38 52 be a2 91 68 be 20 51 ce 3e 6a 87 e3 3e
       -0.20529288 -0.22711805 0.40296268 0.4443925
000030 88 4c dd 3e ef 08 a8 3d f5 5d 1d be 69 7c b2 3d
       0.4322245 0.08204829 -0.15367873 0.087151356
000040 22 99 be 3d f3 7f 35 3e 8c 19 ad 3e 46 8c ae 3d
       0.093065515 0.1772459 0.33808553 0.08522849
000050 3a 14 52 3d bd d7 82 bd 1c 95 9d 3c 00 47 d5 38
       0.05128882 -0.06388805 0.01923614 0.00010169856
000060 7b e2 aa bd 83 c5 dd 3d c8 17 ca 3d 6a fe 5a 3e
       -0.08343979 0.10828688 0.09867817 0.21386114
000070 db 80 db bd 86 84 19 be 50 bf ca bd 36 d9 35 be
       -0.107179366 -0.1499196 -0.09899771 -0.1775864
000080 18 9d 68 bd 10 33 2a be 1b 3a d6 be 58 e0 4f be
       -0.05679044 -0.16621041 -0.41841206 -0.20300424
000090 c0 a1 0c bf 2c 54 fa be 1c 93 28 bc f6 d9 14 3e
       -0.5493431 -0.48892343 -0.01028898 0.1453627
0000a0 e7 f5 78 be ad d1 ba bd 81 3e 5e be d7 df 91 be
       -0.24312554 -0.09122024 -0.21703531 -0.2849109
0000b0 e2 13 93 bd f4 75 9b bc d0 2b 1f 3e 5a 32 01 3e
       -0.07181527 -0.018977143 0.15544057 0.12616864
0000c0 f8 91 88 3c 80 bc cb bd 1a 24 5b 3e 3c 7b 0b be
       0.016671166 -0.09948063 0.2140049 -0.13621229
0000d0 79 cd 25 be 17 3a b3 bd 90 5c 48 3e 7b 76 43 3e
       -0.16191663 -0.08751314 0.1956656 0.19088165
0000e0 5b 83 ec 3d 97 d0 c5 3d b8 d0 45 bd 64 68 e1 bd
       0.115484916 0.09658926 -0.048294753 -0.11006239
0000f0 ee 61 6e 3e 9e c4 02 3c 17 cf 79 be 4a a2 f4 3b
       0.23279545 0.0079814475 -0.24395405 0.0074656354
000100 10 fb e0 3d 14 a4 01 bd 24 af 8d 3d d4 8f 93 3e
       0.10985386 -0.031650618 0.06918171 0.2882067
000110 c9 26 47 3e 32 fc 56 bd fe 65 31 bc 8e f3 cc bd
       0.19448389 -0.052486606 -0.0108275395 -0.10007392
000120 1a 1f c4 bd f1 b1 33 3c b0 0b 0a 3e 08 ce b6 be
       -0.09576245 0.0109677175 0.13481021 -0.35704064
000130 88 55 95 be 61 c9 52 be 92 34 b1 be 5e b8 a3 be
       -0.29166818 -0.20584632 -0.3461042 -0.31976599
000140 e3 76 bf bd 48 a7 5c be 88 33 8e be d7 19 99 be
       -0.09348848 -0.21548188 -0.2777369 -0.29902527
000150 43 10 93 be 11 52 90 3d c2 0a d2 3c 70 2d a1 be
       -0.28723344 0.07046903 0.025639895 -0.3147998
000160 b6 c8 b2 be bf 43 91 be b6 a0 7f bd 8e 17 87 3c
       -0.34918755 -0.28372 -0.062409125 0.016490724
000170 2d 78 e8 3d 61 ca 16 be f0 99 92 be 9b dd 3d be
       0.11351047 -0.14725639 -0.2863307 -0.18541567
000180 9e b3 c4 bd c4 90 7f 3e 5e 99 1f 3d ac e3 e3 bd
       -0.09604572 0.24957567 0.03896462 -0.11127409
000190 bc cc 76 3e 2c dd 2b 3e 80 0d f7 ba 1c 3b c3 bc
       0.24101537 0.16783589 -0.0018848628 -0.023831896
0001a0 c1 03 74 3e 91 d2 13 3d 12 45 9b 3e 02 ab 89 3e
       0.23829557 0.036089484 0.30326134 0.2688828
0001b0 75 85 5a 3e 36 44 4a 3e 23 da 38 be 9e df ac 3d
       0.21339972 0.19752583 -0.18051963 0.08441089
0001c0 9c c3 6d 3e 69 81 2c 3e 10 5e 65 3e 7e 9d 33 be
       0.2321915 0.16846241 0.22399163 -0.17540547
0001d0 c3 a9 0f be d5 00 80 bd 70 2d 92 3e e4 de cd 3e
       -0.14029603 -0.06250159 0.2855029 0.40209115
0001e0 64 5d 17 bc 90 f6 ce bd b6 54 52 be 12 e1 a5 be
       -0.009238575 -0.10105622 -0.20540127 -0.32398278
0001f0 8c c6 40 bc 82 04 45 be 23 5d 0d be 99 ae fb 3c
       -0.011766087 -0.19240001 -0.1380506 0.030722903
000200 ce 2c 08 be 9e ed f2 3c ad 67 06 be 54 d5 76 bc
       -0.13298342 0.02965432 -0.13125487 -0.01506551
000210 d3 04 77 bd c8 89 82 bd 32 ec 46 3d 9d 4f 61 be
       -0.060307335 -0.06373936 0.048565097 -0.22003026
000220 14 02 79 3c f8 c5 9c bd 30 d9 04 be 13 a3 8a 3d
       0.015198249 -0.07654947 -0.12973475 0.06769385
000230 b3 78 f4 bd 38 13 a2 3d 64 a2 25 3e 54 bc 60 3e
       -0.11937084 0.07913822 0.16175228 0.21946841
000240 4b 1c b8 3d e0 27 f6 ba 05 4f 14 3e 85 9a 37 3e
       0.089897715 -0.0018780194 0.14483269 0.17930038
000250 40 dc 7e 3e 03 b7 47 3e d1 51 96 bd 0d bd d0 3d
       0.24888706 0.19503407 -0.07339824 0.101923086
000260 84 ef 4f bb 47 23 4d bc 23 0c ce bc 9c 4b 09 bd
       -0.0031728456 -0.012520618 -0.025152272 -0.033519372
000270 9f 11 d1 3d 3e cf 0b bd 84 60 bc bd 7e fb 26 3e
       0.10208439 -0.03413319 -0.091980964 0.16306874
000280 f8 24 3b 3d 05 87 3a 3d 28 d2 27 be 5b ed a2 bc
       0.045689553 0.04553892 -0.16388762 -0.01988857
000290 80 38 e3 39 38 bb e4 bc 3f cd 92 bc f1 01 10 be
       0.0004333891 -0.027921304 -0.017920135 -0.1406324
0002a0 7e 67 c3 bd 8f 1d f1 bc f7 72 29 bd 17 f5 40 3d
       -0.09541224 -0.02943304 -0.041369405 0.047108736
0002b0 b7 73 1d 3d 6e 99 ed bc 2e 21 09 be e8 97 4f be
       0.038440432 -0.029003825 -0.13391563 -0.20272791
0002c0 8c 17 af 3d ea 9e db 3e eb e8 aa 3e 46 d3 a6 3e
       0.08549413 0.4289468 0.33380827 0.32583064
0002d0 ca 7f 17 bf 7e c0 b2 be 3f 43 ce 3d 6c 60 d9 3e
       -0.59179366 -0.34912485 0.1007142 0.42456377
0002e0 08 6f 91 3e 42 8f 19 bf 0a 55 8c be c6 4e 36 bd
       0.28405023 -0.5998422 -0.2740863 -0.044508718
0002f0 7d 64 54 3e 1e 6a ab 3e 2a fa f0 be db 6a b6 bd
       0.20741458 0.33479398 -0.4706586 -0.089071
000300 a8 37 64 bd 51 d6 b0 bc ca 1e 68 3e 66 5e 28 bf
       -0.05571714 -0.021586569 0.22667995 -0.6576904
000310 ec f2 54 be 82 2d 83 bd db f0 08 3c 20 d9 38 3e
       -0.20795792 -0.06405164 0.008358206 0.18051577
000320 b2 25 f9 3d 06 5c 74 3c 06 57 cb be db 4f b5 be
       0.12165393 0.014914518 -0.3971483 -0.35412487
000330 d0 60 f6 bb 39 be 95 3d ea bf 2a 3d 3e 93 89 be
       -0.007518865 0.07311673 0.04168693 -0.2687015
000340 02 08 d6 be 4a 65 7b be f6 b4 cb 3c b6 f5 4b be
       -0.41802984 -0.24550357 0.024866562 -0.1991795
000350 22 4b 4f be d6 77 c7 be 95 98 80 be e0 5d 22 3d
       -0.20243505 -0.38958615 -0.2511641 0.039640307
000360 cb 26 86 bd 04 c9 30 be b3 14 af be 72 0e 90 be
       -0.06550368 -0.17264181 -0.3419548 -0.2813602
000370 a4 79 42 3e 1e 7c e8 3d b8 92 eb bd 08 bd f5 bd
       0.18991715 0.113517985 -0.11502594 -0.119989455
000380 dc d6 ba bd d3 07 ad bd 6f 87 66 be bb 48 59 be
       -0.091230124 -0.08448758 -0.22512601 -0.2121915
000390 b0 41 f9 3b ee c9 09 3e 6a 82 21 bd a8 1b 33 be
       0.0076067075 0.13455936 -0.039431013 -0.17491019
0003a0 d5 02 8f bd 8c b2 68 bd d5 71 7e be 35 f2 98 3c
       -0.06982962 -0.0568109 -0.24848111 0.01867018
0003b0 d0 d1 22 3c 90 24 a8 bc ff 0b 4f bd f7 3e 21 be
       0.0099377185 -0.020525247 -0.05054855 -0.15746675
0003c0 5e f2 e0 bc b6 6b cb 3d 60 10 0a be 7e fe 1a bc
       -0.02745932 0.099326536 -0.13482809 -0.00946009
0003d0 c4 88 be bd 40 ee b9 3c 6f 10 a2 bd 90 d7 dd 3a
       -0.0930343 0.022696614 -0.07913291 0.0016925205
0003e0 52 7c 47 3e 78 78 b2 bb 58 42 2d 3e 7a 2b 06 3f
       0.19481018 -0.00544649 0.1691984 0.5241009
0003f0 03 61 0c 3e 1c e7 12 be 52 1a 62 be ba 31 ad bd
       0.13708882 -0.14345974 -0.22080353 -0.0845675

conv2.bias f4 [16]
000000 d4 12 84 bd 30 2c 17 3f eb 72 c4 3f f4 a5 a4 bf
       -0.06448904 0.590518 1.534757 -1.2863145
000010 02 9e 26 bf 32 65 0b 40 2b a6 60 be b4 ae 37 bf
       -0.6508485 2.1780515 -0.21938388 -0.7175095
000020 07 df c8 3e 10 5e 48 bf 01 72 37 3f b8 3b 3e bf
       0.39232656 -0.7826853 0.7165833 -0.74309874
000030 e1 61 b9 bf 2b c2 07 3e 0c 8a e9 3c 78 ca 7a bf
       -1.4482995 0.13257663 0.028508209 -0.9796519

fc1.weight f4 [120, 400]
000000 43 38 d2 3c 60 cc b9 bd e7 87 9c bd 10 d6 c2 bd
       0.025661593 -0.090721846 -0.07643109 -0.095134854
000010 f1 aa 93 bb dc e4 dc bd 76 b5 a5 bd 84 f2 6f 3d
       -0.004506462 -0.10785839 -0.080912516 0.05858089
000020 aa 29 b0 bd 11 b2 2a 3c 3e 95 47 bd 8e 89 f6 bd
       -0.08601697 0.010418431 -0.048726313 -0.12037955
000030 86 e3 88 3d 37 90 c2 3d 92 36 77 3d 18 ec ab 3b
       0.06684022 0.09500163 0.060354777 0.0052466504
000040 30 af 64 bb 7e be f6 bd bc 78 b0 bd 99 0b db 3d
       -0.003489446 -0.12048052 -0.08616778 0.106955715
000050 1a c4 3e be ec 0f bb bd 84 72 a7 bd de 09 11 be
       -0.18629494 -0.09133896 -0.08176139 -0.1416392
000060 a8 f5 b3 bd ae e2 8d 3d 00 35 aa bd 68 54 58 3c
       -0.087870896 0.06928001 -0.0831089 0.013203718
000070 bb 80 e7 bd c0 53 15 bc 0d de 2b 3d 0a 54 00 bd
       -0.1130385 -0.009114206 0.04195981 -0.031330146
000080 a7 ec 65 bd 38 a9 8d 3b 28 83 8f bd de 6f d8 bc
       -0.056133892 0.004323151 -0.07007438 -0.02642053
000090 20 f5 89 3d 5a b2 11 3d ee a4 03 bc aa f7 2b be
       0.06736207 0.03557048 -0.008034928 -0.16793695
0000a0 aa 80 a9 3d 7e 7f 02 3e 43 ee f8 3c 82 91 09 3c
       0.08276494 0.12743947 0.03038705 0.008396508
0000b0 cb dd 66 3d e6 50 df 3d 74 fc c0 3d 6a ac fa 3c
       0.056363862 0.10904102 0.094231516 0.030599792
0000c0 70 54 67 bb 44 2a 24 3e 31 01 be 3d bb 39 a8 bc
       -0.0035298131 0.16031748 0.09277571 -0.02053534
0000d0 f0 05 70 bd 7c ad bd 3c 2b 6f b9 3d cd f3 18 bd
       -0.058599412 0.023154013 0.09054407 -0.03734188
0000e0 ee 6b 2b bd 29 c9 22 bd 4e e3 b6 3d 9a c3 20 3d
       -0.041850977 -0.039742623 0.08930074 0.03924904
0000f0 9c c8 d3 bc c7 6a 8d bd 70 9a 0e bb 72 e0 be bc
       -0.025852494 -0.06905132 -0.0021759532 -0.023300383
000100 ea 85 37 3b 22 60 18 bc 02 1d 81 bd dc 6a 97 bd
       0.0028003403 -0.009300264 -0.06304361 -0.07393429
000110 72 41 e7 bd 19 10 0d be 24 9c d8 bd a4 7a 6f bd
       -0.112917796 -0.13775672 -0.105766565 -0.05846657
000120 87 17 7a bd 48 09 bf bd 64 78 ff bd 69 46 25 3e
       -0.061057594 -0.09327942 -0.124741346 0.1614014
000130 c0 ed bd 3d de a7 c0 3d 84 76 ac 3d 15 b3 2d 3d
       0.09273863 0.09407018 0.084210426 0.042407114
000140 5e d1 99 3d 2f f4 e0 3c a9 5f 9c bd 04 45 56 bd
       0.07510637 0.027460186 -0.07635433 -0.052311912
000150 b2 7a 12 3e 58 bb 9f 3d 92 67 e4 bd 85 24 08 bd
       0.14304617 0.07799405 -0.11152567 -0.033237953
000160 ff 60 30 3d 70 39 b6 3d 80 99 9d bd 72 88 ba bd
       0.043061253 0.08897674 -0.076952934 -0.09108056
000170 c4 ba ea bc 74 af 9e 3c a7 f7 2f bd 2e 9f f0 bd
       -0.02865351 0.019370772 -0.04296079 -0.11749111
000180 f6 61 65 bd ae 12 c8 3c 08 d6 cb bd bc d4 f4 bd
       -0.056001626 0.02442297 -0.099529326 -0.11954638
000190 ea 6e 98 bd b1 54 82 3c cc 61 84 3d 32 3c 28 3d
       -0.0744303 0.015909525 0.06463966 0.04107303
0001a0 00 bf ff 3d c8 dd c8 bd d5 e9 9e 3d d8 cb ac 3d
       0.12487602 -0.098079264 0.07759444 0.084373176
0001b0 a8 ce 50 3b 77 a1 e1 bd 40 18 b1 bc 6d 18 ca 3d
       0.0031861458 -0.11017125 -0.021618009 0.0986794
0001c0 36 93 8d bd 62 5a 8f 3d ae ca ca bd c3 3d c9 3c
       -0.06912844 0.06999661 -0.09901939 0.024565583
0001d0 c8 80 33 3c ef 43 50 3d 09 95 2d 3d da 44 1e be
       0.010955997 0.050846037 0.04237846 -0.15455952
0001e0 9b 65 c5 bc 7c b2 19 3d 07 7d 17 3c 22 cd 5a 3c
       -0.0240963 0.03752373 0.009246117 0.013354572
0001f0 04 1e 7f bd 9d 29 6e bd b9 f9 09 be 10 ed fe 3a
       -0.062284485 -0.058145154 -0.13474168 0.0019449312
000200 cb a3 a8 bd 39 f0 ff bd c3 18 4b bd 06 4f c9 3c
       -0.08234366 -0.12496991 -0.04958416 0.024573814
000210 83 d4 42 be f4 96 98 bc 93 a8 e6 3c 71 f9 01 be
       -0.1902638 -0.018626668 0.028156554 -0.1269281
000220 38 b3 3c be 16 2d eb bc 82 21 4d 3d 00 ad a0 3d
       -0.18427742 -0.028708022 0.050080784 0.07845497
000230 1e b2 68 3d 48 18 8d bd 83 88 9d 3d f8 2d 2f 3d
       0.05681049 -0.06889397 0.07692053 0.04276845
000240 24 a6 81 3e 95 04 ee 3d 19 bb 53 3e 90 72 dc 3d
       0.25322068 0.11621968 0.20676841 0.107640386
000250 9e 87 9e 3d 77 a0 a7 3e 1f 3f 1b 3e e4 c8 d1 bc
       0.07740711 0.32739612 0.15160798 -0.025608487
000260 c0 b2 84 3d 7f 64 ee 3d 20 30 99 3d aa d7 18 3d
       0.06479406 0.11640262 0.07479882 0.03731505
000270 30 f6 ab 3d 16 fc 94 3d 38 b4 cc 3b ec f5 d2 bb
       0.08396566 0.07274644 0.0062470697 -0.0064380076
000280 46 b0 eb 3d 38 b9 1b 3e da 5c 17 bd 04 7e 02 bd
       0.11508231 0.15207374 -0.036953785 -0.03185846
000290 12 24 0a 3e 61 e8 b9 3c 4f 69 e1 3d da 98 d2 bb
       0.13490322 0.022693815 0.11006414 -0.0064269127
0002a0 86 69 8a 3c c2 50 a9 3c 44 71 9f 3c 4c 41 d6 bd
       0.01689602 0.020668391 0.019463189 -0.10461673
0002b0 24 51 e9 bd 3d f2 16 be f2 96 53 bd 48 d1 0c 3e
       -0.113924295 -0.14740844 -0.051657625 0.1375171
0002c0 7e 1d 05 3d 51 5f 24 3c 0e 8d f9 3d 50 29 54 3e
       0.03249883 0.010032491 0.12185107 0.20718884
0002d0 32 24 2d bd 94 0e 60 bc fe 9e 3d 3c f0 50 ce 39
       -0.042270847 -0.013675351 0.011573551 0.00039351685
0002e0 a4 f1 a4 3d 95 85 c6 bd 30 5c 87 3d e0 0a 17 3d
       0.08053902 -0.096934475 0.0660938 0.036875606
0002f0 2c 81 d7 3c 1d 47 eb bd 48 2c 1d be 54 fc 07 3d
       0.026306711 -0.11488173 -0.15348923 0.033199623
000300 59 8e 0e bd d7 fc 58 3c 4a f6 a0 bc 22 a9 19 be
       -0.034803722 0.0132438755 -0.01964869 -0.15005925
000310 ae 8d 53 be 18 25 0f be 81 a6 cd bc be 94 a7 3d
       -0.20659515 -0.13978994 -0.02510381 0.08182667
000320 e8 f8 92 3c ca 6d 81 bd 98 a6 8a 3d 92 6f 9a 3d
       0.017940953 -0.06319769 0.067700565 0.075408116
000330 b7 fe 18 3e e3 4f 05 be d0 d1 40 bb 6c f9 f5 bc
       0.14940916 -0.13018756 -0.0029421933 -0.03002616
000340 9c 94 84 3d d3 39 14 3c 4c 1d 00 be 1c 24 5a bc
       0.064736575 0.0090469895 -0.12511176 -0.013314273
000350 1b 3d f1 bc 95 0c d0 3d 2d f5 71 bd 50 85 f9 bd
       -0.029448083 0.1015865 -0.05907171 -0.121836305
000360 60 52 de 3b d1 fd 6c 3d 6a 1a 06 3d e0 5f 99 bb
       0.006784722 0.057859246 0.032740034 -0.0046806186
000370 4a e7 38 bd 6a 3c 02 3e e0 2d ed 3d 84 b7 4a bc
       -0.04514245 0.12718359 0.115810156 -0.012372855
000380 38 d2 6a 3d 62 20 92 bc 70 f1 6e 3d e2 48 5c bd
       0.057329386 -0.017837707 0.05833572 -0.053780444
000390 8e a0 9f bd 4d ec e1 3c 81 43 a1 bc 50 f9 ef bb
       -0.07794295 0.027578497 -0.019685509 -0.0073234215
0003a0 d4 02 66 bd c7 42 ac bd bc 51 f3 3b 89 99 6c bd
       -0.05615504 -0.08411174 0.007425515 -0.05776361
0003b0 c6 08 be bd e4 bb 57 bd a8 0c fb 3c 2d a8 b0 bd
       -0.09279017 -0.05266942 0.030645683 -0.08625827
0003c0 24 f9 f5 3c 5c e7 49 be c2 65 55 bd 08 59 e2 bd
       0.030026026 -0.19717163 -0.052098997 -0.110521376
0003d0 9c 31 97 3a 00 32 05 3e c3 ee 91 bd cc 80 a5 3d
       0.001153517 0.13007355 -0.07125618 0.08081207
0003e0 65 2d 60 3d 22 9f 81 3d eb 75 cc 3e 82 45 8b 3e
       0.05473079 0.0632918 0.39933714 0.27201468
0003f0 80 b2 16 3e ce b5 80 3d 70 74 02 3e 1b ab a6 3d
       0.1471653 0.062846765 0.1273973 0.081381045

fc1.bias f4 [120]
000000 f3 eb 0e 3d 59 82 3e 3e 59 14 a7 bc 3d ec f9 bd
       0.034892987 0.18604411 -0.020395445 -0.12203262
000010 e1 55 b9 3e 65 05 48 bd 8b ba 40 3e 4d 31 81 be
       0.36198333 -0.04883327 0.1882116 -0.25232926
000020 40 c9 bf 3d fa 91 86 3e a0 f5 ca 3b 82 92 f2 3d
       0.09364557 0.26283246 0.0061938316 0.118443504
000030 c4 6d 3a be e7 a1 09 be 82 21 87 be 62 5b b4 bd
       -0.18205935 -0.13440667 -0.26392752 -0.088064924
000040 8a b1 b3 bd 0f ac 2e 3e 41 49 af bd ac 4f be 3d
       -0.08774097 0.17057823 -0.08558894 0.0929254
000050 2e c7 97 3e 38 21 b5 3d 10 0a 5b 3d 3d fa 59 3e
       0.2964415 0.088442266 0.053476393 0.21286865
000060 e6 51 d4 3e c8 49 86 3e a8 79 c1 3e c0 8b fc bd
       0.41468734 0.26228166 0.3778813 -0.12331343
000070 4a 7f 97 3d 6f 46 ed 3b 6c ba cd 3c d8 af f6 3d
       0.07397325 0.0072410624 0.025113307 0.12045258
000080 a4 49 76 3b 78 18 d0 bd b2 d5 c4 3d 82 4e 48 bc
       0.0037580514 -0.10160917 0.09611072 -0.012225749
000090 16 c4 2a 3c f8 f4 8c be 40 8d a5 3e 99 2e 55 be
       0.010422727 -0.27530646 0.32334328 -0.20818557
0000a0 58 6e 16 3d e3 1f 80 bd 9e 8b e1 3e 5e 14 60 bb
       0.036726326 -0.06256082 0.44051832 -0.0034191827
0000b0 24 af a7 bd 09 5c 6c 3d f2 25 1c 3e f2 ea 28 bd
       -0.08187702 0.05770496 0.1524885 -0.041239686
0000c0 27 21 52 bd 8e 01 1d 3d e4 13 4f bd c4 0a ab 3e
       -0.051301148 0.03833156 -0.05055608 0.3340665
0000d0 22 2b 9d 3e 27 25 b2 3e fb 55 f1 3d 86 09 89 bb
       0.3069697 0.3479397 0.117839776 -0.0041820435
0000e0 f0 34 9e bd 84 d5 e4 3d 97 a9 83 3d f2 14 50 3e
       -0.07724941 0.111735374 0.06428831 0.2032049
0000f0 e9 b0 2b be 42 28 58 3e 41 50 ff 3d 05 c0 cb bd
       -0.16766705 0.21109107 0.12466479 -0.09948734
000100 ee 50 e1 3d 3a 61 d6 3d 62 45 49 bc 33 df 3a 3e
       0.11001764 0.10467763 -0.012284609 0.18249206
000110 3f 69 48 be 09 72 f1 bd fa ca 5d be d3 14 80 3d
       -0.19571398 -0.117893286 -0.2165946 0.06253972
000120 0f 24 af 3e 1e 82 77 bd 4a 22 97 be 4a 6f d3 3d
       0.34207198 -0.060426824 -0.29518348 0.10323961
000130 f8 ca 3f 3d 68 d8 26 3e c1 cf eb bd 73 de a6 3d
       0.046824425 0.1629349 -0.11514235 0.081478976
000140 84 79 e9 3d 8f 87 fc 3d 21 bc 64 be de 99 cc bd
       0.114001304 0.12330543 -0.2233739 -0.09990285
000150 1a ee ad bd 69 5d 4c 3e 46 a0 7c bd 66 12 a1 3e
       -0.0849268 0.19957508 -0.061676286 0.3145935
000160 a9 33 e5 bd 89 3f a3 be ba fc b7 be 40 4b ac 3d
       -0.11191494 -0.3188441 -0.35935003 0.0841279
000170 b9 2e 1a 3d 20 1f 47 be af 96 13 3e ca 0a 5f bd
       0.037642214 -0.19445467 0.1441295 -0.05445365
000180 b1 15 23 bd 0d be 92 3e f6 1d 0d bd 98 fc bb 3c
       -0.03981561 0.28660622 -0.0344524 0.022947595
000190 b4 cb d0 3d a6 f4 01 3d 19 2c b5 3d c6 b6 97 bc
       0.10195103 0.031727456 0.088463016 -0.01851977
0001a0 46 00 33 be 81 b4 58 bd e2 cd 98 3b 32 24 e6 be
       -0.17480573 -0.052906517 0.004663215 -0.4494949
0001b0 a5 d0 a8 3c 59 af 01 be 7c ae a7 bd f4 83 62 bc
       0.020607302 -0.12664546 -0.08187577 -0.013825405
0001c0 39 9f 96 3c 3f f3 4d 3c ac 83 80 3e 00 2d aa 3e
       0.01838647 0.012570201 0.25100458 0.33237457
0001d0 b0 cd b6 3e 26 8c 04 be 60 f6 bf bd 54 4c d2 bc
       0.35703802 -0.12944087 -0.09373164 -0.025671162

fc2.weight f4 [84, 120]
000000 24 25 75 bb fa c9 85 3d ca 2d 27 3c 51 ed de 3d
       -0.003740617 0.065326646 0.010203788 0.10885108
000010 b2 a1 68 3c e4 ae af 3c 5b 57 1f bc 6c c1 86 bd
       0.014198707 0.021445699 -0.009725417 -0.06579861
000020 d0 0f 50 be 40 d8 56 bd 35 46 0c 3e c9 b1 25 bd
       -0.20318532 -0.052452326 0.13698657 -0.040452752
000030 19 e8 14 3e d1 9f 70 3d 4d 0d 9f 3d c4 18 b6 bc
       0.14541663 0.058746163 0.07766209 -0.022228606
000040 34 c8 01 bd 2e b1 95 bb 31 c3 02 bc 84 0b b8 bd
       -0.03168507 -0.0045682406 -0.007981108 -0.089865714
000050 61 de 02 be 74 bc bb bd ac f2 3f be 11 8e 05 be
       -0.12780143 -0.09166804 -0.18744916 -0.13042475
000060 a6 2d 16 3e 2d ac 8c 3d a0 e7 98 bc 3c 90 24 be
       0.14665851 0.068687774 -0.018665135 -0.16070646
000070 e7 d5 15 be f8 93 e3 bc 95 1d ea 3d 86 86 28 be
       -0.14632379 -0.027780518 0.114314236 -0.16457567
000080 17 23 c1 3d 86 ff 2d bd 99 1f c0 3d f4 4d da 3c
       0.09430521 -0.042480014 0.09381027 0.0266485
000090 f4 d8 81 ba f6 52 c7 bc 4d ec 8f bd 58 01 be 3c
       -0.0009906576 -0.024331551 -0.07027493 0.023194
0000a0 9b 71 31 bc 76 6b 0a 3d 2a 90 95 be 4c 4a 8e bd
       -0.010830308 0.03379389 -0.2921155 -0.06947765
0000b0 89 a5 9b bd b0 75 0f 3b 26 9a a1 bd 3a 18 4a be
       -0.07599933 0.0021890216 -0.078907296 -0.19735804
0000c0 aa 16 a5 3d da f3 6d bd 24 c2 cc 3c e9 0d b1 3c
       0.080609635 -0.058093883 0.024994917 0.021613078
0000d0 f2 f1 1d 3e 1f d6 25 be 84 00 dc 3d d8 2a f3 3d
       0.15424326 -0.16194962 0.10742286 0.11873406
0000e0 74 b2 be 3d 3d 0a 24 be e1 ca 37 bd 57 28 47 3d
       0.09311381 -0.1601953 -0.044871215 0.048622455
0000f0 29 4e 1c be 87 f7 ca bd 79 99 e9 3d d6 3e 2b bd
       -0.1526419 -0.09910493 0.11406226 -0.041807972
000100 36 5b ea bb 71 f0 3d be 37 a1 9b bd b1 23 c0 bd
       -0.0071519865 -0.18548752 -0.07599109 -0.093818076
000110 dc 8e 8b be 74 72 d2 3d 54 e2 b1 3d c6 bf ac 3d
       -0.2725743 0.102757365 0.08685747 0.084350154
000120 79 c4 47 bd de c4 7f 3d 16 62 1b be 1c b8 80 bd
       -0.048771355 0.062443607 -0.15174136 -0.06285116
000130 5e 19 64 3d 94 da 80 3c d4 7e 65 bd 0a 17 94 3d
       0.055688255 0.015729226 -0.056029156 0.07230957
000140 00 90 aa bd d8 6c 04 be 45 c2 a1 bd fe d8 a1 3d
       -0.08328247 -0.12932146 -0.07898382 0.07902716
000150 ac 1e 10 3e 88 34 cc 3c 7a 6e 89 bd e0 13 9b be
       0.140742 0.024927393 -0.06710525 -0.302886
000160 48 b1 63 3e 88 3f c7 bb ba 41 e0 3c 81 56 80 3e
       0.22235596 -0.0060805716 0.02737509 0.25065997
000170 0c 54 3a be 8f 2b 93 3d b0 42 ce bd f1 1d ee 3d
       -0.18196124 0.071860425 -0.100713134 0.116268046
000180 da 72 9e bc df 94 d6 3c 51 46 63 be 30 d3 87 bd
       -0.019341875 0.026194034 -0.22194792 -0.06632078
000190 2a 64 a3 3c 0f a7 48 3d 22 00 6e bc ea 62 ae bd
       0.019945223 0.048987444 -0.014526399 -0.0851496
0001a0 10 ea 8c bb 3a 64 e9 3c 20 f2 42 bd 45 c6 11 3e
       -0.0043003634 0.028490175 -0.04759419 0.1423579
0001b0 c8 51 14 bb 25 b3 b7 3d 62 45 25 be 00 61 9c bd
       -0.0022631753 0.08969716 -0.16139749 -0.07635689
0001c0 e0 c7 b2 3d e2 7c 3c bd 88 5a 11 3d c3 6e 1e be
       0.087295294 -0.046017535 0.035486728 -0.1547194
0001d0 14 ac 1f be 03 f3 3a 3e e1 ac d2 bc b6 ea 92 3d
       -0.15592986 0.18256764 -0.0257172 0.07173674
0001e0 d4 74 f8 bb d2 b8 14 be 42 82 54 be 7e 89 2a be
       -0.0075822864 -0.14523628 -0.20752814 -0.16654012
0001f0 09 e8 4d be b2 6d bf 3d 54 fd 5a bc e6 1d 16 3d
       -0.20108046 0.093470946 -0.013366062 0.036649607
000200 00 8e 48 bc 34 c5 4e be b3 01 19 3e c5 0a d0 bd
       -0.012240887 -0.20192415 0.14942054 -0.10158304
000210 80 a2 87 ba c8 8c 54 3d a9 f1 3d 3d 87 bf 8b 3d
       -0.0010348111 0.051892072 0.046373043 0.0682364
000220 98 5d 2b bd 6f 9a 0e 3e 47 00 65 bd 31 04 90 be
       -0.041837305 0.13926099 -0.055908468 -0.28128198
000230 c1 b0 b1 bd 8a 70 c0 bc 11 2a 3c bd dc 44 ed 3d
       -0.08676291 -0.023491163 -0.045938555 0.115853995
000240 68 57 9d bd 15 36 9b bd 4a 90 94 3d f2 c9 54 3d
       -0.07682687 -0.07578675 0.072540835 0.051950403
000250 00 b2 91 bd 32 c1 3b bd d5 57 5c bd 64 d6 41 bc
       -0.07114029 -0.045838542 -0.0537947 -0.0118309
000260 44 47 b2 3d 70 1a 01 be 52 d3 38 be 69 f0 16 3e
       0.08704999 -0.12607741 -0.18049362 0.14740147
000270 e2 c0 ee bd 04 b5 5e bd 5a e2 00 3d ef 2c 24 3e
       -0.11657883 -0.05437185 0.031465866 0.16032766
000280 4b fb 1e 3d c4 51 f2 3c 1e b3 32 bd fc 98 22 3d
       0.03881387 0.029580005 -0.04362785 0.03969668
000290 3a be 7b 3d b8 af a5 3b ff e7 1e be 6c eb 3b 3c
       0.06146071 0.0050563477 -0.15518187 0.011469703
0002a0 ae dc 57 bd f7 96 75 bd 59 7f 68 bd 65 01 a8 3d
       -0.05270069 -0.059958424 -0.056762073 0.08203391
0002b0 5e 65 87 bd 0e 62 7a 3c d5 25 c9 bd 7c fb 26 3e
       -0.06611131 0.015282167 -0.09821669 0.16306871
0002c0 bb 16 06 3e 2d d9 07 bd a8 1e d6 3b 60 bf a0 bd
       0.13094608 -0.0331661 0.006534416 -0.07849002
0002d0 6d f1 94 bb 2a c9 51 bc c1 54 c5 bd f0 7c ea bd
       -0.0045453818 -0.012804309 -0.09635306 -0.11449611
0002e0 88 b2 35 bd 44 52 83 bd 74 c5 4d 3e a5 7d 30 3e
       -0.044359714 -0.06412175 0.20094854 0.1723543
0002f0 30 1b 16 3c 95 8e c1 bd 3e 42 33 bc 58 fb d7 3d
       0.009161755 -0.094510235 -0.010941086 0.10545987
000300 30 68 d5 3c aa 67 89 3d 48 ef 53 be fd 2f 11 be
       0.026050657 0.067092255 -0.20696747 -0.14178462
000310 74 bd 60 be 86 fc 56 3d 74 45 0a 3d 5d 36 02 3c
       -0.2194727 0.05248692 0.033757642 0.0079475315
000320 34 4b c5 bc 78 7c ec 3d 03 04 80 be b0 d6 a2 bb
       -0.024083711 0.11547178 -0.2500306 -0.0049694404
000330 2a de ea bd 16 dd 19 bd 90 35 e2 bb d8 5f 0d 3d
       -0.11468156 -0.03756436 -0.006903358 0.03451523
000340 8a 1c 0d be d4 ff ca bd 80 19 64 bd 82 f0 d4 3d
       -0.13780418 -0.099120766 -0.05568838 0.10397436
000350 2d 11 e0 bd 8b 3b f1 bc c6 7e b2 bb 40 85 2e 3e
       -0.10940776 -0.029447338 -0.0054472415 0.17043018
000360 90 b3 eb bb c4 45 d5 3c 4f 1e f4 bc 12 5d b0 3c
       -0.0071930364 0.026034243 -0.029799609 0.021528754
000370 00 ab ee bd 9b ea f7 bd df 84 bd bd b8 19 a4 bd
       -0.116537094 -0.12105294 -0.09253859 -0.08012718
000380 5f 31 f2 bd 4c 5c 36 3e f6 a9 e0 3d be 9b 99 3d
       -0.11825823 0.17808646 0.109699175 0.075004086
000390 5b 2e 05 be 79 63 c2 bd a6 be 88 bc ce c1 04 bd
       -0.13005964 -0.09491629 -0.01669247 -0.03241139
0003a0 8e 74 5a 3e 43 5a 04 be 4e 74 c4 bd 9c ef 18 bd
       0.21333525 -0.12925057 -0.09592496 -0.037337884
0003b0 40 ef 33 be 32 06 1e 3e d8 17 1b 3e 09 fa 4e 3d
       -0.17571735 0.15432051 0.15145814 0.05053142
0003c0 f8 66 69 bd 0c 00 cb 3d 77 47 1a be cd f2 69 3c
       -0.056982964 0.09912118 -0.15066324 0.01427908
0003d0 80 6a 15 3d 36 b3 14 3e f6 32 84 3e 60 49 1e 3e
       0.03647852 0.14521489 0.2582013 0.15457678
0003e0 89 7a d6 3d 51 94 ba 3d ce 0b 8e bd 15 35 14 3e
       0.104725905 0.0911032 -0.06935845 0.14473374
0003f0 8b 2a 47 be ed 3e 04 be 3a 2b ac bd 74 b7 60 bd
       -0.19449823 -0.1291463 -0.08406682 -0.054862455

fc2.bias f4 [84]
000000 4a 9a 84 3e c1 00 19 bc a8 f5 0f 3f 47 ee 2a bc
       0.25898963 -0.009338559 0.56234217 -0.010432786
000010 85 82 a4 3e ec 75 0d bd 5a 86 8c 3e 47 b0 1d be
       0.32130828 -0.034536287 0.27446252 -0.15399276
000020 88 b7 38 3f 9a 18 78 bd 54 1f ce bd ec 93 17 3d
       0.72155046 -0.060570337 -0.10064569 0.037006304
000030 0f fb ab 3e 96 40 ab 3e 7c cf d4 3e 0a b7 01 3e
       0.3358998 0.33447713 0.41564548 0.1266748
000040 91 23 3e 3f 1c 9d 54 3f 30 7e af bd fe 8c 3e 3f
       0.7427302 0.8305223 -0.0856899 0.74433887
000050 06 d7 ba 3e d9 92 8d bd 9d 37 d1 bb 91 28 c5 3e
       0.36492175 -0.069127746 -0.0063848034 0.38507512
000060 1c 39 7d 3e 11 cb 32 3e 90 22 2a be 47 8d f1 3c
       0.24728817 0.17460276 -0.16614747 0.029486312
000070 20 89 ce 3e b4 d4 be 3e 84 01 84 3e 16 0e 3e 3e
       0.40338993 0.37271655 0.25782406 0.18560061
000080 1d 69 7b 3d 00 12 7c 3b d5 64 2f 3d 17 b9 65 3e
       0.06137954 0.0038462877 0.04282077 0.22433887
000090 90 40 b5 3e 99 9a fc 3e 5c 5c ca bd a8 e4 86 3d
       0.3540082 0.493367 -0.098808974 0.065865815
0000a0 d9 18 f8 bd 91 5f 6d bd 00 6e 25 be 4b 3f 1f 3f
       -0.12114114 -0.057952467 -0.16155243 0.6220595
0000b0 2c 84 c3 bc 26 4f df 3d 30 2d 14 3e 97 8f 38 bc
       -0.023866735 0.10903768 0.14470363 -0.011264703
0000c0 12 68 a8 3d 02 53 24 bd 5a bb b6 bc 24 31 bd 3c
       0.08222975 -0.040118225 -0.022306133 0.023094721
0000d0 b4 73 86 3e d8 7e 05 bd e1 53 a5 bc b7 e6 61 3e
       0.2626015 -0.03259167 -0.020181598 0.22060667
0000e0 42 f0 96 bd bb 6e 5b 3e 14 b2 98 3e 28 ea 06 3f
       -0.07370044 0.21428959 0.29823363 0.52701044
0000f0 fe 9f f7 3e d2 8c b9 3e 7a 80 2e 3e 3e 91 89 3e
       0.48364252 0.3624025 0.17041197 0.26868623
000100 00 9c 10 3e c7 e5 cd 3d 0f 02 3a bd e5 f9 68 3e
       0.1412201 0.10053592 -0.04541212 0.22751577
000110 78 a7 10 be ca 75 0b 3f cc 98 28 be bc 2e 17 3e
       -0.14126384 0.54476607 -0.16464537 0.14763921
000120 da 6b f1 bc 54 c3 15 3f 32 55 c8 3e 6a d0 fc 3c
       -0.029470373 0.5850117 0.391275 0.030861098
000130 20 51 25 3d 90 77 99 3d a9 01 52 3e 62 ed 38 be
       0.04036057 0.07493508 0.20508446 -0.18059304
000140 ff f2 d4 3e a4 06 2d 3e 45 a2 ff 3e 19 73 db 3d
       0.4159164 0.16897064 0.4992849 0.107153125

fc3.weight f4 [10, 84]
000000 ba 16 cc 3c f7 70 cc bc e2 64 09 3e 2c a0 af 3d
       0.02491318 -0.02495621 0.1341739 0.08575472
000010 57 86 11 3e 4f ba c6 bd f5 a4 8b bd 39 cf 4c 3e
       0.14211403 -0.09703504 -0.068185724 0.20000924
000020 63 e8 17 be f9 b4 06 3e 68 a0 1a bb 22 cb 27 3e
       -0.14834742 0.13154973 -0.0023594145 0.16386083
000030 bb ff f8 3d 68 25 7f be da 86 51 3e c8 d1 23 3e
       0.12158152 -0.24916613 0.20461598 0.15997994
000040 4f 69 ca be 77 8c 97 be a3 a9 9b bd 18 2d 3a be
       -0.3953347 -0.29599354 -0.07600715 -0.18181264
000050 b7 0b bc bc 81 f6 48 3e e8 06 52 3e 58 84 29 3e
       -0.022954805 0.19625284 0.20510447 0.16554391
000060 ca ed 8a 3d cf fc 83 bd 14 13 74 3d 22 2a 7f 3e
       0.06783636 -0.06444704 0.059588507 0.24918416
000070 d1 56 fa bd cc ee f7 bc b4 02 7a be 35 a6 7a be
       -0.1222359 -0.030265234 -0.24415094 -0.24477465
000080 8d 62 38 be 36 3f 2c bc c3 ca 24 3d b8 3b 19 3d
       -0.18006344 -0.010513118 0.04023243 0.037410468
000090 5e 02 a5 bd 33 7d c5 bd be 7f c6 3d 58 dd 15 be
       -0.08057092 -0.096430205 0.09692334 -0.14635217
0000a0 d9 63 3b be 4e 71 3c 3e 55 8a 6f 3e d0 6a 98 3d
       -0.18299808 0.18402597 0.23392613 0.07442248
0000b0 99 ee f3 bd 7a fb 13 3e 7e e6 11 bd ae 17 ea bd
       -0.11910743 0.144514 -0.035620205 -0.11430298
0000c0 7e 13 22 3e 16 ff 8b 3c 4c 40 9d 3e bc 61 5a 3d
       0.15827748 0.017089408 0.30713117 0.053315863
0000d0 8c 52 4b 3d fb 3d e1 3d ce c7 e6 bd 8c b9 fa 3d
       0.04963927 0.1099815 -0.112685785 0.122424215
0000e0 5a 84 83 bd 20 a3 32 bb a0 41 d8 3c 0a cc 1e bc
       -0.064217284 -0.0027257875 0.02639848 -0.009692201
0000f0 ae b3 7f 3e c0 de f2 3c a4 92 82 be 90 2b ba be
       0.24970886 0.029647231 -0.25502503 -0.3636136
000100 a3 12 79 3d 76 03 98 be 17 31 14 3e 9a 09 14 3e
       0.06080879 -0.2969014 0.14471851 0.14456788
000110 c0 5c 0a 3e 50 bd ee bb d8 af ed 3d 0c 9f 55 3e
       0.13511944 -0.0072857514 0.11605805 0.20861453
000120 6b 4d a3 ba e6 1f 87 3c 9a ce 91 3e 6a 08 a1 3d
       -0.0012458985 0.016494703 0.28477937 0.07862933
000130 bb aa 46 be 44 a0 1a 3d c6 1b a3 bd 18 3e 42 3e
       -0.19401066 0.037750497 -0.07964282 0.18969
000140 8c 4b a9 3e be 13 f4 3d 1c b2 98 3d 2b 82 53 3d
       0.3306545 0.11917828 0.07455847 0.05163781
000150 6f 1b 43 be 6d 81 11 3e 44 b8 4f bc 58 0f 18 3b
       -0.19053434 0.14209528 -0.01267821 0.0023202505
000160 d0 98 ec bd 98 f9 be bb d7 80 34 be 04 97 4a be
       -0.11552584 -0.0058280937 -0.17627273 -0.1978417
000170 59 57 a7 be 3a df d1 3d e1 26 b9 3d f5 fa 0a be
       -0.32683828 0.10247655 0.09040619 -0.13572295
000180 12 07 99 3c 00 78 1c 3d 22 cd ec 3d f2 8f 0c be
       0.01868013 0.03820038 0.115625635 -0.13726786
000190 f6 e1 54 be f6 6f d9 be 16 77 f1 3c bf 7f 82 be
       -0.20789322 -0.42468232 0.02947573 -0.25488088
0001a0 f1 60 ca 3c fe fa 0a 3e 44 cf 4b 3d 50 73 e6 be
       0.024704428 0.13572308 0.04975821 -0.4500985
0001b0 b0 dc 63 3d 8b 20 99 3d 6e 37 9a bd 62 b7 71 bd
       0.055630386 0.0747691 -0.075301036 -0.059012778
0001c0 04 6d 05 be 6c 46 87 bd 79 10 b3 3d 9e 44 26 3e
       -0.13029867 -0.06605229 0.08743376 0.16237113
0001d0 c2 2b c5 3d c7 d7 1c 3e 7a b2 89 3d 3e d9 c3 bd
       0.09627487 0.15316688 0.06723495 -0.0956292
0001e0 21 3e ae bd a1 2f 2d 3d 5a 73 48 3e 9e 42 0a be
       -0.08507944 0.04228175 0.19575253 -0.13501975
0001f0 d6 e9 e3 3c e9 a9 87 3d 0d c9 cd bd ea 98 4b be
       0.027821463 0.06624205 -0.10048113 -0.19882551
000200 73 2b 7e 3e 2c b7 ee bd fa cd b8 3e e8 f7 89 bd
       0.24821262 -0.11656031 0.36094648 -0.067367375
000210 18 28 f4 3d 4a 19 a6 3d 4a 9a ad bc 55 7d 03 bd
       0.1192171 0.08110292 -0.021191735 -0.032101948
000220 96 2b 90 be dc 1b 2d be 7f 4d f2 3c 9b c4 e1 bd
       -0.28158253 -0.16905159 0.029577969 -0.11023828
000230 44 f3 55 3e 5f e7 06 bd ff f7 0b be c4 a6 0f bd
       0.2089358 -0.032935496 -0.13668822 -0.03507115
000240 3c 3e 25 3e da 2c 3f 3c 35 83 02 3e 18 ba 28 be
       0.16137022 0.011668408 0.12745364 -0.16477239
000250 6e 53 b1 3e 30 64 1f 3e da 02 87 3e fe 6e d8 3d
       0.34633964 0.15565562 0.26369363 0.10568045
000260 3a ea 6b 3e 7e 93 09 bd 22 9c 59 3e bc 1b 9f 3c
       0.23038569 -0.033587925 0.21250966 0.019422404
000270 c8 33 d8 3d d3 80 4c be 78 49 84 3e 85 75 99 3e
       0.105567515 -0.19971018 0.25837302 0.29972473
000280 ed a8 03 bd 9c 2e d4 3d 97 8a 18 3e 94 da 35 3e
       -0.032143522 0.103604525 0.14896618 0.17759162
000290 0e 45 87 3e f0 ae 0d be 7c 74 51 be f8 7f 67 bd
       0.26419872 -0.13836265 -0.20454592 -0.056518525
0002a0 32 c1 67 3e 66 5b 14 3e a8 b0 c2 bd a1 37 c9 bd
       0.22632292 0.1448799 -0.09506351 -0.098250635
0002b0 e6 f2 5d be 6c 74 6e bd 20 12 57 3e 20 3d 23 3e
       -0.2167469 -0.058216497 0.21003008 0.15941286
0002c0 34 2e 14 3c 72 34 b7 3d 18 8a c8 3c 98 45 89 3d
       0.009044219 0.0894555 0.02447991 0.06702727
0002d0 48 92 93 bd c6 3d 19 be d5 ce a3 bd 70 df 32 3e
       -0.07205635 -0.14964971 -0.079984345 0.17468047
0002e0 37 ae cc 3d 76 88 80 3e 33 10 c6 3d 4b da 70 3e
       0.09994166 0.2510411 0.096710585 0.23520772
0002f0 14 4d 3a be 12 5e c7 3d 80 ba 46 3d bb f6 b3 3d
       -0.18193465 0.09734739 0.048517704 0.087872945
000300 a0 3b 75 3e ee b2 cd bd 18 c4 70 3e 9c 6c 3b 3e
       0.23948526 -0.10043894 0.23512304 0.1830315
000310 ef 9d 31 3e 97 41 17 be b7 8a 53 3e 5d 06 94 bd
       0.17345403 -0.14771114 0.20658384 -0.07227776
000320 17 e8 f8 bc 99 16 69 bd da 2a 50 3e 36 de df bd
       -0.030384107 -0.056906316 0.20328847 -0.10931055
000330 f6 d8 61 be c8 f5 64 3d 25 0e 54 bd 9e aa 1f 3e
       -0.2205542 0.055898458 -0.0517713 0.15592429
000340 be 8b a8 3d a4 0b 1b 3c 9a 98 8c 3d 74 e5 4f 3e
       0.08229779 0.009463225 0.06865044 0.20302373
000350 c6 90 97 bd 8c 4d 06 3d e7 3f 89 bd d5 4a 51 3e
       -0.0740066 0.0327888 -0.067016415 0.20438702
000360 bd b1 64 bc 4b 21 58 3e 98 97 65 3e 2f 8f 18 3e
       -0.013958392 0.2110645 0.2242111 0.1489837
000370 ee b2 8e 3e c2 98 d2 bc 9b 91 76 3e e8 39 48 3e
       0.27870888 -0.025707606 0.24078982 0.1955334
000380 e6 15 b5 3b 8f 42 9b bc 80 74 00 bd 0a 4c bd 3d
       0.005526292 -0.018952636 -0.031361103 0.09243019
000390 5b 2c 8e be 1a 40 ae bd fa 92 1b bc 5a 44 7c 3e
       -0.27768216 -0.0850832 -0.009495491 0.24635449
0003a0 73 d2 34 be 6a 2e e2 3c 60 de e7 bc 3e 72 c7 3d
       -0.17658405 0.027610023 -0.028304279 0.09738587
0003b0 de 57 fb 3c fa 36 38 3e b0 67 98 bd 58 20 3a 3e
       0.030681547 0.17989722 -0.07441652 0.181764
0003c0 44 c0 28 bd 33 10 08 3d 38 5f 4e be 64 6c 05 be
       -0.041198984 0.033218574 -0.2015351 -0.13029629
0003d0 bf 95 07 3e 01 c4 11 be 0a 79 b1 bc 9f 78 3b 3d
       0.13240717 -0.14234926 -0.021664161 0.04576933
0003e0 14 17 34 3d df ab 90 3c aa 2f 13 3e 96 d5 28 be
       0.04396732 0.01766008 0.14373651 -0.16487727
0003f0 6c bf 0d 3e a4 79 e7 3d c0 a2 89 bd c5 39 40 3d
       0.13842553 0.11302498 -0.06720495 0.046930093

fc3.bias f4 [10]
000000 41 de dc be 32 f1 95 bf ca 55 8a be 28 70 5a 3f
       -0.43138316 -1.1714232 -0.27018577 0.85327387
000010 4f c1 22 3f ac 19 a1 3d da e7 8d 3d a4 4c 51 be
       0.63576216 0.07866225 0.06928988 -0.20439392
000020 2a e8 07 3f 7a ec 90 be
       0.5308863 -0.28305417
