client_api_workspace/site-1/cifar_net.pth (torch, 251604 bytes, 10 tensors)

conv1.weight f4 [6, 3, 5, 5]
000000 65 3f 3e be a9 e9 ea be 4a e9 dd be 2b 40 87 be
       -0.1857887 -0.45881394 -0.43342048 -0.26416144
000010 a7 87 1a be dd f9 86 be 77 bc cb be d1 83 3a be
       -0.1509081 -0.26362506 -0.39792225 -0.18214346
000020 f0 95 0b be 8a c7 13 be ed 87 ff 3d ae 89 92 3e
       -0.13631415 -0.14431587 0.12477098 0.28620666
000030 c5 b3 0b 3f 25 e2 bd 3e aa 91 e7 3e 96 cf d8 3e
       0.5457118 0.37086597 0.4522832 0.42345876
000040 19 2e 0d 3f 2f ff 46 3f 84 23 24 3f bc 35 dd 3e
       0.55148464 0.7773313 0.6411669 0.4320506
000050 91 a5 d7 3e c2 af 73 3e 74 92 a3 3e 4a de 6f 3e
       0.42118505 0.23797515 0.31947672 0.2342464
000060 29 69 94 3e b6 0d 1c 3e e1 a2 4b 3e 46 8c ba 3d
       0.2898648 0.15239605 0.19886352 0.09108786
000070 71 05 98 3d 0d 77 4f 3e b1 a2 85 be 1a ac 47 be
       0.07422913 0.20260258 -0.26100686 -0.19499245
000080 81 d4 e9 bd 86 ed 8e bd c3 07 9b be 52 cf a2 be
       -0.11417485 -0.06978898 -0.3027936 -0.31798798
000090 32 1e dd bc ca cb 50 3c f8 23 21 be b7 f0 fa be
       -0.026991937 0.0127439 -0.15736377 -0.49011776
0000a0 78 e4 11 be 07 d1 a6 3d 42 50 aa bd 7d b1 71 be
       -0.1424731 0.081453376 -0.08316089 -0.23602863
0000b0 24 ed 1a bf 6a 2b e2 bd 1a 15 82 be a9 bf bd be
       -0.605181 -0.11043437 -0.25406724 -0.37060288
0000c0 61 f7 ba be 3d 0f b6 be 99 c8 8c 3e e0 de b7 3d
       -0.3651686 -0.355585 0.27496794 0.08978057
0000d0 9d 51 a9 3e 30 7c b5 3e ab dc 48 3e 08 a4 76 3d
       0.33070078 0.3544631 0.19615428 0.060215026
0000e0 f3 2f 03 3d 37 e0 69 3d 63 d6 89 3e b6 cc 04 3e
       0.03202815 0.057098594 0.26921377 0.12968716
0000f0 a6 28 02 be 02 d2 9c 3e aa 34 95 3e 6a 86 0d 3e
       -0.12710819 0.30628973 0.29141742 0.13820806
000100 d5 bc 04 be cd bd 50 3d b7 49 a9 3d 44 ce 25 bd
       -0.12962659 0.050962258 0.08266013 -0.040479913
000110 c7 63 6f be 4d 16 9d be 72 b4 76 3e fb 8a 5c 3e
       -0.23377906 -0.30681077 0.24092272 0.21537392
000120 7c 22 45 3c 1d 26 41 be f7 f3 10 bd 94 9e 44 3b
       0.0120321475 -0.18862195 -0.035388913 0.0030001746
000130 83 4d 85 3e 4d 2b c2 3e 4a 86 d6 3e 2b 3b f3 3c
       0.260357 0.3792366 0.4189933 0.0296913
000140 20 4a 77 be 38 2c 80 3e 92 d4 b8 3e f5 71 ad 3e
       -0.2414937 0.25033736 0.36099678 0.33876005
000150 20 26 c3 3d f1 cb 0d 3e e2 75 bc 3e e9 78 f9 be
       0.09528756 0.13847329 0.36808687 -0.4872506
000160 fe 66 82 3e e9 3b a2 3e d3 2e 8b 3e bd 05 f9 3e
       0.25469202 0.31686333 0.27184162 0.4863719
000170 9e 9e 94 bf b9 a4 8b 3d d8 53 21 3f 02 d6 9b 3e
       -1.1610906 0.06818528 0.6301856 0.30436713
000180 41 1b 3e 3b 0b 4f 7d bf 3e 2d 85 be 22 97 19 3c
       0.0029007944 -0.98948735 -0.2601108 0.009374412
000190 c0 d9 a6 be 4d 0f 63 be 37 05 ce be 78 cf a1 be
       -0.32588005 -0.22173806 -0.40238354 -0.316036
0001a0 03 5d 95 be 7c 18 76 3c c7 1e b8 bd af 53 f2 be
       -0.29172525 0.015020486 -0.08990245 -0.4732947
0001b0 e6 d8 3d be ba 50 4f be d6 b2 bc 3e 4c fb 6b 3d
       -0.18539771 -0.20245638 0.3685519 0.057612702
0001c0 62 a5 8b bf 9f 74 28 3d b4 f5 d4 3c e1 fd 04 3f
       -1.0909846 0.041126844 0.025996067 0.5194989
0001d0 fc 3e 9e 3e 90 fe c8 bf cf 2f 23 be ae 27 22 3f
       0.30907428 -1.5702686 -0.15936206 0.63341796
0001e0 d0 26 eb 3e a1 d4 01 3d 27 ee 8a bf 30 c1 72 be
       0.4592805 0.03169692 -1.0853928 -0.23706508
0001f0 57 5e 78 3e 29 35 11 3d 5a 1b 91 3d 7e 43 af 3c
       0.24254738 0.035451088 0.07085295 0.021394487
000200 71 b6 3f 3e 33 bc 68 3d 4b 77 07 3d 45 fc d2 bd
       0.1872194 0.056820106 0.03307275 -0.10302023
000210 2b 35 00 be da 88 31 3d 69 3c 85 bd 7c b0 13 3e
       -0.12520282 0.043343402 -0.06505663 0.14422792
000220 1c d0 a4 3e 05 43 44 bf a1 f2 69 3e 99 1e a9 bd
       0.32190025 -0.76664764 0.22846462 -0.08257789
000230 0f c8 1a 3f 44 9a 00 3f 6d d2 a4 bf ca 25 ed 3d
       0.60461515 0.5023539 -1.2876717 0.11579473
000240 f9 49 83 3e d6 07 53 3f a3 20 40 3f 1a 40 20 bf
       0.25642374 0.8243383 0.750498 -0.6259781
000250 a9 f6 0f bc 63 e6 ff bd ef a7 46 3d 20 a3 d8 3d
       -0.008786836 -0.12495115 0.048499998 0.105779886
000260 23 15 bb be 4d 59 9b be 02 c7 12 3d 93 12 e5 bd
       -0.36539564 -0.3034157 0.03583432 -0.111851834
000270 57 e7 c6 3e ea a8 a0 3f 6f d3 3e 3f aa 41 45 3e
       0.38848373 1.2551548 0.7454137 0.1926333
000280 f7 d3 9d be 68 ab 03 bf af 0d a5 bc 32 66 8f 3d
       -0.3082578 -0.5143342 -0.020148126 0.07001914
000290 10 c5 a5 be 15 a8 30 3e 4a 5e 25 bf 91 df 88 bf
       -0.3237691 0.17251618 -0.64597 -1.0693227
0002a0 bf fe 68 bf 4d 58 5c be f8 fb 2e 3e 04 f3 85 3e
       -0.9101371 -0.21518059 0.17088306 0.2616197
0002b0 c2 69 45 3e a2 a6 9c 3e dc eb 2a 3e d9 3c b1 3d
       0.19278625 0.3059588 0.16691536 0.08654184
0002c0 dc 8c 0a bd 27 12 87 be 1e 9a d9 be 8c 16 7f 3e
       -0.03382574 -0.26381037 -0.42500395 0.24910945
0002d0 83 f7 f3 3d f9 20 3d 3f d2 5a c9 3f d6 32 56 3f
       0.119124435 0.7387844 1.5730841 0.8367132
0002e0 ec 37 8f 3e 8f 8d 01 be 6e 5d 31 be 8d 9a e2 3e
       0.27972353 -0.12651657 -0.17320797 0.44258538
0002f0 22 36 03 3f 9d 19 b8 bc b3 08 55 3d 73 00 f2 be
       0.51254475 -0.02247315 0.05201025 -0.47265968
000300 30 f6 67 bf 93 11 4a bf 92 1f 58 be 5b 64 81 be
       -0.9061003 -0.78933066 -0.21105793 -0.25271878
000310 4d 96 b6 bd f4 d1 81 bd 7f 6c 5d be 93 60 f2 bd
       -0.08915386 -0.063388735 -0.21623419 -0.11834826
000320 47 ca 42 be f0 00 ae be a2 7c 83 bf e4 02 87 bf
       -0.19022475 -0.3398509 -1.027241 -1.0547757
000330 93 99 b2 be cf 62 ae bd 32 11 8f 3e 52 f3 40 3f
       -0.34882793 -0.0851494 0.27942806 0.7537128
000340 61 0d bb 3e d8 c7 0f 3d d8 99 b4 3d 69 fc 3e be
       0.36533645 0.035102695 0.08818406 -0.18650974
000350 2d 06 fb 3d 90 0b ab 3e 32 c1 88 3d ec b6 87 3e
       0.12257037 0.3340726 0.06677474 0.26506746
000360 fd e2 d6 bd 61 e6 24 bf cb a5 df be 86 57 ca 3d
       -0.10492513 -0.6441403 -0.43681177 0.09879975
000370 12 7c 74 3d c8 61 6f 3e 28 ba ba 3e 4a 77 c0 3e
       0.059688635 0.23377144 0.3647015 0.3759101
000380 1a 56 b3 3e c8 ed 1f 3e c4 b5 cd 3d 39 61 06 bd
       0.35026628 0.1561805 0.10044435 -0.032807563
000390 07 ee 9b 3c 41 46 cd 3c 58 30 32 3e 6c 81 b7 be
       0.019034399 0.025057914 0.17401254 -0.3584093
0003a0 35 13 54 be 38 45 99 3e 5e 89 3d be 77 c9 96 3a
       -0.20710452 0.29935622 -0.18509433 0.0011504133
0003b0 cf ea 23 bf a3 fd 37 bd f0 18 25 3f 61 a1 7c bb
       -0.64030164 -0.04491962 0.64491177 -0.0038548338
0003c0 ac 4c 43 be d0 5d e8 be 42 9f aa 3d 4b ce 99 3e
       -0.19072217 -0.45384073 0.08331157 0.30040202
0003d0 5c d2 23 bd 66 19 39 bd 74 52 df bd bf 6e 9a 3b
       -0.039995536 -0.045190237 -0.109043986 0.004712909
0003e0 24 a0 4b 3d d9 64 16 3e 4b 1c 80 3d 81 dc b5 bd
       0.04971327 0.14686908 0.062553965 -0.088799484
0003f0 84 ce 0d bd 05 d9 02 3e 7c df da 3d 51 eb 62 3d
       -0.034620777 0.12778099 0.106871575 0.055400196

conv1.bias f4 [6]
000000 09 df 54 3e 8c e8 cd be 37 3c e6 be 02 e7 90 be
       0.20788206 -0.40216482 -0.44967815 -0.28301245
000010 dd 08 89 bd 4a bb 03 3f
       -0.06691144 0.51457655

conv2.weight f4 [16, 6, 5, 5]
000000 e8 cd 7e 3e 6a 6c 4e 3c 24 02 33 bd 28 80 ff bc
       0.24883235 0.01259909 -0.043703213 -0.03118904
000010 ee 4c 4f be a5 15 79 3e 83 70 3f 3e 41 c9 6c bc
       -0.2024419 0.24324663 0.18695264 -0.01445228
000020 5c c7 43 be 58 e9 61 be de 96 d7 3e c7 3f e5 3e
       -0.19119018 -0.2206167 0.4210729 0.4477522
000030 79 11 df 3e ff f7 93 3d d8 49 2d be 6b a3 c3 3d
       0.43568018 0.07225036 -0.169227 0.09552654
000040 e2 f2 cd 3d e9 b1 43 3e 98 16 b2 3e 1d fe c8 3d
       0.10056092 0.19110836 0.34782863 0.09814093
000050 d0 91 38 3d a3 23 91 bd 04 c0 b5 ba 4a 07 94 3a
       0.045060933 -0.07086875 -0.0013866429 0.0011293676
000060 9b f9 a5 bd 84 78 d7 3d 30 84 ea 3d 64 3b 49 3e
       -0.08104249 0.105210334 0.11450994 0.19651562
000070 00 d9 b1 bd be 6c f7 bd 8f 08 bb bd cc 0e 4a be
       -0.086839676 -0.12081288 -0.09132492 -0.19732207
000080 66 e4 93 bd 21 97 26 be 6a 5a ca be eb e1 5f be
       -0.07221298 -0.16268589 -0.39522105 -0.21863525
000090 20 b4 12 bf 91 07 f8 be f3 fd d4 bc f4 f4 ff 3d
       -0.573061 -0.48443273 -0.025999999 0.12497893
0000a0 ba 6c 6f be ae 12 02 be b6 cb 7e be f4 7b 98 be
       -0.2338132 -0.12702438 -0.24882397 -0.2978207
0000b0 78 69 5e bd e3 4d f4 bc a2 cb 20 3e 4b f0 0c 3e
       -0.0542998 -0.029822296 0.1570268 0.1376354
0000c0 61 d0 92 3c 42 f4 7f bd c7 54 4a 3e 1a 3f 08 be
       0.017921628 -0.0624888 0.19758902 -0.13305321
0000d0 56 74 1c be 1c 81 c4 bd 09 61 42 3e d8 45 6c 3e
       -0.15278754 -0.09594938 0.18982328 0.23073518
0000e0 03 05 c3 3d e5 d9 5d 3d 86 0e 81 bd ce 3f ce bd
       0.0952244 0.05416288 -0.06301598 -0.100707635
0000f0 52 0e 80 3e 65 37 6d bb f4 00 79 be ef 8e 31 3d
       0.25010926 -0.0036196348 -0.2431677 0.043349203
000100 49 4b 1e 3e 2d 4d 1f bc b0 f2 8c 3d a9 d7 91 3e
       0.15458407 -0.00972299 0.068822265 0.28484848
000110 7b 25 40 3e 4e fb 4c bd 2e d1 24 bc 5c 1f a5 bd
       0.18764298 -0.05004435 -0.010059638 -0.08062622
000120 36 02 ed bd 55 bf fb 39 aa 1d 2c 3e 46 45 b1 be
       -0.11572687 0.00048017004 0.16808191 -0.34623164
000130 08 53 a2 be 4a fa 5a be 4f f1 bb be 50 6a 9c be
       -0.31703973 -0.2138454 -0.3670754 -0.3054986
000140 0e 98 4e bd fe 29 65 be a1 c7 84 be e2 fa 9a be
       -0.05043798 -0.223793 -0.25933555 -0.30269533
000150 b3 46 8f be fd cf c1 3d b3 1c 31 3d 3b fe 95 be
       -0.27983627 0.09463499 0.04324026 -0.29295525
000160 40 d3 b3 be 8b 51 94 be 92 5f a9 bd 32 e8 c4 3c
       -0.35122108 -0.28968462 -0.08270182 0.0240365
000170 73 50 09 3e 72 bb 23 be e2 92 92 be 5e 1c 3a be
       0.13409595 -0.15989473 -0.28627688 -0.18174884
000180 c6 a0 b8 bd dc 84 8d 3e f9 9a f9 3c b6 a6 ec bd
       -0.0901504 0.27640426 0.030469405 -0.11555235
000190 8a 46 87 3e 1d 81 2f 3e 0a cd 09 bc 23 02 bd bb
       0.26421005 0.17139097 -0.0084107015 -0.005768077
0001a0 b1 a4 80 3e 08 8e 07 3d 13 61 9b 3e 36 27 89 3e
       0.2512565 0.033094436 0.303475 0.26787728
0001b0 c7 d9 5b 3e ac 22 3d 3e eb 1e 28 be ba 3f 9f 3d
       0.21469794 0.18470258 -0.16418044 0.07775827
0001c0 ce 3a 7b 3e 93 ca 28 3e da 2b 67 3e 6c 3f 32 be
       0.24534151 0.16483526 0.22575322 -0.17407006
0001d0 49 55 03 be 58 22 75 bd 34 a7 90 3e 73 d4 cc 3e
       -0.12825502 -0.059847206 0.28252566 0.40005836
0001e0 05 d9 59 3c 22 aa bc bd 2b fe 72 be f9 04 a5 be
       0.01329637 -0.09212138 -0.2372977 -0.32230356
0001f0 a1 e2 00 bc a2 71 4a be d1 1a 0d be 21 8b 08 3d
       -0.007866533 -0.1976991 -0.13779761 0.03333581
000200 cd 88 15 be a1 4d b0 3c 36 48 f5 bd 97 e5 d1 bb
       -0.14602967 0.021521391 -0.11976664 -0.006405543
000210 56 39 14 bd 7f e1 19 bd d3 3c 5a 3d 54 d8 6b be
       -0.036187492 -0.037568565 0.053280663 -0.23031741
000220 89 f3 1d 3b d1 46 88 bd 47 70 e8 bd fc a1 80 3d
       0.0024101457 -0.06654132 -0.1134954 0.06280896
000230 81 ba 23 be 2b 08 92 3d b4 c3 1f 3e 38 7b 56 3e
       -0.15989114 0.07130464 0.15601999 0.20945442
000240 f2 39 9b 3d be 2b 1b bd d2 4d 1a 3e 56 a6 39 3e
       0.075794116 -0.037883513 0.15068749 0.18129858
000250 ee 20 85 3e d5 fe 5b 3e c8 07 3a bd 88 c7 e9 3d
       0.26001686 0.2148393 -0.045417577 0.11415011
000260 c5 bb a4 bb 8a c8 65 bb 2f ac 17 bc f9 00 5a bd
       -0.0050272667 -0.0035062158 -0.00925736 -0.053223584
000270 6d 98 c3 3d 03 82 bc bc 25 64 90 bd 44 73 22 3e
       0.09550557 -0.023011213 -0.07050351 0.15864283
000280 52 8e 36 3d 2d db 97 3d 81 de 01 be e7 79 24 bc
       0.04456932 0.07414851 -0.12682535 -0.010038829
000290 e4 8e bc ba eb 07 c7 bc 0a 4f 3a bc 03 e3 f0 bd
       -0.0014385846 -0.024295768 -0.011371383 -0.11762049
0002a0 1b fa 91 bd 08 f5 1d 3c 22 26 a7 bc ef 3c 7c 3d
       -0.07127782 0.0096409395 -0.020403925 0.06158155
0002b0 2e c7 78 3d 6d 11 60 bc 52 e7 f1 bd a3 63 52 be
       0.060736828 -0.01367603 -0.11811699 -0.20545821
0002c0 aa c6 e3 3d be 67 df 3e 6a 00 9d 3e 49 fb b3 3e
       0.111218765 0.43633837 0.30664378 0.35152653
0002d0 fd eb 18 bf 63 28 a3 be c0 71 b5 3d da 82 d5 3e
       -0.5973509 -0.3186675 0.08859587 0.41701394
0002e0 b8 05 9e 3e 7f 98 14 bf ff c8 95 be 4e 6e c1 bd
       0.30863738 -0.5804519 -0.2925491 -0.09444867
0002f0 c7 8c 61 3e 22 e4 aa 3e 84 4b e2 be 95 61 17 be
       0.22026359 0.33377177 -0.4419824 -0.14783318
000300 e5 46 31 bd 4e c0 91 bc 0e 64 4f 3e 77 bd 22 bf
       -0.0432805 -0.017791893 0.20253012 -0.6357035
000310 be 1c 48 be 35 74 89 bd 51 20 f5 b8 08 e0 40 3e
       -0.19542214 -0.06711618 -0.0001168853 0.18835461
000320 3c b9 e7 3d 68 a9 82 3c 94 29 c5 be 79 09 b2 be
       0.113146275 0.01594992 -0.38508284 -0.34772852
000330 7c 51 7b bb 70 2f 56 3d 80 c4 ca 3c 6f 68 96 be
       -0.003834813 0.052291334 0.024751902 -0.29376552
000340 3b 4c d9 be 27 db 7c be c1 4f 84 3c 77 f7 69 be
       -0.42440972 -0.24692975 0.01615131 -0.22848307
000350 91 b5 7a be 5d 57 d0 be 89 45 81 be 26 4c b0 3c
       -0.24483325 -0.40691653 -0.25248364 0.021520685
000360 cd db cf bd 81 3c 54 be 6a 47 b2 be 51 db a6 be
       -0.101493455 -0.20726205 -0.3482011 -0.325892
000370 62 f2 42 3e cc f4 29 3e 47 b1 c5 bd e6 03 a9 bd
       0.19037774 0.16597289 -0.096529536 -0.08252697
000380 be d7 b7 bd bc 35 99 bd 83 c4 85 be a4 69 46 be
       -0.089766964 -0.07480952 -0.2612649 -0.19376236
000390 4c 61 35 bd d6 91 26 3e 48 de 18 bd d8 67 44 be
       -0.044282243 0.1626657 -0.03732136 -0.19180238
0003a0 f5 18 ee bc 46 62 9b bd 38 ee 6c be 71 6a e4 3c
       -0.029064635 -0.075871035 -0.23137748 0.027882786
0003b0 93 0d 9c b9 47 a3 fa 3b ab cf 38 bd 67 1c 19 be
       -0.00029764752 0.0076488587 -0.045119923 -0.14952241
0003c0 74 5d 09 bd 9c 90 b1 3d ce ee fd bd b3 82 1b bb
       -0.03353639 0.0867016 -0.12399064 -0.0023729026
0003d0 52 c8 cf bd 18 54 de 3a ae f3 9a bd 0e 5f 41 3a
       -0.1014563 0.0016962318 -0.075660095 0.000737653
0003e0 9b 69 5c 3e e2 b7 ce 3b 38 ef 24 3e bb d0 06 3f
       0.2152466 0.0063085416 0.1610688 0.5266225
0003f0 4a e9 ff 3d 4b b5 12 be df 71 44 be bd 9c b2 bd
       0.12495668 -0.1432697 -0.19184063 -0.08721302

conv2.bias f4 [16]
000000 b0 21 50 bd 21 cc 17 3f 44 e1 c6 3f 8e 20 a5 bf
       -0.050813377 0.5929585 1.5537496 -1.290056
000010 27 d5 22 bf 46 19 0d 40 ca 17 58 be 93 46 34 bf
       -0.63606495 2.2046676 -0.21102825 -0.7042019
000020 e8 86 d3 3e 31 ba 48 bf 12 43 33 3f 3b 04 44 bf
       0.41313863 -0.78409106 0.70024216 -0.76568955
000030 54 7d bb bf 30 6c 0e 3e 98 90 16 3d 9b ec 80 bf
       -1.4647622 0.13908458 0.03675899 -1.0072206

fc1.weight f4 [120, 400]
000000 d6 b6 61 3d e7 b4 89 bd 44 67 a0 bd 6d 16 d2 bd
       0.055106007 -0.067239575 -0.07832196 -0.10258184
000010 fb 1b 63 ba 26 a0 fa bd 5d 42 8f bd 20 3b 9b 3d
       -0.0008663532 -0.12237577 -0.0699508 0.075796366
000020 c7 85 b8 bd ca 92 1d 3b c1 2a 9f bd 0e 49 15 be
       -0.09009891 0.0024043792 -0.077718265 -0.1457865
000030 d1 ff 81 3d d8 3f d7 3d bf 3d a7 3d 60 db ec bb
       0.06347621 0.10510224 0.08166074 -0.0072283
000040 ce 29 fb bb b1 e9 07 be ba db c3 bd d8 c7 d9 3d
       -0.0076648956 -0.1327274 -0.09563394 0.1063382
000050 85 5d 4f be ea 55 af bd 4d 1a 91 bd ef 18 16 be
       -0.20250519 -0.08561309 -0.070850946 -0.14657949
000060 6b 8a c8 bd 1e 39 af 3d 83 ec 8d bd a5 28 d7 3c
       -0.09792026 0.08555816 -0.06929877 0.026264498
000070 37 a7 ee bd 8a 0e fa bc 30 26 f3 3c eb 9e 85 bc
       -0.116529875 -0.03052451 0.029681295 -0.01631113
000080 72 71 14 bd 2a 03 03 3c 94 03 a2 bd 46 63 70 bd
       -0.036241002 0.00799636 -0.07910839 -0.058688425
000090 cf e2 68 3d cb db 13 3d fe 41 6d 3c 87 06 0d be
       0.056856927 0.036098283 0.014481066 -0.13772021
0000a0 3b 86 59 3d 55 f9 da 3d a8 d0 4a 3d 9f 13 a8 3c
       0.053106528 0.106920876 0.049515396 0.020517169
0000b0 85 0e b5 3d 0d f8 a7 3d de 5d ad 3d de 7e 5e 3d
       0.0884066 0.08201609 0.08465169 0.05432021
0000c0 e6 5b 36 3c 10 10 4b 3e f8 b1 91 3d 0d 5e 9e ba
       0.011130309 0.19830346 0.07114023 -0.0012082473
0000d0 49 d2 79 bd f5 2c e3 3c 06 56 c4 3d 7c 69 2b bd
       -0.06099156 0.027731398 0.0958672 -0.041848645
0000e0 3d 40 55 bd ad 17 41 bd f9 53 d4 3d 24 53 10 3d
       -0.052063216 -0.04714172 0.10367579 0.03523554
0000f0 c7 b8 c7 bc 3e 53 b5 bd 83 a2 48 bc 0c 94 20 bd
       -0.0243801 -0.08853768 -0.012245777 -0.03920369
000100 43 2e c2 bc 5a 0e 15 bc ac 64 82 bd 9a da bb bd
       -0.0237037 -0.00909766 -0.06366858 -0.09172554
000110 60 bc 0b be e2 34 2e be b9 a7 cb bd c4 3e 78 bd
       -0.13646078 -0.1701236 -0.099441 -0.060606733
000120 fc 79 b4 bd ce dd b6 bd 61 fb f3 bd 0e 38 38 3e
       -0.08812329 -0.08929025 -0.11913181 0.17990133
000130 7c 66 00 3e f1 d8 c8 3d 71 aa aa 3d e9 29 ef 3c
       0.12539095 0.09807003 0.0833329 0.029194789
000140 40 e4 63 3d 02 e4 24 3d 41 0d 93 bd 43 91 7a bd
       0.055637598 0.040256508 -0.07180262 -0.06117369
000150 43 9c 1f 3e dd 37 44 3d 14 21 0a be b3 62 ec bc
       0.15586953 0.047904838 -0.13489181 -0.028855657
000160 05 05 e3 3c d9 6a b3 3d 44 96 b4 bd be 8a de bd
       0.027712354 0.08760614 -0.088177234 -0.10866307
000170 04 e3 63 bd ce a2 05 3c 1f 25 43 bd 5d f1 df bd
       -0.05563642 0.008156491 -0.047642823 -0.10934708
000180 68 bf 60 bd 9b ea f2 3c fc ac ba bd 35 26 f0 bd
       -0.05487004 0.029652884 -0.091150254 -0.117260374
000190 0a f8 8b bd f4 da c6 3c cb 08 89 3d be 88 03 3d
       -0.06834419 0.024274327 0.0669113 0.03211283
0001a0 35 f9 d7 3d 5f 05 f5 bd 29 46 83 3d e4 6a 88 3d
       0.10545579 -0.11963915 0.06409866 0.06661013
0001b0 c7 f8 08 bc 65 de ef bd 78 10 32 bd 3e 19 ab 3d
       -0.008360094 -0.1171234 -0.043472737 0.08354424
0001c0 47 a9 70 bd 0a d4 85 3d c2 a8 02 be 25 09 11 3d
       -0.058755185 0.06534584 -0.12759688 0.03540911
0001d0 aa f5 0a 3d cb 94 6e 3d bf e0 a9 ba a2 25 12 be
       0.03392569 0.05824737 -0.0012960656 -0.14272168
0001e0 45 0f d4 bb d3 b0 1e 3d 27 3e 80 bb 3f 2e 86 3d
       -0.006471547 0.03874285 -0.003913659 0.065517895
0001f0 b0 6d 9b bd b3 85 92 bd d7 aa 05 be 28 e8 b6 bb
       -0.075892806 -0.07154407 -0.13053451 -0.0055818744
000200 21 57 b1 bd 85 59 0c be 68 38 50 bd 78 f0 00 3d
       -0.08659197 -0.13706024 -0.050835043 0.03147933
000210 de cc 3b be 79 85 4c 3b 47 ac 1a 3d b1 3e 0c be
       -0.1833987 0.0031207486 0.037761953 -0.1369579
000220 a6 77 51 be 87 0f 07 bd 89 b9 3e 3d 8e 70 91 3d
       -0.20455799 -0.032973792 0.04656366 0.07101546
000230 d8 21 62 3d 56 1c 4e bd 1e 43 aa 3d 9c 61 11 3d
       0.055208057 -0.050319992 0.08313583 0.03549348
000240 3c a3 82 3e 20 0b da 3d 51 08 4d 3e a6 0a fb 3d
       0.25515163 0.10646653 0.20022704 0.122578904
000250 a7 75 a9 3d 13 db a0 3e a8 ee 16 3e f7 3c 13 bd
       0.082743935 0.3141714 0.14739478 -0.035946812
000260 8f 09 a0 3d cd db 03 3e 6f 60 d8 3d 56 4d d7 3c
       0.07814323 0.12876816 0.10565268 0.026281994
000270 50 3e a4 3d 1b a2 c7 3d ed 7b bb b9 6b db 0b 3c
       0.08019698 0.09747716 -0.0003575975 0.0085362
000280 15 ea c3 3d 97 79 19 3e 69 0d f0 bc 3a f5 2a bd
       0.09566132 0.14987789 -0.02930327 -0.041737773
000290 b1 92 e3 3d 45 82 5d 3c e4 e3 cf 3d 6e a1 d9 bb
       0.111119635 0.013519828 0.101508886 -0.0066415584
0002a0 3e 3c 44 bc d2 5e a0 3c 63 50 7d 3d 48 49 8b bd
       -0.0119772535 0.019576464 0.06184424 -0.06801087
0002b0 27 17 cd bd 6d b0 0f be 70 2b 32 bd 50 43 fe 3d
       -0.100141816 -0.14032145 -0.043498456 0.124151826
0002c0 25 86 24 3d b0 3f 62 ba 4a a8 11 3e 3f 6c 4f 3e
       0.040166993 -0.0008630706 0.14224353 0.20256136
0002d0 41 df 30 bd 2f 39 7b bc 4e a2 f3 bb 10 37 06 bc
       -0.04318166 -0.015333458 -0.0074351197 -0.008191839
0002e0 ed 0e ab 3d f8 03 d6 bd 51 16 69 3d 72 6e 4e 3d
       0.08352456 -0.10449976 0.05690605 0.050398298
0002f0 ba 06 af 3c 2f 7f fc bd 01 ce 26 be dc c9 48 3d
       0.021365512 -0.12328946 -0.16289522 0.049020633
000300 7a 88 e0 bc 15 82 1b 3c 35 4e 43 bd 10 67 19 be
       -0.027408827 0.009491463 -0.047682006 -0.14980721
000310 cc 49 3f be 64 40 0d be 38 b9 e3 bb d2 ba de 3d
       -0.18680495 -0.13794094 -0.00694957 0.10875477
000320 ce 2c d3 3c 0c 06 85 bd 04 b7 31 3d e0 82 d7 3d
       0.0257782 -0.06495294 0.043387428 0.10523009
000330 ec 89 2f 3e 13 27 0c be ef a9 fc bc f2 cd 20 bd
       0.17142457 -0.1368678 -0.03084275 -0.039258905
000340 25 2d c8 3d 3d d1 76 bb 26 94 e0 bd 8c ae d9 bc
       0.09774236 -0.0037661337 -0.10965757 -0.026572488
000350 b0 db 0d bd e8 7a e2 3d 9a 58 95 bd a3 bc dc bd
       -0.03463334 0.11058599 -0.0729229 -0.10778167
000360 52 d3 c4 3a d2 72 07 3d 2c a3 e2 3c 2f 74 dc bc
       0.0015016592 0.033068486 0.027665697 -0.02691087
000370 b7 32 fa bc 2c 10 08 3e 0e a0 cf 3d ba 58 1b 3b
       -0.03054176 0.13287419 0.1013795 0.0023704008
000380 29 4a 73 3d f0 7f 8c 3b 1f e6 93 3d de 1c f8 bc
       0.059396897 0.0042877123 0.072216265 -0.030287202
000390 01 2c 81 bd 6d 59 ea 3c b0 d7 be bb b5 4d 0f 3c
       -0.06307221 0.028607095 -0.005824052 0.008746554
0003a0 48 00 1d bd 91 a4 ee bd e6 4f c9 bb c4 6a 80 bd
       -0.038330346 -0.11652482 -0.006143558 -0.06270364
0003b0 06 87 9e bd 79 dc 2c bd bd 55 1f 3b ed 6c a7 bd
       -0.077405974 -0.042202447 0.0024312579 -0.08175073
0003c0 bc e8 47 3d 58 68 51 be f0 33 3a bd 40 0e 0d be
       0.048805937 -0.2044996 -0.045459688 -0.13774967
0003d0 69 d2 a0 3b 8e cf 14 3e 5a 32 5f bd 97 91 68 3d
       0.0049078953 0.14532301 -0.05449138 0.05677947
0003e0 8d 42 fd 3c 9d 05 6d 3d 02 4d c8 3e 58 8b 89 3e
       0.030915523 0.05786668 0.39121252 0.26864123
0003f0 4d 59 de 3d ab 0d a5 3d c8 0a 0a 3e 1c f5 9d 3d
       0.108568765 0.080592476 0.13480675 0.077127665

fc1.bias f4 [120]
000000 46 df 0d 3d 09 4c 3e 3e 97 fb 6c bc 27 7f fe bd
       0.03463676 0.18583693 -0.014464281 -0.12426596
000010 8a 48 b8 3e 44 b4 59 bd a1 4d 3b 3e 8a 7b 80 be
       0.35992843 -0.05315043 0.18291332 -0.25094253
000020 28 58 c0 3d aa 27 85 3e ea f0 bc 3b 8d af fa 3d
       0.093918145 0.26006824 0.005766024 0.12240515
000030 0e 3e 35 be f5 dd 00 be 5b 3b 85 be 2f 9e b3 bd
       -0.17699453 -0.1258467 -0.26021847 -0.087704055
000040 4a 56 b8 bd 2a ee 32 3e d5 ec a7 bd 2c 7d b2 3d
       -0.09000833 0.17473665 -0.08199469 0.08715281
000050 62 b4 95 3e f3 4f aa 3d a0 dd 59 3d b3 a8 58 3e
       0.29239184 0.0831603 0.053189874 0.21158104
000060 77 4e d7 3e d0 c7 88 3e 6e 49 c0 3e 1e 11 02 be
       0.4205205 0.26714945 0.37556022 -0.12701842
000070 18 75 95 3d d0 c0 66 3b 51 55 ca 3c e7 fc f9 3d
       0.072977245 0.003521014 0.024698885 0.122064404
000080 1b 88 b6 3b 86 4f e2 bd d6 33 bb 3d ad bd 5e bc
       0.0055704243 -0.11050324 0.09140746 -0.013595027
000090 52 55 fd 3b b1 f0 91 be 0e 94 a3 3e 01 60 50 be
       0.0077311182 -0.28503945 0.31948894 -0.20349123
0000a0 90 d0 ea 3c 10 51 7e bd f3 62 e2 3e ab 66 82 bb
       0.028663903 -0.062089026 0.44216117 -0.003979524
0000b0 ed 7c a6 bd a9 02 72 3d fb 61 19 3e 9b 09 32 bd
       -0.081292965 0.05908457 0.14978783 -0.04346619
0000c0 b5 0b 63 bd 64 b3 25 3d 7e 63 54 bd 1c 7c ab 3e
       -0.055431087 0.040454283 -0.051852696 0.33493125
0000d0 44 ad 9d 3e ff 71 ae 3e f9 c3 ed 3d d4 79 4f bb
       0.30796254 0.34071347 0.116096444 -0.0031658309
0000e0 b2 82 9a bd 7c cc e1 3d 6f 4b 89 3d 8a 84 55 3e
       -0.075444594 0.110253304 0.06703841 0.20851341
0000f0 4f 99 32 be 7b 32 58 3e b2 68 02 3e 07 81 c9 bd
       -0.17441295 0.21113007 0.1273525 -0.09839063
000100 71 68 cd 3d 5a 2c d8 3d 64 c7 a3 bb 01 d7 35 3e
       0.10029686 0.105553344 -0.0049981344 0.17757799
000110 dd 27 43 be 85 e9 f7 bd 0b f8 58 be c1 b1 77 3d
       -0.19058175 -0.12105087 -0.21188371 0.060472254
000120 cf 1a ac 3e e2 1c 80 bd 80 d5 95 be d1 ed d7 3d
       0.33614203 -0.06255509 -0.2926445 0.10543407
000130 cc 5b 3b 3d bf 36 28 3e 83 b4 f7 bd 67 d8 a2 3d
       0.04574184 0.16427134 -0.12094977 0.07951432
000140 53 ef e8 3d e2 69 f6 3d 20 ff 68 be 7f b2 c4 bd
       0.113737725 0.12031914 -0.22753572 -0.09604358
000150 ad d2 b1 bd 1c 41 48 3e f0 0c 86 bd 22 0d a2 3e
       -0.08682761 0.19556087 -0.065454364 0.31650645
000160 b4 62 e3 bd 49 2b a1 be 47 a3 bb be 0d e1 b8 3d
       -0.111028105 -0.31478336 -0.36648008 0.090273
000170 88 35 12 3d f8 c9 45 be 13 f5 12 3e 7a ff 5e bd
       0.035695583 -0.19315326 0.14351301 -0.05444286
000180 97 90 24 bd b4 0f 93 3e 54 92 12 bd 84 22 c0 3c
       -0.040176954 0.28722918 -0.03578408 0.023453958
000190 bd a7 cf 3d 67 0c 0d 3d 1a a5 ba 3d 73 cf a2 bc
       0.101394154 0.034435656 0.09113522 -0.01987431
0001a0 f2 d9 2d be f0 34 3e bd 96 35 c0 3b 24 7f e7 be
       -0.16977671 -0.046437204 0.005865763 -0.45214188
0001b0 a5 a9 92 3c d1 f6 f3 bd 62 ab aa bd c0 76 8c bc
       0.017903158 -0.11912311 -0.0833347 -0.017146468
0001c0 47 d5 82 3c 99 13 1f 3c bf b7 80 3e 36 b5 a6 3e
       0.01597084 0.009709262 0.25140187 0.32560128
0001d0 67 e8 b5 3e 8d 11 f7 bd a2 0a c3 bd 37 33 a2 bc
       0.3552887 -0.120638944 -0.095235124 -0.019799812

fc2.weight f4 [84, 120]
000000 f0 30 9b bc c6 f7 9b 3d fc 9f 2b 3c 18 f5 e0 3d
       -0.018944234 0.076156184 0.010475155 0.10984248
000010 65 8f 36 bc 55 70 83 3d fe ba fa bc f4 1e ff bc
       -0.011142586 0.0641791 -0.030606743 -0.03114269
000020 3e c6 34 be 88 f9 aa bc 25 64 e6 3d 44 46 d8 bc
       -0.17653748 -0.020870939 0.1124957 -0.026400693
000030 18 b2 20 3e 1a 52 25 3d 41 ef be 3d 14 43 0e bd
       0.15692937 0.0403615 0.09322978 -0.03473194
000040 8b 75 35 bc 0c 52 c5 bc 61 82 99 bc 50 85 a4 bd
       -0.011075388 -0.024086975 -0.018738927 -0.0803324
000050 d7 8c 12 be b4 5e de bd 09 c7 35 be 7a e0 04 be
       -0.14311539 -0.10857907 -0.17751707 -0.12976256
000060 4c 07 0e 3e 7a 2d 41 3d 02 0e a1 bd 4f 86 27 be
       0.13869971 0.04716251 -0.07864 -0.16359828
000070 b6 81 36 be 65 d5 5d bd ad f1 15 3e 85 85 3b be
       -0.17822918 -0.054158587 0.14642973 -0.18312652
000080 31 47 d8 3d 39 1f ab bd b8 cc a0 3d 86 52 11 3d
       0.10560454 -0.083555646 0.07851547 0.03547909
000090 5e 0b a7 bc 3f 1d 77 bc 09 6d b5 bd 12 1c bc 3c
       -0.020391162 -0.015082656 -0.088586874 0.022962604
0000a0 b7 5c a6 bc 16 60 bf 3c 0f b9 a1 be e3 1d 5a bd
       -0.020307882 0.023361247 -0.315865 -0.05325116
0000b0 88 ed df bd 4d e6 5e 3c 60 48 89 bd d5 a7 6e be
       -0.10933977 0.013604713 -0.067032576 -0.2330621
0000c0 5c 97 b3 3d 41 45 88 bd a8 60 ce 3c 3c ec 2a 3c
       0.08769104 -0.06653834 0.025192574 0.010432299
0000d0 6f 7e 1a 3e 0b c4 2f be 3b c2 d6 3d 1e ee 91 3d
       0.15087293 -0.17164628 0.10486265 0.071254954
0000e0 07 6c c2 3d 4d 23 2d be d0 3f 33 bc a7 52 84 3d
       0.09493261 -0.16907997 -0.010940507 0.06461077
0000f0 65 70 13 be 17 85 bc bd 03 ca c1 3d 57 9e 28 bd
       -0.14398344 -0.092050724 0.09462359 -0.04116663
000100 9f d3 e6 bb 35 23 1a be 99 a6 dd bd 67 f2 c9 bd
       -0.00704427 -0.15052493 -0.108227916 -0.09860688
000110 e5 5b 88 be 39 2b 16 3e 0a 49 c6 3d 6a 10 9b 3d
       -0.2663261 0.14664926 0.096819 0.0757149
000120 99 a2 f3 bc 99 5d 62 3d 30 e4 11 be 53 6a a0 bd
       -0.029740619 0.055265043 -0.14247203 -0.0783278
000130 a9 0a 59 3d 57 1e 5c 3c 3e 3d 6b bd da 85 9f 3d
       0.052988682 0.013434968 -0.057431452 0.07789202
000140 d6 70 4a bd 67 d1 0f be 6c 27 89 bd ab 1e ff 3d
       -0.049424015 -0.14044724 -0.06696972 0.12457021
000150 c1 8b 38 3e e7 11 0d 3d 0c bc 55 bd 3d 87 9d be
       0.18022062 0.0344409 -0.05218129 -0.3076724
000160 83 9d 84 3e 3e a0 de 3b 92 60 d8 3c dc bf 78 3e
       0.25901422 0.0067940047 0.026413236 0.24291939
000170 f9 5e 48 be 96 f5 bb 3d c9 5b da bd dd 42 15 3e
       -0.19567479 0.09177701 -0.10662038 0.14576288
000180 97 eb 46 bd 0f cb 4d 3d fe 66 3e be 89 23 7e bd
       -0.04856452 0.05024248 -0.18593976 -0.062045608
000190 35 ba 77 3d 73 67 82 3d 12 0e b3 ba 7c 1a 4f bd
       0.060480315 0.063673876 -0.001366081 -0.050562367
0001a0 c7 47 2c bd 8d 84 b0 3c 4c 2e 52 bd 49 ad 14 3e
       -0.04206064 0.02154758 -0.051313683 0.14519228
0001b0 2e 69 c2 bc 9c f9 81 3c 78 ee 12 be 05 8e d1 bd
       -0.023731794 0.015866093 -0.14348781 -0.10232166
0001c0 16 95 38 3d 88 03 6e bd 03 f1 bd 3c 1d 78 24 be
       0.045064054 -0.058108836 0.023186212 -0.16061445
0001d0 a2 ea 33 be 03 64 3b 3e a9 1d ae bc dd 90 ad 3d
       -0.17569974 0.1829987 -0.021254377 0.08474896
0001e0 15 20 15 3d ca 81 03 be 3b 01 5e be 19 fa 19 be
       0.03640755 -0.1284248 -0.21680157 -0.15036811
0001f0 ea 34 45 be d8 8f dc 3d 06 a5 0d 3c 5c 4b ea ba
       -0.19258466 0.107696235 0.008645302 -0.0017875242
000200 42 27 4f bc 21 04 46 be 6b 78 09 3e c8 63 d2 bd
       -0.012643637 -0.19337513 0.13424842 -0.10272938
000210 f8 4c 43 3c be 8d b2 3d 98 4a d1 3c 8e 66 8a 3d
       0.011920206 0.087184414 0.025548264 0.06757842
000220 87 85 7e bd 89 73 17 3e 48 c4 8a bd b5 90 8f be
       -0.06213906 0.14790167 -0.06775719 -0.2804009
000230 5e 3c 7c bd 34 5d e5 b9 88 87 7d bc 23 aa 02 3e
       -0.061581008 -0.00043747725 -0.015474208 0.12760215
000240 66 84 7c bd 56 bf 27 bd b1 fb 72 3d 32 6a 51 3d
       -0.061649702 -0.040953957 0.059322063 0.051126666
000250 ef 8d 5e bc 7d 73 35 bd 77 d7 6a bd b7 c2 b0 bc
       -0.013583644 -0.04429959 -0.05733439 -0.021577222
000260 3d fd c4 3d 11 89 a2 bd b4 66 2b be ea 11 b1 3d
       0.09618614 -0.079362996 -0.16738397 0.08645995
000270 9c 65 fc bd e7 b2 52 bd 76 d2 54 3d 89 eb 44 3e
       -0.12324068 -0.051440146 0.051958524 0.19230475
000280 41 91 09 3d cb 3e 17 3d 7f 20 3f bc 4e 4c 58 3c
       0.03358579 0.03692512 -0.0116654625 0.013201786
000290 bb 36 91 3d 15 47 45 bc 9c 60 2c be 68 94 52 bc
       0.07090517 -0.012040873 -0.16833729 -0.012852766
0002a0 ab 5d b7 bd c8 22 83 bd 0e a9 57 bd c7 ec 44 3d
       -0.089534126 -0.06403118 -0.052651457 0.04807737
0002b0 06 aa dc bc 86 7e f3 3b 93 58 e0 bd 76 c6 31 3e
       -0.026936542 0.0074308543 -0.10954394 0.17360863
0002c0 7a de a5 3d 2c ef 1c bd 40 57 d4 3c ab bf e5 bd
       0.08099075 -0.03831403 0.02592051 -0.112181984
0002d0 74 75 89 3c b4 af ea bc cc ae c4 bd ee 42 a8 bd
       0.016779639 -0.028648235 -0.09603652 -0.08215891
0002e0 ee 1c 25 bd ed c8 91 bd 1d 0f 6c 3e 17 cc 3f 3e
       -0.040310793 -0.07118402 0.2305264 0.18730198
0002f0 b2 f1 64 37 b7 62 a9 bd 3f 33 a9 3c d5 b7 1e 3e
       1.3646133e-05 -0.082707815 0.020654319 0.15499814
000300 60 0e 2b 3d ac 37 b4 3d 9c 35 43 be f4 a5 09 be
       0.041761756 0.08799681 -0.19063419 -0.13442212
000310 e5 6a 55 be 42 9b 89 3d 21 e8 56 3d d0 bb e9 3c
       -0.20841558 0.06719066 0.05246747 0.028531939
000320 ac 74 3b bc 35 15 cd 3d 53 67 7e be 56 5d b6 bc
       -0.011441391 0.100138105 -0.24844103 -0.022261303
000330 30 33 0f be 6d de 1a bd c3 b2 86 bb 3f a1 b3 3b
       -0.1398437 -0.037809778 -0.0041106655 0.0054818685
000340 d6 cd 22 be 53 e1 ab bd 87 ae 11 bd 52 8b aa 3d
       -0.15898833 -0.083925866 -0.035566833 0.083273545
000350 b3 99 0a be 35 ad 62 bc 6a 2a 89 bb 4b 8e 3d 3e
       -0.13535194 -0.013835241 -0.0041859644 0.18511312
000360 26 7d 14 bd 67 2d 24 3d 58 63 7f 3c f7 ec 05 3d
       -0.036252163 0.04008236 0.01558765 0.03269669
000370 94 b6 f6 bd b5 9a 17 be 39 14 ed bd 47 1b 66 bd
       -0.12046543 -0.1480511 -0.11576123 -0.056178357
000380 78 76 9a bd 27 f7 5a 3e 27 52 b4 3d 65 91 a8 3d
       -0.07542127 0.21383344 0.08804732 0.08230857
000390 3d 2b 21 be a9 b0 c7 bd 62 d5 c6 3a 7e fe df bc
       -0.1573915 -0.09750492 0.0015169794 -0.027343031
0003a0 33 8a 79 3e 30 f8 0e be 03 df 9c bd ff 54 5c bd
       0.24369125 -0.13961864 -0.076597236 -0.053791996
0003b0 6b 4c 4a be ed 4a 0d 3e 6d 9a 18 3e 2b 89 16 3d
       -0.19755714 0.13798113 0.14902659 0.036751907
0003c0 c3 f2 89 bd 8c e9 e3 3d a3 7a 1d be 62 ee 9f 3c
       -0.06735756 0.1112853 -0.15378813 0.01952285
0003d0 bb df a3 3b bd 7d 12 3e 0e b9 87 3e c3 45 44 3e
       0.005001036 0.14305778 0.26508373 0.19167237
0003e0 09 cc ea 3d e9 99 e3 3d 4b 5f 9e bd 66 17 1e 3e
       0.11464698 0.111133404 -0.077330194 0.15438613
0003f0 97 a4 26 be 60 11 5c bd 50 07 c9 bd c4 91 1a bd
       -0.16273724 -0.053727508 -0.09815848 -0.03773667

fc2.bias f4 [84]
000000 71 d4 7e 3e 93 97 70 3b e6 d5 13 3f f1 83 0c bc
       0.24885727 0.003671144 0.5774826 -0.008576379
000010 87 5e 9f 3e 6b d3 18 bd 47 f6 93 3e 23 5e 1b be
       0.31126806 -0.037311 0.28898832 -0.15172629
000020 46 32 36 3f ba 6e 6f bd 30 8c d9 bd d5 7d 20 3d
       0.7117046 -0.058455206 -0.10622442 0.039182503
000030 98 78 a9 3e b8 89 ae 3e c5 79 d0 3e 67 90 05 3e
       0.33099818 0.34089446 0.40717903 0.13043366
000040 98 c4 41 3f b0 00 52 3f 31 71 ab bd 28 1a 40 3f
       0.75690603 0.820323 -0.08371199 0.7503991
000050 15 a0 be 3e d7 85 85 bd dd 5a c3 3a 6d 67 c4 3e
       0.37231508 -0.065196685 0.0014904399 0.38360158
000060 24 ed 7f 3e 7c 4e 33 3e 3a b2 25 be 58 24 03 3d
       0.24992806 0.17510408 -0.1618127 0.032017082
000070 27 3d d1 3e ca fc bf 3e 43 82 84 3e 48 c1 3e 3e
       0.40866968 0.3749755 0.25880632 0.18628418
000080 5d de 9b 3d 87 58 b5 3c 5d 38 6c 3d 4c 2d 65 3e
       0.07610772 0.02213694 0.05767094 0.2238056
000090 ac 15 b7 3e 71 0c fc 3e d3 f9 c8 bd a4 4d 9a 3d
       0.35758722 0.49228242 -0.09813275 0.0753434
0000a0 1d 71 ef bd b2 48 5d bd 9c 36 23 be 7b 54 1e 3f
       -0.116914965 -0.054024406 -0.159388 0.61847657
0000b0 bf be c3 bc 9e 92 e3 3d 26 c9 21 3e cd eb 2f bc
       -0.023894666 0.111119494 0.15799388 -0.010737372
0000c0 4a 5f 98 3d 9c 69 0c bd 5b 04 33 bc 8b 78 8f 3c
       0.0744005 -0.034280404 -0.010926331 0.017513534
0000d0 24 8b 8b 3e e6 6b 27 bd eb ce bc bc a4 b7 69 3e
       0.27254593 -0.040874384 -0.023047885 0.2282396
0000e0 f5 3e a6 bd e8 e1 62 3e af d4 9c 3e 81 61 08 3f
       -0.08117477 0.22156489 0.30631015 0.5327378
0000f0 5d 6a ef 3e 8a b4 c2 3e 59 3f 2e 3e 85 f1 8d 3e
       0.46760836 0.38028365 0.17016353 0.27723327
000100 87 c7 fc 3d b7 e8 c0 3d 4b 5c 10 bd 29 dc 66 3e
       0.12342744 0.09419387 -0.035244267 0.22544922
000110 39 f7 07 be e5 37 0a 3f 55 91 23 be 82 42 18 3e
       -0.13277902 0.5399154 -0.15973409 0.1486912
000120 62 47 21 bd 74 3b 15 3f 5a 64 be 3e cc 96 ed 3c
       -0.039374717 0.58293843 0.37185937 0.02900257
000130 9e 50 25 3d ca 2a 96 3d 43 22 56 3e 8f 13 3f be
       0.040360086 0.0733238 0.20911507 -0.18659805
000140 fa 3d da 3e 0b eb 29 3e a6 61 fa 3e 7d 27 d7 3d
       0.4262541 0.16593568 0.48902625 0.10505579

fc3.weight f4 [10, 84]
000000 62 bc 21 3c 2d c2 65 bc e3 8c dd 3d f0 0c fe 3d
       0.009871574 -0.014023346 0.10817888 0.124048114
000010 44 f9 40 3e aa dc ae bd 61 45 86 bd 8b 55 31 3e
       0.18845087 -0.08538182 -0.06556202 0.17317788
000020 40 d3 1d be 79 58 01 3e 5f cd c6 3c 39 b2 ff 3d
       -0.15412617 0.12631406 0.02426785 0.12485165
000030 ef 9d f9 3d 3e b0 7c be 04 59 4d 3e 6e 43 29 3e
       0.121883266 -0.24676606 0.20053488 0.16529629
000040 46 d6 c6 be 58 28 9e be 74 d1 84 bd f1 8b 26 be
       -0.38835353 -0.30890155 -0.064852625 -0.16264321
000050 83 f8 3e bc db 2b 6a 3e 66 c0 4c 3e ef 32 3b 3e
       -0.0116559295 0.22868292 0.19995269 0.18281148
000060 a8 0b 43 3d ba 97 23 bd e1 22 75 3d 85 9b 94 3e
       0.04761854 -0.03993962 0.059847716 0.29024902
000070 29 a8 d7 bd e2 c2 33 bc ac b8 81 be 26 ae 7f be
       -0.10530121 -0.010971757 -0.25336206 -0.24968776
000080 1c d6 48 be fc 29 27 bc 02 2e ec 3c 5f 84 07 3d
       -0.19612926 -0.010202881 0.028830532 0.033085223
000090 ff d6 6d bd 33 41 9c bd 19 26 4f 3d e8 c9 1a be
       -0.058066364 -0.07629623 0.050573442 -0.15116084
0000a0 8a 41 4f be 10 3e 23 3e 3a 2f 71 3e 6c a7 a3 3d
       -0.20239845 0.15941644 0.23553172 0.079909176
0000b0 97 b7 e5 bd df b8 19 3e 64 b5 8a bd 65 1a c1 bd
       -0.112166576 0.15011929 -0.06772879 -0.094288625
0000c0 7e 4e 14 3e a5 f3 18 bc ad b9 b3 3e e3 44 83 3d
       0.14483067 -0.009335433 0.35102597 0.064096235
0000d0 6b ca 17 3d 90 e6 09 3e f2 7b 0d be c1 21 fc 3d
       0.037058275 0.13466859 -0.13816813 0.123111255
0000e0 c6 51 b4 bd 21 8e fa 3b d0 69 08 3d d1 1f 92 bc
       -0.088046595 0.0076463376 0.033304036 -0.017837437
0000f0 88 eb 8c 3e 8d 18 8f 3d 6f 25 84 be 29 35 b6 be
       0.27523446 0.069871046 -0.2580981 -0.35587433
000100 66 84 c4 3c 13 90 a7 be 20 86 07 3e 8a 4a 12 3e
       0.023988914 -0.32727107 0.13234758 0.14286247
000110 2b f4 d7 3d 4f e3 6e 3c 4d 23 e2 3d 77 3d 61 3e
       0.10544618 0.014580562 0.11041889 0.21996103
000120 44 c9 a2 ba 7d 7f 78 3c de 5b 95 3e d4 33 84 3d
       -0.0012419601 0.015167114 0.29171652 0.06455198
000130 77 c4 61 be f0 0f f8 3c 20 65 b5 bd 22 1e 39 3e
       -0.22047602 0.030281037 -0.08857179 0.18077901
000140 1b f6 ac 3e 45 d8 18 3e e3 59 ab 3d fd b2 b1 3d
       0.33781514 0.1492625 0.08366754 0.086767174
000150 37 ca 4e be 6f 61 08 3e 46 bd db bc 4e 18 b1 3b
       -0.20194326 0.13318418 -0.026823651 0.0054045087
000160 cb 70 0b be 44 71 a6 bc 1b ef 2b be d2 25 61 be
       -0.13617246 -0.020317681 -0.1679043 -0.21987084
000170 0d 39 a9 be f7 a8 05 3e 1c 71 be 3d 09 53 18 be
       -0.3305134 0.13052736 0.09298918 -0.14875425
000180 54 05 ea bb d0 2e ad 3d 76 4c e8 3d e3 0f 10 be
       -0.0071417484 0.084561944 0.11342709 -0.1406856
000190 65 0e 77 be f8 13 e1 be c1 a3 c4 3c 1e f9 8a be
       -0.24126585 -0.43960547 0.024003865 -0.27143186
0001a0 c9 81 97 3c bd 1f 0c 3e f5 f4 32 3d 9a 9d e6 be
       0.018494504 0.13683982 0.04369064 -0.45042115
0001b0 a9 44 49 3d bd 81 9b 3d 98 39 90 bd 56 4c 1e bd
       0.049137745 0.07593105 -0.07042235 -0.03864702
0001c0 e2 1e 1b be 8e a7 77 bd 4f bc e8 3d 3f b7 30 3e
       -0.151485 -0.060462527 0.11364042 0.17257403
0001d0 e6 83 99 3d 66 a7 2b 3e 16 4b db 3c 04 bf cf bd
       0.07495861 0.16763076 0.026769202 -0.10143855
0001e0 39 43 a1 bd 51 24 ab 3c 41 9c 3a 3e 7a be ff bd
       -0.0787415 0.02089134 0.18223669 -0.124875024
0001f0 44 73 14 3d f3 e9 8b 3d a9 f2 e9 bd 0d 19 2a be
       0.03624274 0.06831732 -0.11423237 -0.16611119
000200 f2 15 80 3e 2f a6 d8 bd 96 c2 b9 3e c6 2d 8c bd
       0.25016743 -0.10578572 0.3628127 -0.06844668
000210 63 3a 09 3e ce 14 5b 3d 43 c8 7e bd 9e 2c 43 bd
       0.13401179 0.053486638 -0.062202703 -0.047649972
000220 77 27 94 be 4d cf 13 be 5d 5b db 3c b8 a3 c4 bd
       -0.2893636 -0.14434548 0.026776964 -0.096015394
000230 58 a5 57 3e ce 9f cf bc fd cd 02 be 1c e2 d4 bb
       0.21059167 -0.025344756 -0.12773891 -0.006496681
000240 02 cf 33 3e f0 99 91 b9 c8 f2 13 3e 9b 25 4f be
       0.17559436 -0.00027771248 0.14448082 -0.20229189
000250 28 42 bd 3e 7b d9 2b 3e 5c c5 96 3e c3 09 c6 3d
       0.36964536 0.16782181 0.29447448 0.09669831
000260 cf 5d 8c 3e d5 d2 0f bc b1 62 5f 3e b5 5c 9a 3c
       0.2741532 -0.008778294 0.21814992 0.018843034
000270 1e f2 ef 3d 01 c0 2f be 05 71 76 3e c6 c9 8d 3e
       0.11716102 -0.17163087 0.24066551 0.27693003
000280 fa 5b 67 bc 4d 88 c1 3d c4 e0 35 3e b8 a5 3b 3e
       -0.01412105 0.094498254 0.17761523 0.18324935
000290 15 c7 90 3e 62 84 0d be bb 01 57 be 8f 36 16 bd
       0.28276888 -0.13820031 -0.20996754 -0.036673125
0002a0 5c 8a 5a 3e a9 38 f0 3d 67 73 bf bd 92 41 ad bd
       0.21341842 0.11729557 -0.09348183 -0.08459772
0002b0 67 77 4b be 6a ed 72 bd 34 86 44 3e e3 9c 0c 3e
       -0.19869767 -0.059308447 0.1919182 0.13731723
0002c0 d4 4e 0e 3d e7 a3 a1 3d 6c e1 0b 3c 49 5f 8d 3d
       0.034743145 0.0789259 0.0085376315 0.0690294
0002d0 ff 91 ac bd ef 90 2c be a7 84 ac bd 04 fe 43 3e
       -0.08426284 -0.16852163 -0.08423739 0.19139868
0002e0 c9 34 bd 3d 09 cb 85 3e 7f 11 ae 3d 55 8f 57 3e
       0.092385836 0.26131466 0.08499431 0.2105077
0002f0 7c 9c 38 be 85 be ae 3d 7a 0a f0 3c 93 2c 72 3d
       -0.18028444 0.085324325 0.02930187 0.05912454
000300 76 03 52 3e 10 71 e2 bd 7b dc 6d 3e ef 99 38 3e
       0.20509133 -0.11056721 0.23228638 0.18027471
000310 f4 89 31 3e 68 fb 0f be e1 14 48 3e 5e 42 fd bc
       0.17337781 -0.14060748 0.19539215 -0.030915435
000320 11 5b 02 bd 90 19 ee bc c9 e8 5c 3e 91 d8 f7 bd
       -0.03182513 -0.029064924 0.21573175 -0.12101854
000330 f5 e8 5c be e7 a7 cb 3c 16 74 2a bd 57 54 2d 3e
       -0.21573241 0.024860336 -0.041614614 0.16926704
000340 4c ef b4 3d b2 fd 36 3b 75 d0 4a 3d d3 cc 40 3e
       0.08834705 0.002792221 0.049515206 0.18828134
000350 04 c6 8e bd 8f 6c 2a 3d eb 91 5d bd 11 cb 2c 3e
       -0.06971362 0.041607436 -0.054094236 0.16874339
000360 74 52 ae bb 81 85 4a 3e c2 13 69 3e 44 57 f3 3d
       -0.005319888 0.1977749 0.22761443 0.11881879
000370 47 a7 8a 3e ab 0f 01 bd f3 dd 6b 3e 4a c9 4f 3e
       0.27080747 -0.031509083 0.23033886 0.2029163
000380 10 76 a1 bc 38 d8 36 bd d8 be 47 bd 90 d0 cd 3d
       -0.019709617 -0.044639796 -0.048765987 0.10049546
000390 37 24 8b be be 91 c9 bd a6 2e ec bc 30 ad 80 3e
       -0.27176067 -0.09842251 -0.028830837 0.25132132
0003a0 56 d8 21 be 7b 66 f8 3c cc 15 2c bc 84 f2 a9 3d
       -0.15805182 0.030322304 -0.010503244 0.08298209
0003b0 87 e5 30 3d 2b 99 18 3e 58 7c bd bd a5 32 2a 3e
       0.043187644 0.14902179 -0.09252232 0.16620882
0003c0 a8 53 49 bd cc cf fb 3b 19 6b 5b be 4d cf 12 be
       -0.049152046 0.0076846834 -0.21427573 -0.14336891
0003d0 e5 49 eb 3d 0f 4e f7 bd 68 03 45 bd 78 a5 da 3c
       0.11488704 -0.12075435 -0.04809895 0.02669023
0003e0 e0 ee 42 3d 0f 31 4d 3b 7d 4d 09 3e 95 68 39 be
       0.04759109 0.0031309759 0.13408466 -0.18106301
0003f0 d3 16 23 3e 53 e6 01 3e cb 0b 8b bd e8 d0 24 3d
       0.15926675 0.12685518 -0.06789359 0.04023829

fc3.bias f4 [10]
000000 02 18 e0 be 00 1f 98 bf 65 f9 8c be a8 37 57 3f
       -0.43768317 -1.188446 -0.27534023 0.840693
000010 1a 8f 21 3f 5e 37 c8 3d 0e ce 9e 3d 50 1e 41 be
       0.6310898 0.097761855 0.077541456 -0.1885922
000020 0a 61 04 3f 58 8c 88 be
       0.5171057 -0.26669574
