client_api_workspace/site-2/cifar_net.pth (torch, 251604 bytes, 10 tensors)

conv1.weight f4 [6, 3, 5, 5]
000000 14 c1 46 be 6b 4a e4 be 58 47 e5 be 28 4d 6e be
       -0.19409591 -0.44588026 -0.44780993 -0.2327162
000010 cd 68 ba bd a2 c1 8b be 8b 13 ca be 39 ed 3a be
       -0.091020204 -0.27296168 -0.39468035 -0.18254556
000020 2d cc 06 be 7f b4 28 be f9 b1 e3 3d e7 79 a4 3e
       -0.13163824 -0.16475104 0.1111793 0.32124254
000030 d7 a3 1c 3f c6 a6 c5 3e b0 10 d3 3e b0 37 bf 3e
       0.611875 0.386038 0.4122367 0.37347174
000040 d0 67 13 3f 8c 31 51 3f 3e 02 17 3f 6f ea c5 3e
       0.5758028 0.8171623 0.58987796 0.3865542
000050 f5 0c b7 3e 8b 1a 19 3e d3 00 86 3e 5e 86 31 3e
       0.35752073 0.14951532 0.26172504 0.17336413
000060 91 61 84 3e b7 d8 1d 3e 62 cc 43 3e 59 a7 3b 3d
       0.25855687 0.15414701 0.19120935 0.045813892
000070 67 86 fe 3d e2 8f 99 3e 1e 07 88 be 9a dc 51 be
       0.12427979 0.29992586 -0.2656793 -0.20494309
000080 33 78 0d be 20 b9 58 bd 82 91 90 be 03 b0 a7 be
       -0.13815384 -0.052910924 -0.28236014 -0.32751474
000090 15 8f 9a 3b 7d fe 5b 3d e9 f0 ff bd df cb f1 be
       0.0047167637 0.053709496 -0.12497122 -0.47225854
0000a0 a2 3b 27 be f9 83 02 3e ed 5e 16 bd 35 e1 7b be
       -0.16331342 0.12745656 -0.036711622 -0.24597628
0000b0 fa 26 14 bf 30 52 f0 bd 3c 6b 8e be 01 4c cb be
       -0.57871974 -0.11734426 -0.27816188 -0.39706424
0000c0 e0 d9 cb be 9d 4e b2 be 11 6f 97 3e 7b b3 ac 3d
       -0.39814663 -0.34825602 0.29576924 0.08432671
0000d0 db fb 86 3e b1 c7 be 3e 1c c6 84 3e 02 34 89 3d
       0.26364025 0.37261727 0.25932395 0.06699373
0000e0 84 bc da 3b 9b c6 b4 3a fe b4 7c 3e 06 d3 f0 3d
       0.006675305 0.0013792099 0.24678418 0.117589995
0000f0 05 21 11 be 75 0a 9f 3e 16 41 98 3e cc 0a 0d 3e
       -0.14172752 0.31062666 0.29737157 0.1377365
000100 fb d7 13 be 24 f1 1b 3d 7a db 08 3e ac c4 de 3c
       -0.14437859 0.038071766 0.13364974 0.02719339
000110 70 90 72 be d5 89 9a be 5d 29 83 3e 27 81 5c 3e
       -0.23687911 -0.30183282 0.25617495 0.21533643
000120 d4 0b 08 3d c9 12 50 be b8 b4 61 bd de 35 34 bd
       0.033214405 -0.20319666 -0.055103987 -0.043996684
000130 2b ef 37 3e 9a f2 b6 3e 03 78 c0 3e 67 8c 34 bc
       0.17962329 0.35731965 0.37591562 -0.011019803
000140 04 63 8c be 9d 17 5c 3e d5 6e a7 3e bc d1 a6 3e
       -0.27419293 0.21493383 0.32701746 0.3258189
000150 b1 eb ab 3d e7 f5 06 3e 42 bd b4 3e 27 05 0f bf
       0.08394564 0.13179742 0.35300642 -0.55867237
000160 10 a8 99 3e a1 db 89 3e 3b 00 89 3e fd eb ea 3e
       0.30011034 0.26925376 0.26757988 0.4588317
000170 8f 26 9c bf 57 20 99 3d 23 c7 18 3f e8 7e 83 3e
       -1.2199267 0.074768715 0.5967886 0.2568276
000180 7e 92 0f bd bb cf 82 bf 86 ed 8d be 10 a6 93 bc
       -0.035051815 -1.0219644 -0.27720279 -0.01802352
000190 c5 15 bd be 95 6b 82 be e6 2b b7 be ad 39 97 be
       -0.3693067 -0.25472704 -0.3577568 -0.2953619
0001a0 f0 a0 91 be 61 4e c1 bc 57 fe b2 bd 0b 9a e9 be
       -0.28443098 -0.023596944 -0.08739918 -0.45625338
0001b0 02 78 30 be 36 14 3b be 34 6e ae 3e 7b f9 88 3d
       -0.1723328 -0.18269429 0.34068453 0.066882096
0001c0 83 54 90 bf 55 d1 ca 3d d1 ae bf bc 9d 56 02 3f
       -1.1275791 0.09903208 -0.023398789 0.5091341
0001d0 76 c3 96 3e 6c d1 ca bf a5 0b 03 be ea 50 1a 3f
       0.29446 -1.584516 -0.12797411 0.60279715
0001e0 23 7b e2 3e f9 f9 c3 3c b1 af 89 bf 30 cd 75 be
       0.4423457 0.023922907 -1.0756742 -0.24004054
0001f0 ba e5 52 3e 9a 9d 07 3c 8d 38 48 3d b4 e0 a8 3d
       0.20595446 0.008277321 0.048882056 0.08245984
000200 93 61 5f 3e 33 b0 59 3d 1b 85 29 3d 45 77 8b bd
       0.21814565 0.053146552 0.041386705 -0.06809858
000210 d1 c1 d6 bd 34 4a 58 3d da bf 82 bd c1 7e 17 3e
       -0.10486186 0.05280514 -0.06384249 0.14794447
000220 fd f1 b7 3e 97 66 48 bf 91 eb 86 3e a7 81 13 be
       0.3592681 -0.7828154 0.26351598 -0.14404927
000230 d7 50 0f 3f 8a cd 01 3f 08 25 a3 bf 0a b1 28 3e
       0.55982727 0.5070425 -1.2745676 0.16473785
000240 8f c2 7c 3e a1 5b 3b 3f 35 5a 3e 3f dc cf 15 bf
       0.24683593 0.7318669 0.74356395 -0.58520293
000250 08 cd e9 3c 9b 0f e7 bd ba fe 89 bc 83 a4 82 3d
       0.02854015 -0.112822734 -0.016845096 0.06379034
000260 14 b8 b8 be bb 4d b7 be ec 23 38 3d ba b2 01 be
       -0.3607794 -0.3580149 0.044956133 -0.12665835
000270 41 36 9b 3e 8b 7f 9c 3f 6e b3 3a 3f b8 4c 4c 3e
       0.3031483 1.2226423 0.7293004 0.19951141
000280 f0 7b a2 be e6 cc 01 bf 96 20 ec 3b ee de d3 3d
       -0.31735182 -0.50703275 0.007206033 0.10345255
000290 57 8e 8d be f1 94 0b 3e 81 e4 25 bf 71 80 86 bf
       -0.2764766 0.13631035 -0.64801794 -1.0507947
0002a0 11 df 64 bf 74 33 50 be eb 72 cd 3d f1 76 80 3e
       -0.8940287 -0.20332128 0.100316845 0.25090745
0002b0 08 3f 39 3e 83 40 9f 3e 2d 44 22 3e 78 9a b6 3d
       0.18090451 0.31103906 0.1584632 0.08916181
0002c0 fd 90 ee bc a8 fc 5c be ab 31 e5 be 75 b8 87 3e
       -0.02912187 -0.21580756 -0.44764456 0.26507917
0002d0 e8 ec 24 3e e6 19 32 3f 25 b6 c7 3f 40 80 50 3f
       0.16105998 0.6957077 1.5602461 0.81445694
0002e0 6d 2b 83 3e 86 cc f3 bd 1d b3 22 be 29 fb de 3e
       0.2561907 -0.11904244 -0.15888639 0.43550995
0002f0 7b 8f fa 3e 87 1d 04 bd 82 ef b3 3c b8 9f f2 be
       0.48937592 -0.032254722 0.021964792 -0.4738748
000300 28 a4 68 bf de d7 53 bf 1a 13 70 be a4 37 93 be
       -0.9087548 -0.8275126 -0.23444787 -0.28753388
000310 ce 2a ac bd 64 9e 94 bd aa 35 5f be f8 5d e8 bd
       -0.08406602 -0.07256773 -0.21797815 -0.11346048
000320 1d 22 03 be e4 9e 99 be ed 95 74 bf 79 66 86 bf
       -0.12805982 -0.30004036 -0.9554127 -1.0500022
000330 46 42 a7 be 45 ca 32 3c 3c fb 91 3e 3e 92 47 3f
       -0.3266775 0.010912483 0.2851199 0.7795752
000340 28 69 c3 3e 7b e2 01 3d 1f ea ff 3d 0f 5b 29 be
       0.38166165 0.03171013 0.12495827 -0.16538642
000350 af cb fd 3d 42 5e a8 3e 6a 6c a6 3d 56 0f 7b 3e
       0.12392365 0.32884413 0.08126147 0.24517569
000360 5a d3 03 be 35 84 2a bf 0e 92 f5 be b9 cf be 3d
       -0.12873593 -0.6660798 -0.47962993 0.09316964
000370 f7 e1 2f 3d 1f 0e 7b 3e d8 47 bf 3e 71 24 ce 3e
       0.042940106 0.24517106 0.373595 0.40262178
000380 3a c3 cf 3e 75 4a 30 3e dd 6a c2 3d b9 08 93 bd
       0.40578634 0.17215903 0.09493039 -0.07179398
000390 77 f9 75 bb 6c c0 2a bb 84 fc 0d 3e 80 78 ba be
       -0.0037532726 -0.0026054634 0.13865858 -0.3642006
0003a0 d1 ac 5c be ec 00 b0 3e 37 3e 23 be cc 3d c2 3b
       -0.21550299 0.34375703 -0.15941702 0.005927777
0003b0 3e 93 2b bf 8c 56 4b bd 27 58 2c 3f b4 3a a7 3b
       -0.6702155 -0.049643084 0.6732201 0.0051034335
0003c0 36 31 34 be 42 44 ed be d3 ac f6 3d 74 4a c6 3e
       -0.17596897 -0.4634114 0.12044682 0.38728678
0003d0 02 f0 88 bd 9f c7 6f bd 14 cc 3d be 9e 61 8b 3c
       -0.06686403 -0.058539983 -0.18534881 0.017014321
0003e0 4a d7 23 3d 35 1a a1 3d 7d f9 71 3d 2c c7 a2 bd
       0.040000238 0.07866327 0.05907582 -0.07948145
0003f0 3e c5 a0 bd 23 0a 6d 3d d1 a3 14 3d b5 9b 2e 3d
       -0.07850121 0.057870995 0.03628904 0.042628963

conv1.bias f4 [6]
000000 7c 4a f5 3d 70 d4 ca be 8d c5 ec be f9 ef 66 be
       0.119770974 -0.39615202 -0.4624447 -0.2255248
000010 7f 74 44 bd e8 8e 17 3f
       -0.04796266 0.5920243

conv2.weight f4 [16, 6, 5, 5]
000000 80 15 72 3e c0 b2 ab 3c 9e 18 8a bd f1 f7 7c bd
       0.23641014 0.020959258 -0.067429766 -0.061759893
000010 51 96 6e be 4a ec 97 3e ed 4e 53 3e 98 c8 fd bc
       -0.23299529 0.29672462 0.20635577 -0.03097944
000020 3c a9 60 be ed 39 6f be 63 0b c5 3e 0d cf e1 3e
       -0.21939558 -0.2336194 0.3848525 0.4410328
000030 97 87 db 3e df 19 bc 3d 12 72 0d be 67 55 a1 3d
       0.42876884 0.09184622 -0.13813046 0.07877617
000040 62 3f af 3d fd 4d 27 3e 7f 1c a8 3e 6f 1a 94 3d
       0.08557011 0.16338344 0.3283424 0.07231604
000050 a3 96 6b 3d af 17 69 bd 1d 43 23 3d e2 bc 72 ba
       0.057516705 -0.056907352 0.039858926 -0.0009259713
000060 5b cb af bd 83 12 e4 3d 61 ab a9 3d 70 c1 6c 3e
       -0.08583709 0.11136343 0.08284641 0.23120666
000070 5b 94 02 be ad 52 37 be 12 76 da bd a0 a3 21 be
       -0.12751906 -0.17902632 -0.106670514 -0.15785074
000080 64 71 29 bd ff ce 2d be cc 19 e2 be c5 de 3f be
       -0.041367903 -0.16973494 -0.44160306 -0.18737324
000090 60 8f 06 bf c8 a0 fc be 57 ab b1 3b 72 b9 29 3e
       -0.5256252 -0.49341416 0.0054220366 0.16574648
0000a0 8a 3f 81 be fb fb 62 bd 4c b1 3d be ba 43 8b be
       -0.2524379 -0.05541609 -0.18524665 -0.2720011
0000b0 08 f3 b6 bd 08 3c 05 bc fe 8b 1d 3e d2 e8 ea 3d
       -0.08933073 -0.008131988 0.15385434 0.11470188
0000c0 20 a7 7c 3c 6f bf 0b be 6c f3 6b 3e 5e b7 0e be
       0.015420705 -0.13647245 0.23042077 -0.13937137
0000d0 9d 26 2f be 12 f3 a1 bd 16 58 4e 3e 1e a7 1a 3e
       -0.17104574 -0.0790769 0.2015079 0.15102813
0000e0 da 00 0b 3e 1e 5a 0e 3e 63 84 09 bd f9 90 f4 bd
       0.13574544 0.13901564 -0.03357352 -0.11941714
0000f0 37 a7 5c 3e 87 6b a0 3c 3b 9d 7a be ba cc e8 bc
       0.21548162 0.019582523 -0.24474041 -0.028417934
000100 8d 5f 85 3d dc 74 5b bd 9a 6b 8e 3d 00 48 95 3e
       0.065123655 -0.053578243 0.06954117 0.29156494
000110 17 28 4e 3e 18 fd 60 bd ce fa 3d bc c0 c7 f4 bd
       0.2013248 -0.05492887 -0.011595441 -0.11952162
000120 fd 3b 9b bd f3 c2 af 3c 6d f3 cf 3d ca 56 bc be
       -0.07579801 0.021455264 0.10153852 -0.36784965
000130 08 58 88 be 78 98 4a be d5 77 a6 be 6b 06 ab be
       -0.26629663 -0.19784725 -0.325133 -0.33403334
000140 e0 d0 0b be 92 24 54 be 6e 9f 97 be cc 38 97 be
       -0.13653898 -0.20717075 -0.29613823 -0.2953552
000150 d3 d9 96 be 4a a8 3d 3d 3b b8 03 3c a4 5c ac be
       -0.29463062 0.04630307 0.008039529 -0.3366443
000160 2c be b1 be f3 35 8e be 47 82 2c bd d2 8d 12 3c
       -0.34715402 -0.27775535 -0.04211643 0.008944945
000170 75 4f be 3d 50 d9 09 be ff a0 92 be d8 9e 41 be
       0.09292499 -0.13461804 -0.28638455 -0.1890825
000180 76 c6 d0 bd d0 17 64 3e 3f 65 42 3d a2 20 db bd
       -0.101941034 0.22274709 0.047459837 -0.106995836
000190 63 0c 5f 3e 3b 39 28 3e 46 13 98 3b db 9a 2b bd
       0.21782069 0.16428082 0.0046409694 -0.04189573
0001a0 20 be 66 3e 1b 17 20 3d 11 29 9b 3e ce 2e 8a 3e
       0.22533464 0.039084535 0.3030477 0.26988834
0001b0 24 31 59 3e c0 65 57 3e 5b 95 49 be 83 7f ba 3d
       0.21210152 0.21034908 -0.19685881 0.09106352
0001c0 6b 4c 60 3e 3f 38 30 3e 45 90 63 3e 90 fb 34 be
       0.21904151 0.17208956 0.22223003 -0.17674088
0001d0 3d fe 1b be 7e 70 85 bd ab b3 93 3e 54 e9 ce 3e
       -0.15233703 -0.06515597 0.28848013 0.4041239
0001e0 f3 24 02 bd fd 42 e1 bd 42 ab 31 be 2b bd a6 be
       -0.03177352 -0.10999105 -0.17350486 -0.325662
0001f0 3a 55 80 bc 61 97 3f be 75 9f 0d be f0 46 e6 3c
       -0.01566564 -0.1871009 -0.1383036 0.028109998
000200 9d a1 f5 bd cd c6 1a 3d 3f 2b 12 be ef 5b c2 bc
       -0.11993716 0.037787247 -0.1427431 -0.023725478
000210 28 e8 ac bd d1 22 b8 bd 90 9b 33 3d e6 c6 56 be
       -0.08442718 -0.08991016 0.043849528 -0.20974311
000220 a2 43 e5 3c 1e 45 b1 bd 3e 7a 15 be 2a a4 94 3d
       0.027986351 -0.08655761 -0.14597413 0.07257874
000230 63 7c a1 bd 45 1e b2 3d 14 81 2b 3e 6f fd 6a 3e
       -0.07885053 0.0869718 0.16748458 0.2294824
000240 a4 fe d4 3d 42 c9 0b 3d 38 50 0e 3e b4 8e 35 3e
       0.10400131 0.03412748 0.13897789 0.17730218
000250 a5 76 73 3e 30 6f 33 3e bf 9f cf bd 92 b2 b7 3d
       0.23775728 0.17522883 -0.10137891 0.089696065
000260 fa ce ac ba 36 6a b0 bc 17 21 28 bd 06 59 62 bc
       -0.0013184242 -0.02153502 -0.041047182 -0.01381517
000270 d1 8a de 3d 7a 5d 39 bd e4 5c e8 bd b9 83 2b 3e
       0.10866321 -0.04525516 -0.113458425 0.16749467
000280 9f bb 3f 3d 61 af 8a 3c d0 c5 4d be c3 9d f3 bc
       0.04680979 0.01692933 -0.2009499 -0.029738313
000290 98 15 17 3b 42 37 01 bd f9 72 c8 bc 61 92 27 be
       0.0023053642 -0.03154684 -0.024468886 -0.16364433
0002a0 e1 d4 f4 bd 68 4d 8c bd de 52 7f bd 3e ad 05 3d
       -0.11954666 -0.068507016 -0.062334888 0.03263592
0002b0 81 40 84 3c 12 95 35 bd b4 4e 19 be 2c cc 4c be
       0.01614404 -0.044331618 -0.14971429 -0.1999976
0002c0 de d0 74 3d 16 d6 d7 3e 6c d1 b8 3e 44 ab 99 3e
       0.059769504 0.42155522 0.36097276 0.30013478
0002d0 98 13 16 bf 99 58 c2 be be 14 e7 3d ff 3d dd 3e
       -0.5862365 -0.3795822 0.11283253 0.43211362
0002e0 58 d8 84 3e 05 86 1e bf 14 e1 82 be 89 f8 b1 3b
       0.25946307 -0.6192325 -0.25562346 0.005431239
0002f0 33 3c 47 3e 19 f0 ab 3e cf a8 ff be 2f 4a f8 bc
       0.19456558 0.33581617 -0.49933478 -0.030308811
000300 36 94 8b bd 55 ec cf bc c3 6c 80 3e 55 ff 2d bf
       -0.06815378 -0.025381247 0.2508298 -0.6796773
000310 1b c9 61 be 9a cd 79 bd fa e5 89 3c 39 d2 30 3e
       -0.22049372 -0.060987093 0.016833294 0.17267694
000320 14 49 05 3e 3d 65 63 3c 78 84 d1 be 3e 96 b8 be
       0.13016158 0.013879118 -0.40921378 -0.36052126
000330 6f 8c 37 bc ba 64 c0 3d 95 1d 70 3d 1a 7c 79 be
       -0.011202916 0.09394212 0.05862196 -0.24363747
000340 ca c3 d2 be 6e ef 79 be 17 8d 09 3d f5 f3 2d be
       -0.41165 -0.24407741 0.03358182 -0.16987593
000350 b4 e0 23 be 4f 98 be be 42 d7 7f be ad 95 6c 3d
       -0.16003686 -0.37225577 -0.24984458 0.05775993
000360 26 c7 f1 bc 86 55 0d be fc e1 ab be 28 83 72 be
       -0.029513907 -0.13802156 -0.3357085 -0.23682845
000370 e5 00 42 3e 47 1d 7a 3d 15 ba 08 be 15 3b 21 be
       0.18945654 0.061063077 -0.13352235 -0.15745194
000380 fa d5 bd bd e9 d9 c0 bd d8 85 41 be d2 27 6c be
       -0.092693284 -0.09416563 -0.18898714 -0.23062065
000390 b7 b1 73 3d 0e 04 da 3d 8c 26 2a bd 78 cf 21 be
       0.059495654 0.106453046 -0.041540667 -0.158018
0003a0 6d 7f e2 bd 8d a0 1a bd b9 fa 87 be f4 f3 1a 3c
       -0.11059461 -0.03775077 -0.26558474 0.009457577
0003b0 05 42 a5 3c f9 78 47 bd 53 48 65 bd 86 61 29 be
       0.020173082 -0.048699353 -0.055977177 -0.16541108
0003c0 d4 29 af bc d1 46 e5 3d 5a 29 15 be 29 8e 87 bc
       -0.02138225 0.11195148 -0.14566556 -0.01654728
0003d0 36 49 ad bd 9f fb 32 3d 30 2d a9 bd e4 7f 2d 3b
       -0.084612295 0.043696996 -0.08260572 0.0026473934
0003e0 08 8f 32 3e 34 ea 8c bc 78 95 35 3e 38 86 05 3f
       0.17437375 -0.01720152 0.17732799 0.52157927
0003f0 62 cd 18 3e ee 18 13 be c5 c2 7f be b7 c6 a7 bd
       0.14922097 -0.14364979 -0.24976642 -0.08192199

conv2.bias f4 [16]
000000 d1 14 a0 bd 40 8c 16 3f 92 04 c2 3f 5a 2b a4 bf
       -0.078164704 0.58807755 1.5157645 -1.282573
000010 de 66 2a bf 1f b1 09 40 8c 34 69 be d5 16 3b bf
       -0.6656321 2.1514356 -0.22773951 -0.73081714
000020 26 37 be 3e ef 01 48 bf f0 a0 3b 3f 35 73 38 bf
       0.3715145 -0.7812795 0.73292446 -0.7205079
000030 6e 46 b7 bf 26 18 01 3e eb f2 a5 3c b9 bb 73 bf
       -1.4318368 0.12606868 0.020257434 -0.9520832

fc1.weight f4 [120, 400]
000000 39 e9 77 bb d8 e3 e9 bd 8a a8 98 bd b4 95 b3 bd
       -0.003782822 -0.11420411 -0.07454021 -0.08768788
000010 30 79 05 bc 93 29 bf bd 8e 28 bc bd c7 6e 29 3d
       -0.008146569 -0.093341015 -0.09187423 0.04136541
000020 8e cd a7 bd b8 ff 96 3c f5 a9 a1 bc 00 81 c2 bd
       -0.08193503 0.018432483 -0.019734362 -0.09497261
000030 3b c7 8f 3d 96 e0 ad 3d a6 f1 1f 3d e4 2c 91 3c
       0.07020422 0.08490102 0.039048813 0.0177216
000040 51 d5 33 3a 9b a9 dd bd bd 15 9d bd 5a 4f dc 3d
       0.0006860095 -0.10823365 -0.07670162 0.107573226
000050 af 2a 2e be ee c9 c6 bd ba ca bd bd cc fa 0b be
       -0.1700847 -0.09706484 -0.09267183 -0.1366989
000060 e4 60 9f bd 7e 18 59 3d 7d 7d c6 bd eb e1 15 39
       -0.07782152 0.053001873 -0.09691904 0.00014293908
000070 3f 5a e0 bd 93 75 49 3c 03 29 5e 3d 9f d8 3d bd
       -0.10954713 0.012296098 0.05423833 -0.046349164
000080 ee b3 9b bd d9 60 2a 3a 77 05 7a bd 2d 9b bf 3b
       -0.07602678 0.0006499417 -0.061040368 0.005847356
000090 d8 78 9f 3d e9 88 0f 3d ed 45 fa bc cc e8 4a be
       0.07786721 0.035042677 -0.030550921 -0.19815367
0000a0 36 3e e6 3d 51 82 17 3e 6f 76 38 3c e5 10 74 bb
       0.112423345 0.14795806 0.0112587055 -0.0037241515
0000b0 1a 3d c7 3c df 54 0b 3e 0a 9b d4 3d 5c 6c e1 3b
       0.024321128 0.13606595 0.10381134 0.0068793725
0000c0 11 03 95 bc ed 88 fa 3d 6b 50 ea 3d ca 46 23 bd
       -0.018189939 0.12233148 0.1144112 -0.03986243
0000d0 98 39 66 bd 04 2e 98 3c 50 88 ae 3d 1e 7e 06 bd
       -0.05620727 0.01857663 0.08522093 -0.03283512
0000e0 9d 97 01 bd a5 7a 04 bd a4 72 99 3d 10 34 31 3d
       -0.03163873 -0.032343525 0.07492569 0.04326254
0000f0 70 d8 df bc a1 04 4b bd 49 55 01 3c 33 63 f2 bb
       -0.027324885 -0.04956496 0.007893869 -0.0073970794
000100 bd 0f f0 3c e9 b1 1b bc b0 aa 7f bd 3c f6 65 bd
       0.02930438 -0.009502866 -0.06241864 -0.05614303
000110 25 0a b7 bd a0 d6 d7 bd 8f 90 e5 bd 83 b6 66 bd
       -0.08937482 -0.10538983 -0.11209213 -0.0563264
000120 15 3b 0b bd c2 34 c7 bd b4 7a 05 be c3 54 12 3e
       -0.033991892 -0.0972686 -0.13035089 0.14290147
000130 0f 1d 76 3d ca 76 b8 3d 96 42 ae 3d 35 d1 63 3d
       0.060086306 0.09007032 0.08508794 0.055619437
000140 9c b0 c1 3d b3 40 70 3c 11 b2 a5 bd c5 f8 31 bd
       0.09457514 0.014663863 -0.08090604 -0.043450136
000150 22 59 05 3e c1 5a dd 3d fc 8c b4 bd b2 17 1a bd
       0.13022283 0.108083256 -0.08815953 -0.037620254
000160 7b 3f 6f 3d 06 08 b9 3d bb 9c 86 bd 27 86 96 bd
       0.05841015 0.090347335 -0.06572863 -0.07349806
000170 04 f8 da ba 80 8d fa 3c 2e ca 1c bd 80 a6 00 be
       -0.0016705994 0.03058505 -0.03827875 -0.12563515
000180 85 04 6a bd c2 3a 9d 3c 14 ff dc bd 43 83 f9 bd
       -0.057133216 0.019193057 -0.1079084 -0.12183239
000190 ca e5 a4 bd b7 39 f7 3b 9c 75 7f 3d a5 ef 4c 3d
       -0.08051641 0.007544722 0.06236802 0.05003323
0001a0 65 c2 13 3e 30 b6 9c bd 81 8d ba 3d cc 2c d1 3d
       0.14429624 -0.07651937 0.09109021 0.102136225
0001b0 16 60 71 3c 89 64 d3 bd 18 38 78 39 9d 17 e9 3d
       0.014732381 -0.1032191 0.0002367202 0.11381457
0001c0 c9 d1 a2 bd ba e0 98 3d d8 43 90 bd 79 d2 60 3c
       -0.079501696 0.07464738 -0.0704419 0.013722056
0001d0 14 d5 44 bc 13 f3 31 3d 8c 3c b0 3d 13 64 2a be
       -0.012013692 0.043444704 0.086052984 -0.16639738
0001e0 b1 e3 2a bd 25 b4 14 3d 91 8c b7 3c ec f5 1e bd
       -0.04172105 0.03630461 0.022405894 -0.038808748
0001f0 a8 60 47 bd d4 47 37 bd 9b 48 0e be 5c 2f 1b 3c
       -0.048676163 -0.044746235 -0.13894884 0.009471741
000200 75 f0 9f bd 69 2d e7 bd 1e f9 45 bd 1b bd 90 3c
       -0.078095354 -0.11287958 -0.04833328 0.017668298
000210 28 dc 49 be 4c 5f 25 bd 98 f8 97 3c 62 68 ef bd
       -0.19712889 -0.040374085 0.018551156 -0.11689831
000220 cb ee 27 be 20 3b c8 bc 7d 89 5b 3d 72 e9 af 3d
       -0.16399686 -0.024442255 0.053597916 0.08589448
000230 66 42 6f 3d 65 22 b3 bd e8 cd 90 3d 53 fa 4c 3d
       0.05841293 -0.087467946 0.070705235 0.050043415
000240 0c a9 80 3e 05 ff 00 3e e1 6d 5a 3e 7b da bd 3d
       0.25128973 0.12597282 0.21330978 0.092701875
000250 96 99 93 3d db 65 ae 3e 97 8f 1f 3e b8 2f 7a bc
       0.072070286 0.34062085 0.15582119 -0.015270166
000260 e0 b7 52 3d 65 11 d5 3d a4 ff 33 3d a9 08 46 3d
       0.051444888 0.10403708 0.04394497 0.048348103
000270 0f ae b3 3d 24 ac 44 3d 17 90 52 3c ab 68 af bc
       0.087734334 0.04801573 0.0128517365 -0.021412214
000280 3b bb 09 3e d8 f8 1d 3e 00 b3 36 bd 9f 0d b4 bc
       0.13450329 0.15426958 -0.0446043 -0.021979151
000290 cc 7e 22 3e cf 87 02 3d ba ee f2 3d 46 90 cb bb
       0.15868682 0.0318678 0.1186194 -0.006212267
0002a0 94 78 3b 3d b2 42 b2 3c 3d be bb bc a8 9c 10 be
       0.04576929 0.021760318 -0.022917861 -0.1412226
0002b0 91 c5 02 be 0d 34 1e be 75 02 75 bd e9 80 1a 3e
       -0.12770678 -0.15449543 -0.059816796 0.15088238
0002c0 ae 69 cb 3c 4f 71 ab 3c 88 c9 cf 3d 62 e6 58 3e
       0.024830665 0.020928053 0.10145861 0.21181634
0002d0 23 69 29 bd f8 e3 44 bc 92 87 fa 3c 1f 1c 13 3c
       -0.04136003 -0.012017243 0.030582223 0.008978873
0002e0 5b d4 9e 3d 32 07 b7 bd 37 2d 9a 3d 9c 4e bf 3c
       0.07755347 -0.08936919 0.07528155 0.023352914
0002f0 9f fb ff 3c 0b 0f da bd 90 8a 13 be 99 5d 8e 3c
       0.031247912 -0.106474005 -0.14408326 0.017378615
000300 75 d8 2c bd cc 3b 8b 3c ac 5f 09 3c 34 eb 19 be
       -0.042198617 0.016996287 0.008384626 -0.15031129
000310 8f d1 67 be cd 09 11 be 59 2f 31 bd 53 dd 60 3d
       -0.22638534 -0.14163895 -0.043258045 0.05489857
000320 05 8a 25 3c 0f ab 7b bd ad 71 bc 3d 88 b8 3a 3d
       0.010103707 -0.06144243 0.092013694 0.04558614
000330 82 73 02 3e 65 f1 fc bd 77 75 cc 3c f5 56 aa bc
       0.12739375 -0.1235073 0.024958355 -0.020793417
000340 25 f8 01 3d fb 13 b3 3c 86 f0 0f be 43 22 6b b8
       0.03173079 0.021860113 -0.14056596 -5.6060275e-05
000350 d7 c2 c6 bc 42 9e bd 3d 26 39 39 bd ff 26 0b be
       -0.024262829 0.09258701 -0.045220517 -0.13589095
000360 f7 b7 45 3c 68 44 a9 3d 3d e3 1a 3d 40 c4 8f 3c
       0.012067786 0.082650006 0.037814368 0.017549634
000370 38 b5 74 bd 51 d1 f8 3d d9 5d 05 3e 9c 22 de bc
       -0.059743136 0.12149299 0.13024081 -0.027116112
000380 48 5a 62 3d 60 b0 23 bd a1 16 36 3d aa 41 9e bd
       0.05526188 -0.039963126 0.044455174 -0.07727368
000390 1b 15 be bd 2c 7f d9 3c 8b 68 09 bd 82 a3 bf bc
       -0.09281369 0.026549898 -0.033546966 -0.023393396
0003a0 b0 82 97 bd f8 c1 53 bd d8 fc ab 3c 8a 5d 58 bd
       -0.073979735 -0.051698655 0.020994589 -0.05282358
0003b0 87 8a dd bd a7 4d 81 bd 4d 17 71 3d 6e e3 b9 bd
       -0.108174376 -0.06313639 0.058860112 -0.09076582
0003c0 a0 41 38 3c 60 66 42 be 95 97 70 bd 91 95 aa bd
       0.011246115 -0.18984365 -0.05873831 -0.08329309
0003d0 32 73 2a bb e2 28 eb 3d 5a 44 b4 bd cd b8 d6 3d
       -0.0026008603 0.11482407 -0.088020995 0.10484467
0003e0 c2 dc a0 3d 75 bb 8c 3d d4 9e d0 3e ad ff 8c 3e
       0.07854606 0.06871692 0.40746176 0.27538815
0003f0 5a 38 3e 3e df bb 38 3d 30 bc f5 3d 1a 61 af 3d
       0.18576184 0.045101043 0.119987845 0.085634425

fc1.bias f4 [120]
000000 a0 f8 0f 3d aa b8 3e 3e e7 aa d7 bc 53 59 f5 bd
       0.035149217 0.18625131 -0.02632661 -0.11979928
000010 38 63 ba 3e 86 56 36 bd 75 27 46 3e 10 e7 81 be
       0.36403823 -0.04451611 0.19350989 -0.253716
000020 58 3a bf 3d 49 fc 87 3e 57 fa d8 3b 78 75 ea 3d
       0.093373 0.26559666 0.0066216397 0.11448187
000030 7b 9d 3f be d9 65 12 be a8 07 89 be 94 18 b5 bd
       -0.18712418 -0.14296664 -0.26763654 -0.088425785
000040 cb 0c af bd f4 69 2a 3e ad a5 b6 bd 2b 22 ca 3d
       -0.08547362 0.1664198 -0.08918319 0.09869798
000050 fb d9 99 3e 7e f2 bf 3d 81 36 5c 3d c7 4b 5b 3e
       0.30049118 0.093724236 0.053762916 0.21415626
000060 54 55 d1 3e c1 cb 83 3e e2 a9 c2 3e 44 f5 f4 bd
       0.40885413 0.2574139 0.38020235 -0.11960843
000070 7b 89 99 3d 3b 96 33 3c 87 1f d1 3c ca 62 f3 3d
       0.074969254 0.010961111 0.025527729 0.11884077
000080 20 06 ff 3a 69 e1 bd bd 8d 77 ce 3d 57 df 31 bc
       0.0019456781 -0.09271509 0.10081396 -0.010856471
000090 83 dd 56 3c 40 f9 87 be 72 86 a7 3e 32 fd 59 be
       0.013114336 -0.2655735 0.3271976 -0.21287993
0000a0 68 74 37 3d 3e 17 81 bd 49 b4 e0 3e 64 5b 3b bb
       0.044788748 -0.06303261 0.43887547 -0.0028588409
0000b0 5c e1 a8 bd 68 b5 66 3d e8 e9 1e 3e 49 cc 1f bd
       -0.08246109 0.056325346 0.15518916 -0.03901318
0000c0 99 36 41 bd b8 4f 14 3d 4b c4 49 bd 6b 99 aa 3e
       -0.04717121 0.03620884 -0.049259465 0.33320174
0000d0 01 a9 9c 3e 4f d8 b5 3e fd e7 f4 3d 20 56 aa bb
       0.3059769 0.35516593 0.11958311 -0.005198255
0000e0 2d e7 a1 bd 8b de e7 3d 7f 0f 7c 3d 5b a5 4a 3e
       -0.079054214 0.113217436 0.061538216 0.1978964
0000f0 83 c8 24 be 08 1e 58 3e 1e cf f9 3d 03 ff cd bd
       -0.16092114 0.21105206 0.121977076 -0.10058405
000100 6a 39 f5 3d 1b 96 d4 3d 89 53 a0 bc 65 e7 3f 3e
       0.119738415 0.10380193 -0.019571083 0.18740614
000110 a1 aa 4d be 8d fa ea bd e9 9d 62 be c5 50 84 3d
       -0.20084621 -0.1147357 -0.2213055 0.06460718
000120 4f 2d b2 3e 78 ca 6e bd 15 6f 98 be c4 f0 ce 3d
       0.34800193 -0.058298558 -0.2977225 0.10104516
000130 24 3a 44 3d 10 7a 25 3e 00 eb df bd 7f e4 aa 3d
       0.04790701 0.16159844 -0.109334946 0.083443634
000140 b4 03 ea 3d 9e 52 01 3e 22 79 60 be 3c 81 d4 bd
       0.114264876 0.12629172 -0.21921209 -0.10376212
000150 87 09 aa bd b6 79 50 3e ad 26 6d bd ab 17 a0 3e
       -0.083025984 0.20358929 -0.057898212 0.31268057
000160 9f 04 e7 bd c9 53 a5 be 2e 56 b4 be 74 b5 9f 3d
       -0.11280178 -0.32290486 -0.35222 0.07798281
000170 ea 27 22 3d 47 74 48 be 4c 38 14 3e 1a 16 5f bd
       0.039588846 -0.19575606 0.144746 -0.054464437
000180 cb 9a 21 bd 66 6c 92 3e 97 a9 07 bd ac d6 b7 3c
       -0.039454263 0.28598326 -0.033120718 0.02244123
000190 ab ef d1 3d ca b9 ed 3c 18 b3 af 3d 18 9e 8c bc
       0.10250791 0.029019255 0.08579081 -0.017165229
0001a0 9a 26 38 be 12 34 73 bd 5c cc 62 3b 3f c9 e4 be
       -0.17983475 -0.05937583 0.003460667 -0.4468479
0001b0 a4 f7 be 3c 49 63 09 be 97 b1 a4 bd 69 1a 2c bc
       0.023311444 -0.1341678 -0.08041685 -0.010504344
0001c0 2c 69 aa 3c e5 d2 7c 3c 9a 4f 80 3e ca a4 ad 3e
       0.020802103 0.015431141 0.2506073 0.33914787
0001d0 f8 b2 b7 3e 86 8f 0d be 1f e2 bc bd b9 32 01 bd
       0.3587873 -0.13824281 -0.09222817 -0.031542514

fc2.weight f4 [84, 120]
000000 4e cf 3b 3c 5d 38 5f 3d 9b bb 22 3c 8a e5 dc 3d
       0.0114629995 0.05449711 0.009932424 0.107859686
000010 b2 f4 21 3d 8f 63 ae bc 45 c7 36 3c 1b bb cd bd
       0.03954 -0.021287708 0.011155908 -0.10045453
000020 62 59 6b be dd 19 ac bd 57 5a 25 3e 70 40 5f bd
       -0.22983316 -0.084033705 0.16147743 -0.05450481
000030 1b 1e 09 3e c4 f6 9d 3d b5 56 7e 3d c0 56 1f bc
       0.1339039 0.077130824 0.06209441 -0.009725273
000040 07 33 56 bd e8 f2 74 3c 84 f9 35 3b b8 91 cb bd
       -0.052294757 0.0149504915 0.002776713 -0.09939903
000050 d6 5f e6 bd 35 1a 99 bd 4f 1e 4a be a8 3b 06 be
       -0.11248748 -0.07475702 -0.19738124 -0.13108695
000060 00 54 1e 3e 9c c1 b8 3d 64 34 29 3d 2a 9a 21 be
       0.15461731 0.09021303 0.04130973 -0.15781465
000070 2e 54 ea bd 3a d2 b7 ba d1 57 a8 3d 88 87 15 be
       -0.11441837 -0.0014024444 0.08219875 -0.14602482
000080 fd fe a9 3d 2e 13 b8 ba 7a 72 df 3d d7 f6 91 3c
       0.08300588 -0.0014043802 0.109105065 0.017817898
000090 3f d0 96 3c a6 8b 09 bd 23 d7 54 bd a1 e6 bf 3c
       0.018409846 -0.033580445 -0.051962983 0.023425402
0000a0 3e 4e b1 ba e2 26 35 3d 45 67 89 be a6 85 af bd
       -0.0013527346 0.044226535 -0.268366 -0.08570413
0000b0 15 bb 2e bd 70 2b 17 bc ed eb b9 bd 9e 88 25 be
       -0.042658884 -0.009226665 -0.090782024 -0.16165397
0000c0 f8 95 96 3d 31 5d 4b bd 9f 23 cb 3c da 52 06 3d
       0.07352823 -0.04964942 0.024797259 0.032793857
0000d0 76 65 21 3e 33 e8 1b be cc 3e e1 3d c8 33 2a 3e
       0.1576136 -0.15225296 0.10998306 0.16621315
0000e0 e1 f8 ba 3d 2d f1 1a be e8 62 a1 bd 61 ab 05 3d
       0.09129501 -0.15131064 -0.07880193 0.032634143
0000f0 ed 2b 25 be f8 69 d9 bd 77 b4 08 3e 54 df 2d bd
       -0.16130038 -0.10615915 0.13350092 -0.04244931
000100 ca e2 ed bb ad bd 61 be ab 37 33 bd fb 54 b6 bd
       -0.0072597014 -0.22045012 -0.04375426 -0.089029275
000110 d4 c1 8e be eb 1c 71 3d 9d 7b 9d 3d 23 6f be 3d
       -0.27882254 0.05886547 0.07689593 0.092985414
000120 d2 db 8a bd 12 96 8e 3d fc df 24 be cc 0b 42 bd
       -0.06780209 0.069622174 -0.16101068 -0.04737453
000130 12 28 6f 3d fc a5 93 3c 6a c0 5f bd 39 a8 88 3d
       0.058387823 0.018023483 -0.05462686 0.06672711
000140 95 e7 ef bd 90 10 f2 bd 1f 5d ba bd a1 26 09 3d
       -0.11714093 -0.11819565 -0.09099793 0.033484105
000150 2d 63 cf 3d 83 8a 7c 3c ed fe a7 bd 82 a0 98 be
       0.10126338 0.015413883 -0.0820292 -0.29809958
000160 8a 27 3e 3e d4 47 9b bc e2 22 e8 3c 14 4d 84 3e
       0.1856977 -0.018955149 0.028336946 0.25840056
000170 20 49 2c be 0f c3 54 3d 98 29 c2 bd 28 b6 b1 3d
       -0.1682477 0.051943835 -0.0948059 0.08677322
000180 fa e2 21 3c 01 9d 0c 3b d2 12 84 be 9c 94 90 bd
       0.009880776 0.0021455886 -0.2579561 -0.07059595
000190 18 ac a8 bc 38 7f 0c 3d 41 cf e2 bc 95 38 f5 bd
       -0.020589873 0.034301013 -0.027686717 -0.11973683
0001a0 43 0d 09 3d f4 21 11 3d f5 b5 33 bd 41 df 0e 3e
       0.033459913 0.03543277 -0.0438747 0.13952352
0001b0 bb 54 9d 3c f2 73 27 3e 4b 9c 37 be f8 67 4e bd
       0.019205442 0.16352823 -0.17930715 -0.05039212
0001c0 9a a2 04 3e 3d f6 0a bd 90 bc 43 3d 6a 65 18 be
       0.12952653 -0.033926237 0.04778725 -0.14882436
0001d0 87 6d 0b be 04 82 3a 3e 1b 3c f7 bc 1d 89 70 3d
       -0.13616 0.1821366 -0.030180028 0.05872451
0001e0 4a 3d 53 bd db ef 25 be 49 03 4b be e3 18 3b be
       -0.05157212 -0.16204779 -0.19825472 -0.18271212
0001f0 29 9b 56 be 8d 4b a2 3d ea e7 10 bd 13 c7 99 3d
       -0.20957626 0.079245664 -0.03537742 0.075086735
000200 c0 f4 41 bc 46 86 57 be fb 8a 28 3e c3 b1 cd bd
       -0.011838138 -0.21047315 0.16459267 -0.10043671
000210 99 35 65 bc 26 fc 87 3c 03 9f 89 3d 7f 18 8d 3d
       -0.013989829 0.016599726 0.06719782 0.06889438
000220 54 6b b0 bc 55 c1 05 3e fd 77 34 bd ad 77 90 be
       -0.021535553 0.13062032 -0.044059742 -0.28216305
000230 53 43 e5 bd cf a5 3e bd 20 79 9c bd 72 35 d5 3d
       -0.11194482 -0.046544846 -0.0764029 0.104105845
000240 9c 6c bc bd 7e 8c e2 bd bc a2 af 3d b3 29 58 3d
       -0.09200403 -0.11061953 0.08575961 0.052774142
000250 21 c9 03 be e8 0e 42 bd 32 d8 4d bd 7c 9d 08 bb
       -0.12869693 -0.047377497 -0.050255008 -0.002084582
000260 4b 91 9f 3d 57 f0 30 be ef 3f 46 be dd 57 55 3e
       0.07791384 -0.17279182 -0.19360326 0.20834298
000270 28 1c e1 bd 23 b7 6a bd f7 c8 33 3c 54 6e 03 3e
       -0.109916985 -0.05730356 0.010973207 0.12835056
000280 55 65 34 3d f2 25 b6 3c 0e cf 9a bd 72 8f 87 3d
       0.04404195 0.02223489 -0.07559024 0.06619157
000290 fe 0e 55 3d 65 7b b5 3c 62 6f 11 be cf 9a 12 3d
       0.05201625 0.022153566 -0.14202645 0.03579217
0002a0 0d fc 81 bc 5e e8 64 bd a4 55 79 bd 67 8c ed 3d
       -0.015867257 -0.055885665 -0.06087269 0.11599045
0002b0 3a a0 d7 bd 6c 82 bd 3c 17 f3 b1 bd 81 30 1c 3e
       -0.10528608 0.023133479 -0.08688944 0.15252878
0002c0 3a 3e 39 3e 5e 86 e5 bc d7 8f 52 bc 2c 7e 37 bd
       0.18090144 -0.028018173 -0.012851677 -0.04479806
0002d0 2a ee d3 bc 4d 34 47 3b b6 fa c5 bd 79 5b 16 be
       -0.025870401 0.0030396164 -0.0966696 -0.14683332
0002e0 23 48 46 bd 35 b7 69 bd ca 7b 2f 3e 33 2f 21 3e
       -0.04840864 -0.057059485 0.17137066 0.15740661
0002f0 92 fe 95 3c 73 ba d9 bd be 3a 2e bd 0d 0e 65 3d
       0.018309865 -0.106312655 -0.04253649 0.055921603
000300 3b 67 29 3c 4e 2f 3d 3d f4 a8 64 be 06 ba 18 be
       0.0103395535 0.04618769 -0.22330076 -0.14914712
000310 03 10 6c be 88 c2 1a 3d 18 8b 76 3c e5 0a 4f bc
       -0.23052983 0.037783176 0.015047811 -0.012636875
000320 09 6e 16 bd dd f1 05 3e 5d d4 80 be fd e3 49 3c
       -0.03672603 0.13080545 -0.2516202 0.012322423
000330 f5 55 b7 bd c2 db 18 bd 2d dc 1e bc c4 25 82 3d
       -0.08951942 -0.037318952 -0.009696049 0.063548595
000340 7c d6 ee bd 54 1e ea bd 3d 42 9b bd b2 55 ff 3d
       -0.116620034 -0.11431566 -0.07580993 0.12467517
000350 f4 ee aa bd 3f 90 38 bd 22 d3 db bb 35 7c 1f 3e
       -0.08346358 -0.04505944 -0.0067085186 0.15574725
000360 84 20 b3 3c 75 61 44 3c 93 fb 99 bd 6e c0 29 3c
       0.02186609 0.011986126 -0.07518687 0.01036082
000370 6c 9f e6 bd cd 9f c0 bd 85 f5 8d bd cd 25 d5 bd
       -0.11260876 -0.094054796 -0.06931595 -0.104076006
000380 23 f6 24 be 71 c1 11 3e e2 80 06 3e 18 a6 8a 3d
       -0.16109519 0.14233948 0.13135102 0.06769961
000390 f3 62 d2 bd 49 16 bd bd 51 f5 0e bd 5d 84 19 bd
       -0.10272779 -0.09232766 -0.03490192 -0.037479747
0003a0 e9 5e 3b 3e ac 78 f3 bd 99 09 ec bd 72 14 ab bc
       0.18297924 -0.11888251 -0.11525268 -0.020883773
0003b0 15 92 1d be 78 c1 2e 3e 43 95 1d 3e 74 b5 83 3d
       -0.15387757 0.1706599 0.1538897 0.06431094
0003c0 6c e8 3e bd 8c 16 b2 3d 4a 14 17 be d6 08 14 3c
       -0.046608374 0.08695707 -0.14753833 0.00903531
0003d0 84 2c 8b 3d af e8 16 3e df ac 80 3e fb 99 f0 3d
       0.067956 0.14737199 0.2513189 0.117481194
0003e0 0a 29 c2 3d b8 8e 91 3d a3 70 7b bd c4 52 0a 3e
       0.09480484 0.071072996 -0.061386716 0.13508135
0003f0 7f b0 67 be 82 79 51 be 25 4f 8f bd 92 6e 93 bd
       -0.22625922 -0.20456508 -0.069975175 -0.07198824

fc2.bias f4 [84]
000000 5b ca 89 3e b3 13 b7 bc 69 15 0c 3f 9c 58 49 bc
       0.26912197 -0.02234826 0.5472017 -0.0122891925
000010 84 a6 a9 3e 6d 18 02 bd 6c 16 85 3e 6a 02 20 be
       0.33134854 -0.031761575 0.2599367 -0.15625921
000020 cb 3c 3b 3f 3d 61 80 bd 79 b2 c2 bd 03 aa 0e 3d
       0.7313964 -0.06268547 -0.09506697 0.034830105
000030 87 7d ae 3e 74 f7 a7 3e 32 25 d9 3e 5b bb fb 3d
       0.34080145 0.3280598 0.4241119 0.122915946
000040 8a 82 3a 3f 89 39 57 3f 2e 8b b3 bd d3 ff 3c 3f
       0.72855437 0.84072167 -0.08766781 0.73827857
000050 f8 0d b7 3e dc 9f 95 bd f9 a2 69 bc b5 e9 c5 3e
       0.35752845 -0.073058814 -0.014260047 0.38654867
000060 13 85 7a 3e a6 47 32 3e e7 92 2e be de d1 dc 3c
       0.24464826 0.17410144 -0.17048226 0.026955541
000070 19 d5 cb 3e 9d ac bd 3e c6 80 83 3e e4 5a 3d 3e
       0.39811018 0.37045756 0.25684184 0.18491703
000080 7f 15 3f 3d 11 a8 6c bc 9a 22 e5 3c e2 44 66 3e
       0.04665136 -0.014444367 0.0279706 0.22487214
000090 75 6b b3 3e c2 28 fd 3e e5 be cb bd 57 f7 66 3d
       0.3504292 0.49445158 -0.099485196 0.056388225
0000a0 4b 60 00 be 70 76 7d bd 65 a5 27 be 1b 2a 20 3f
       -0.12536733 -0.06188053 -0.16371687 0.6256425
0000b0 9a 49 c3 bc ae 0b db 3d 3b 91 06 3e 60 33 41 bc
       -0.023838807 0.10695587 0.13141339 -0.011792034
0000c0 d9 70 b8 3d 67 3c 3c bd 43 fa 09 bd bd e9 ea 3c
       0.09005899 -0.04595604 -0.033685934 0.028675908
0000d0 44 5c 81 3e 96 23 c7 bc d6 d8 8d bc ca 15 5a 3e
       0.25265706 -0.02430896 -0.01731531 0.21297374
0000e0 8f a1 87 bd 8f fb 53 3e 78 8f 94 3e ce 72 05 3f
       -0.06622612 0.2070143 0.29015708 0.52128303
0000f0 a0 d5 ff 3e 1a 65 b0 3e 9a c1 2e 3e f8 30 85 3e
       0.4996767 0.34452134 0.1706604 0.26013923
000100 3c d4 22 3e d7 e2 da 3d d3 a7 63 bd a1 17 6b 3e
       0.15901273 0.106877975 -0.05557997 0.22958232
000110 b7 57 19 be b0 b3 0c 3f 42 a0 2d be f6 1a 16 3e
       -0.14974867 0.5496168 -0.16955665 0.14658722
000120 ef 48 a0 bc 34 4b 16 3f 09 46 d2 3e 04 05 06 3d
       -0.019566027 0.587085 0.41069058 0.032719627
000130 a4 51 25 3d 57 c4 9c 3d 0f e1 4d 3e 36 c7 32 be
       0.04036106 0.07654636 0.20105384 -0.17458805
000140 05 a8 cf 3e 3c 22 30 3e 72 71 02 3f b5 be df 3d
       0.40557876 0.1720056 0.50954354 0.10925046

fc3.weight f4 [10, 84]
000000 a1 a7 23 3d 6b 00 13 bd 53 03 24 3e cf 66 42 3d
       0.039954785 -0.03588907 0.16016893 0.047461327
000010 d6 26 c4 3d f4 97 de bd 89 04 91 bd e7 48 68 3e
       0.0957772 -0.108688265 -0.07080943 0.2268406
000020 87 fd 11 be 79 11 0c 3e 78 75 ed bc 29 bd 4f 3e
       -0.1425687 0.1367854 -0.028986678 0.20287003
000030 87 61 f8 3d 49 cd 80 be b0 b4 55 3e 22 60 1e 3e
       0.12127977 -0.2515662 0.20869708 0.1546636
000040 58 fc cd be 96 f0 90 be d2 81 b2 bd 3e ce 4d be
       -0.40231586 -0.28308553 -0.087161675 -0.20098206
000050 96 4d 0c bd 27 c1 27 3e 6a 4d 57 3e c0 d5 17 3e
       -0.03425368 0.16382276 0.21025625 0.14827633
000060 be 55 b4 3d c2 2d b6 bd 47 03 73 3d 39 1d 55 3e
       0.088054165 -0.08895446 0.059329297 0.20811929
000070 bd 82 0e be 15 fe 4a bd 0f 94 70 be 44 9e 75 be
       -0.1391706 -0.049558718 -0.2349398 -0.23986155
000080 fe ee 27 be 70 54 31 bc 84 7e 53 3d 12 f3 2a 3d
       -0.16399762 -0.010823354 0.051634327 0.041735716
000090 3c 19 d3 bd 33 b9 ee bd 38 b6 12 3e c9 f0 10 be
       -0.103075475 -0.11656418 0.14327323 -0.14154352
0000a0 28 86 27 be 8d a4 55 3e 70 e5 6d 3e 33 2e 8d 3d
       -0.1635977 0.20863552 0.23232055 0.068935774
0000b0 ce 12 01 be 16 3e 0e 3e 67 23 66 bb 7b 8a 09 be
       -0.1260483 0.13890871 -0.0035116316 -0.13431732
0000c0 7d d8 2f 3e 00 3c 32 3d ea c6 86 3e b3 39 2e 3d
       0.17172427 0.04351425 0.26323634 0.042535495
0000d0 ac da 7e 3d d5 ae ae 3d b9 97 b2 bd 56 51 f9 3d
       0.06222026 0.0852944 -0.08720345 0.12173717
0000e0 dc 6d 25 bd ab 98 56 bc 9c af 9f 3c 88 c3 ca ba
       -0.040387973 -0.013097922 0.019492917 -0.001546965
0000f0 4d 90 65 3e 66 49 2d bc d8 ff 80 be f7 21 be be
       0.22418328 -0.010576582 -0.25195193 -0.37135288
000100 8a f1 c7 3d d9 76 88 be 0e dc 20 3e a9 c8 15 3e
       0.09762867 -0.26653174 0.15708944 0.14627327
000110 6b bf 28 3e 47 d0 ee bc 64 3c f9 3d a1 00 4a 3e
       0.1647927 -0.029152049 0.12169722 0.19726802
000120 95 d1 a3 ba 0f 00 92 3c 55 41 8e 3e 01 dd bd 3d
       -0.0012498373 0.017822294 0.2778422 0.09270669
000130 00 91 2b be 8f 38 39 3d 6b d2 90 bd 0e 5e 4b 3e
       -0.16754532 0.045219954 -0.07071384 0.19860098
000140 fd a0 a5 3e f3 76 b6 3d 55 0a 86 3d b8 3c 87 3c
       0.32349387 0.089094065 0.065449394 0.016508445
000150 a7 6c 37 be 6b a1 1a 3e 1f 50 c0 3a 7c 47 48 ba
       -0.17912541 0.15100639 0.0014672315 -0.00076400465
000160 0a 50 c2 bd f0 e8 0d 3c 93 12 3d be 36 08 34 be
       -0.094879225 0.008661494 -0.18464117 -0.17581257
000170 a4 75 a5 be 85 6c 98 3d a6 dc b3 3d c2 45 fb bd
       -0.32316315 0.074425735 0.0878232 -0.122691646
000180 bc 47 36 3d 79 b6 05 bc cf 4d f1 3d 01 10 09 be
       0.044502005 -0.008161181 0.11782419 -0.13385011
000190 88 b5 32 be f4 cb d1 be 36 25 0f 3d c1 0c 74 be
       -0.17452061 -0.40975916 0.034947596 -0.2383299
0001a0 17 40 fd 3c 3e d6 09 3e 93 a9 64 3d 07 49 e6 be
       0.03091435 0.13460633 0.05582578 -0.4497759
0001b0 b8 74 7e 3d 59 bf 96 3d 43 35 a4 bd 36 91 a2 bd
       0.06212303 0.073607154 -0.08017971 -0.07937853
0001c0 4c 76 df bd 12 b9 92 bd 45 c9 7a 3d fe d1 1b 3e
       -0.10911235 -0.071642056 0.0612271 0.15216824
0001d0 9d d3 f0 3d 28 08 0e 3e 2d 92 dc 3d 76 f3 b7 bd
       0.11759112 0.13870299 0.10770068 -0.08981983
0001e0 09 39 bb bd 8d 66 82 3d 72 4a 56 3e ff a5 14 be
       -0.09141738 0.06367216 0.20926836 -0.14516447
0001f0 24 ed 9e 3c df 69 83 3d 71 9f b1 bd c8 18 6d be
       0.019400187 0.06416678 -0.08672989 -0.23153985
000200 03 2b 7c 3e 14 64 02 be 5f d9 b7 3e 09 c2 87 bd
       0.24625783 -0.1273349 0.35908028 -0.06628806
000210 6b db d5 3d 2e a8 de 3d f1 5b a2 3c 17 9c 87 bc
       0.10442241 0.108719215 0.019819232 -0.016553922
000220 b5 2f 8c be 6b 68 46 be d0 9f 04 3d 7e e5 fe bd
       -0.27380148 -0.1937577 0.03237897 -0.12446116
000230 30 41 54 3e d7 fe 25 bd 01 22 15 be a3 58 82 bd
       0.20727992 -0.040526237 -0.14563753 -0.06364562
000240 75 ad 16 3e 42 73 c1 3c 44 27 e2 3d 94 4e 02 be
       0.14714606 0.02361453 0.110426456 -0.12725288
000250 b4 64 a5 3e e4 ee 12 3e b1 80 6e 3e 39 d4 ea 3d
       0.32303393 0.14348942 0.2329128 0.114662595
000260 d7 18 3f 3e 48 32 6f bd 93 d5 53 3e c0 da a3 3c
       0.1866182 -0.05839756 0.20686941 0.020001769
000270 72 75 c0 3d a5 41 69 be 6e 5a 8d 3e 44 21 a5 3e
       0.09397401 -0.22778948 0.27608055 0.32251942
000280 da 7a 4d bd ec d4 e6 3d d6 68 f6 3d 70 0f 30 3e
       -0.05016599 0.112710804 0.120317146 0.17193389
000290 0d 86 7b 3e 7f d9 0d be 3d e7 4b be b0 64 9c bd
       0.24562855 -0.138525 -0.19912429 -0.07636392
0002a0 08 f8 74 3e 77 9a 30 3e e8 ed c5 bd b0 2d e5 bd
       0.23922741 0.17246424 -0.09664518 -0.11190355
0002b0 64 6e 70 be 6e fb 69 bd 0c 9e 69 3e 5d dd 39 3e
       -0.2347961 -0.057124548 0.22814196 0.1815085
0002c0 76 6f 88 bc fd c4 cc 3d bd 91 25 3d e6 2b 85 3d
       -0.016654711 0.0999851 0.04042219 0.065025136
0002d0 25 25 75 bd 9e ea 05 be 02 19 9b bd dc c0 21 3e
       -0.059849877 -0.1307778 -0.07573129 0.15796226
0002e0 a5 27 dc 3d c4 8b 76 3e e8 0e de 3d a0 12 85 3e
       0.10749749 0.24076754 0.10842687 0.25990772
0002f0 ad fd 3b be a0 fd df 3d e1 b7 8a 3d 2c d7 ee 3d
       -0.18358488 0.10937047 0.06773353 0.116621345
000300 e5 39 8c 3e cc f4 b8 bd b5 ab 73 3e 4a 3f 3e 3e
       0.2738792 -0.09031066 0.2379597 0.1857883
000310 ea b1 31 3e c6 87 1e be 8d 00 5f 3e 22 bc e8 bd
       0.17353025 -0.15481481 0.21777554 -0.113640085
000320 11 1a ed bc 35 90 ad bd eb 6c 43 3e dc e3 c7 bd
       -0.028943093 -0.08474771 0.19084518 -0.097602576
000330 f8 c8 66 be ce 0b b2 3d 35 a8 7d bd e5 00 12 3e
       -0.22537601 0.08693658 -0.061927993 0.14258154
000340 30 28 9c 3d ee 2b 84 3c fa c8 b3 3d 14 fe 5e 3e
       0.07624853 0.016134229 0.087785676 0.2177661
000350 88 5b a0 bd 13 5d c4 3c d9 b6 a3 bd 99 ca 75 3e
       -0.07829958 0.023970162 -0.0799386 0.24003066
000360 20 1d b9 bc 15 bd 65 3e 6f 1b 62 3e bc 72 37 3e
       -0.022596896 0.2243541 0.22080778 0.17914861
000370 95 be 92 3e 2d 12 a3 bc a2 a2 80 3e 86 aa 40 3e
       0.28661028 -0.019906128 0.2512408 0.1881505
000380 04 01 fc 3c 45 ad dc 3b a1 a8 64 bc 83 c7 ac 3d
       0.030762203 0.0067345225 -0.01395622 0.08436491
000390 80 34 91 be 76 ee 92 bd 59 37 21 3c 55 2e 77 3e
       -0.28360367 -0.07174389 0.009839856 0.24138768
0003a0 8f cc 47 be 5a f6 cb 3c ee d8 3c bd f8 f1 e4 3d
       -0.19511627 0.024897743 -0.046105318 0.111789644
0003b0 ae e4 94 3c c9 d4 57 3e 0f a6 66 bd 0a 0e 4a 3e
       0.01817545 0.21077265 -0.05631071 0.19731918
0003c0 e0 2c 08 bd 6c a6 70 3d 57 53 41 be f7 12 f0 bd
       -0.03324592 0.058752462 -0.18879448 -0.11722367
0003d0 8c 86 19 3e fb e0 27 be f0 52 9c 3b 41 cf 84 3d
       0.14992732 -0.16394417 0.004770629 0.06484843
0003e0 46 3f 25 3d ce d8 03 3d d6 11 1d 3e 98 42 18 be
       0.040343545 0.032189183 0.15338835 -0.14869153
0003f0 08 d0 f0 3d a1 26 cb 3d b4 39 88 bd a2 a2 5b 3d
       0.11758429 0.09919477 -0.06651631 0.053621896

fc3.bias f4 [10]
000000 80 a4 d9 be 64 c3 93 bf 2e b2 87 be a8 a8 5d 3f
       -0.42508316 -1.1544003 -0.26503128 0.86585474
000010 84 f3 23 3f f4 f7 73 3d 4e 03 7a 3d f8 7a 61 be
       0.6404345 0.05956264 0.061038308 -0.22019565
000020 4b 6f 0b 3f 9d 4c 99 be
       0.54466695 -0.29941264
