lightning_workspace/site-2/lightning_logs/version_0/checkpoints/epoch=4-step=50000.ckpt (torch, 504599 bytes, 20 tensors)

model.conv1.weight f4 [6, 3, 5, 5]
00000000: ae1d af3d d494 833e 0839 1e3f 3658 883e
00000010: 7b89 133e 36ba 0a3e d8e5 7ebe 3405 aa3e
00000020: 718a 943e 027f 2e3d a202 15bd 2040 acbe
00000030: 772d 77be f017 1c3d 4bee 0d3e ca63 a5bc
00000040: 60df 9dbe 1d46 edbe 5257 b8be 9fb3 07bd
00000050: bdfb 823d 26f9 813d e26d 62be a8a6 ffbe
00000060: 8441 04bf b6d6 97be ebf4 c9be 6ee8 64be
00000070: 2945 acbe 6a8e 64be 7031 59be a5ed d1be
00000080: fddc 8dbe 0b61 22be 8297 6abd aaed 183e
00000090: 8799 a6be b6e7 9cbe eb71 373e 6db4 393e
000000a0: 23fc 663e 109a e5bc b771 f4be 3e3d 29be
000000b0: 213a ad3e 7595 aa3e 8f76 023e ad7c 94bd
000000c0: 84c2 40be f4db 59be a76f d73d 42fa b6bd
000000d0: f30e 533d b0f4 c8bd cf4c b6bd ad68 6f3e
000000e0: 957e c0bd 3e14 7e3e 61b8 6e3e 0d65 6dbd
000000f0: c5a8 943e 85d2 1abe c597 87bd 3c35 a93e
00000100: f8e9 ad3e 9ffb c63e 6048 c6bd ec96 59be
00000110: 4ebf 57be 4f52 a23d 5fd7 dc3e f1d6 8c3e
00000120: b6de 07be b49d 9bbe ebc7 97be 6ccd 353e
00000130: a3eb d83e 84a0 023f 327e 1b3f 8d15 1f3e
00000140: 465e b33e 2f45 313f e564 243f 2c33 df3e
00000150: 9edf 843e 35d1 0a3e acfa 443c e9a9 15bf
00000160: a0eb 2bbf 49cb 8dbe d699 9bbd 70a4 dbbe
00000170: 51d4 01bf 0ed7 4abe ec23 893b 65fe 82be
00000180: a252 01be e81b 953d 3bb4 8cbd 8f43 edbd
00000190: 684b 8fbe ec42 e1bd 4e96 34be 4fd2 733c
000001a0: 0764 8dbe 4f25 b1bc 1ab9 873e 636e 8b3e
000001b0: 6ac5 afbc 03f4 8ebe 5b91 10be c787 c1be
000001c0: 875d 29bf a78e 35bf d77b d6be cd04 b2bd
000001d0: 4dae 99be 0854 74be e43a 97bd 0149 833e
000001e0: 5af8 cbbd eab3 8c3e 1d27 203f a263 e93e
000001f0: 5757 8c3e e16f 9ebe 5183 2fbe 8c67 71bd
00000200: 0251 003e 7ffb 67bc 4308 2cbe b3f5 0b3e
00000210: 6f30 033e fb3e 2c3d f758 b9bd 1c7a 04be
00000220: b7c2 57be daab 96be f5a2 cabe 2b37 09bd
00000230: 635e ee3d 674d 06be 0f72 5cbd 4f88 553e
00000240: 7ef8 ce3e a3b7 283e 4c37 f33e 43fe f13e
00000250: 639a 0a3f 4dcf e93d 4a85 6ebd 5789 29be
00000260: ffef 09be 55c8 c4bd abd0 6d3e 571c 87be
00000270: b798 89be 1f3a 14be 31ae 6abe a13c 1cbd
00000280: 5888 bcbe 57d7 9dbe fd05 a8be d204 49be
00000290: a15a 07be 33f5 d7be 52b3 c7be 1b1d 55be
000002a0: 64dd 92bd bb5b 86bd 4967 87be c05a 87be
000002b0: 9e5e b2bd edc3 b53d 0918 113e efab dc3d
000002c0: 454b 403e 33a8 b23d ce21 f939 6cab a63d
000002d0: 1a6e 5e3d d926 003e ad90 0f3e b49d b03d
000002e0: 9a9e b53d e246 0a3e a53d d03c 5d5d 3e3c
000002f0: aab6 9ebd 5f82 9bbd 7314 e93c 6ff6 0e3e
00000300: f2ad d13d 685b d5ba 2e6c 02bd a989 dbbc
00000310: 5f9c 0fbd a219 f93c dab5 02be 35a9 0abd
00000320: d05d 993d bed3 0339 90aa d03d 6330 d43b
00000330: 0267 fbbd 18dc 2c3e 9d5a 953e 3a35 cc3d
00000340: 25b0 1c3e 9d5f 9cbd 49eb 1a3e d524 993e
00000350: 854c 6d3e 444a 4a3e 9b1d 823d d7bb 6d3e
00000360: 5f79 a23e a1ab ad3e 7db2 8b3e bb29 6f3e
00000370: 2047 343d 37cc 7c3e 98e7 473e 9015 243e
00000380: 9134 c93d 0b04 623d 601b 703e 2c05 a53e
00000390: 1e15 7b3e 5d76 3ebc fe57 263e 1bb3 393e
000003a0: 9581 993e df5c 3a3e dc8c c33d 9d11 a0be
000003b0: 7447 a3be 1390 9dbe dab0 e2bd 39fb b53d
000003c0: 34b7 66be 6593 c8be deb2 80be 37bd 83bd
000003d0: bf9e 69bd 6d81 243d 3bfc 9d3a 9cba 2abe
000003e0: e1f1 9dbd 3cff 28bc a198 0e3e 22cc be3e
000003f0: 8b08 f23e 0bc6 873e 1926 da3d 4f86 283e
0.08550583 0.25699484 0.6180577 0.266298 0.14407913 0.13547596 -0.24892366 0.33207095
0.29011872 0.042601593 -0.036379464 -0.33642673 -0.24138437 0.038108766 0.13860433 -0.020189185
-0.30834484 -0.46342555 -0.3600412 -0.033130284 0.063956715 0.063463494 -0.2211223 -0.49931836
-0.5166247 -0.29656 -0.3944467 -0.2235429 -0.33646515 -0.22319952 -0.21210265 -0.4100162
-0.27707663 -0.15857331 -0.057273395 0.14934412 -0.32539007 -0.3064553 0.1791455 0.18135233
0.2255712 -0.028027564 -0.47743008 -0.16527268 0.3383341 0.33317152 0.12740539 -0.072503425
-0.18824202 -0.21275312 0.10519343 -0.08934452 0.05152793 -0.098122954 -0.08901369 0.23379774
-0.093991436 0.2481241 0.23312522 -0.057957698 0.2903501 -0.1511937 -0.066207446 0.33048427
0.33967566 0.38863847 -0.09681773 -0.21248978 -0.2106907 0.07925855 0.43133065 0.27507737
-0.13268551 -0.30393755 -0.29644713 0.17754143 0.42367277 0.5102618 0.60739434 0.15535565
0.35032862 0.6924619 0.6421645 0.4359373 0.25951856 0.13556369 0.012022655 -0.5846239
-0.6715641 -0.27694157 -0.07597701 -0.42898893 -0.50714594 -0.198086 0.0041851904 -0.25584713
-0.12629178 0.07280713 -0.06870314 -0.115851514 -0.27987218 -0.109990925 -0.17635462 0.014881684
-0.27615377 -0.021624235 0.2650841 0.27232656 -0.021456439 -0.2792054 -0.14117949 -0.37798902
-0.66158336 -0.70920795 -0.41891357 -0.08692322 -0.30015793 -0.2386018 -0.07384279 0.25641635
-0.09959479 0.27481014 0.6255968 0.45583826 0.27410385 -0.30944732 -0.17139937 -0.05893664
0.12530902 -0.014159082 -0.16800027 0.13667946 0.12811445 0.04205225 -0.09050172 -0.12937206
-0.21070372 -0.29427987 -0.3957745 -0.033499878 0.116390966 -0.13115464 -0.053819712 0.20852779
0.4042396 0.16476302 0.47503126 0.472643 0.54141825 0.114164926 -0.058232583 -0.16556297
-0.13470457 -0.09608523 0.23224132 -0.2638881 -0.26874325 -0.14475296 -0.22918011 -0.038143758
-0.36822772 -0.30828354 -0.3281707 -0.19630745 -0.13218166 -0.4217926 -0.39003998 -0.20811884
-0.07171133 -0.06560465 -0.26445988 -0.26436424 -0.08709453 0.088752605 0.14169325 0.10774981
0.18778713 0.08723488 0.00047518167 0.08138165 0.05430422 0.12514819 0.14020033 0.086238295
0.088681415 0.13503602 0.02542002 0.011618939 -0.07749684 -0.07593226 0.028452134 0.13961194
0.102382556 -0.0016277852 -0.03184145 -0.02679904 -0.035061236 0.03040773 -0.12764683 -0.033852775
0.074885964 0.00012572014 0.10188782 0.0064754947 -0.122755066 0.16880834 0.29170695 0.0997109
0.15301569 -0.07635424 0.15128817 0.29910913 0.23173721 0.19754893 0.06353303 0.23216186
0.31733224 0.33920005 0.27284613 0.23355763 0.044013143 0.24687277 0.1952194 0.1602385
0.09824479 0.055179637 0.23447943 0.32230508 0.24519774 -0.0116249 0.16244504 0.1813473
0.29981676 0.1819949 0.09548351 -0.31263438 -0.31890452 -0.30773982 -0.11068888 0.088858075
-0.22530824 -0.39174953 -0.25136465 -0.06432574 -0.057036158 0.040162493 0.001205332 -0.16672748
-0.0771215 -0.010314759 0.13925411 0.37265116 0.47272143 0.26518282 0.10651798 0.16457485

model.conv1.bias f4 [6]
00000000: 62c1 a2be 2c53 e4be 0acb 123f e82d 0dbf
00000010: cef5 99be 4a7d 60bd
-0.31788164 -0.44594705 0.57341063 -0.5514817 -0.30070347 -0.054806985

model.conv2.weight f4 [16, 6, 5, 5]
00000000: bcf7 223e 4c4f 2d3e 5ed5 733e eecc 76be
00000010: 1d9f d6bc 6a93 1d3d 6fac 8cbd f660 e23d
00000020: 0286 76be 5a81 d0bd a389 a43d 857d febd
00000030: a060 683e 0622 323e 056c fdbd 81d5 813e
00000040: 87e5 023e a00a 6b3d 8200 0c3e 5307 85bd
00000050: 3901 1a3e bc68 4c3e 8632 923c bca3 debc
00000060: 480f 38be 6ba5 b9bd 940c a6bd 22fd 25be
00000070: 4801 91bd a034 c9bd 1b40 27be 52a7 15be
00000080: 065d 63bd f57a f63d 4299 2a3d 9082 2fbd
00000090: 9145 cabd 90bd 22be fb97 213a 170d 9b3d
000000a0: f285 e2bd 3bfe 053d 0a3f d3bd cf7b 983d
000000b0: b295 793c ccf4 63bd 797f 6d3c 6414 333a
000000c0: d99c adbc 0b85 ea3c a71b 973e bf82 a4bd
000000d0: 2b25 0abe c974 40be ea75 80be 4682 993e
000000e0: 6de1 33bc 9dfb 0bbe d2a8 afbd a016 90be
000000f0: 50da a63e 1e93 0b3e f13f 0f3d 8ec3 8fbd
00000100: f70b a4be 0414 a73e da48 a93d 7f59 dc3c
00000110: ed3b d3bd d99f 98be 98d9 c63e 85ab c13d
00000120: 338e 173d 5154 7abd 6f14 cebe 75dc b7be
00000130: a6a7 48be 1788 85be 9c6a 85bd 8188 5ebe
00000140: 8f6f 2fbe fcbf 72be 0b7a 52bd 2d57 263d
00000150: 01db 873d fc4e 30be 2d2b 34be 7432 fdbc
00000160: dfdf bfbd 23dc c33c c1ec 5fbe 9bb9 62bd
00000170: be18 52bd 6e0e 28bd 1ac1 d93d c78e 60bc
00000180: 5cf6 243d e008 cb3b 2ff7 1d3e e8ba cb3d
00000190: d709 cf3e 97d9 a5bd a1d2 503e e0da cbbd
000001a0: 0a57 443d 36db 633e 58a7 99bc e221 ca3d
000001b0: 6c52 973d 7c99 f6bc 3105 e13c 0a4d 69bd
000001c0: 5852 33be cd0c d13d 236f 8dbc 7b72 da3c
000001d0: 2c7f c33d ead0 92bd 6c88 b33d 67ac ee3d
000001e0: 73e8 5bbe 26ba 803d 7755 3dbd b191 40be
000001f0: 8ceb 133d 254b 873e 47b3 f03d 2679 963e
00000200: bea0 7bbe d636 933e 329a 9d3d 892d d53d
00000210: 9ccc 053e 1afa 16be e31b 353d 1c37 663e
00000220: 5468 aabc 0751 6f3e a7a7 853d 152f cfbd
00000230: ddae d4bd ffa8 37bd 23c4 073c c2f8 ae3d
00000240: 6e9f 933c ba87 78be eef4 23be 0aef 90be
00000250: dea2 f0bd 302c 67be ac78 93be b527 88be
00000260: f0e8 b9be 5760 aabe 39b0 99be c36b 23be
00000270: 60fb 4f3c fd9d febc b07c 34bd 9af7 2fbe
00000280: 9170 d5bc 3144 80bb 4264 3f3d b82c 9ebc
00000290: f789 9bbd 1794 993e a8d1 473e 6e14 a43d
000002a0: e7e4 0e3e 2842 05be db4f d73e bf9d 9b3e
000002b0: 39f9 9c3e 8bcb 943c cc50 8fbd 815a ef3d
000002c0: 3078 613d 8b96 233e 0a21 2a3d 1814 7e3e
000002d0: 623b 2c3e c149 053e 940c 0f3e 3c30 913e
000002e0: a02e 993e c890 253d 76ba 393e 3901 343e
000002f0: 1169 013e 8e32 033e 36c4 413d b1c0 ad3d
00000300: e2de 5e3e 3be6 6c3e 9da3 ac3d 356e 08be
00000310: bcf6 833d 50b9 843b 07f2 053d 626c 6abc
00000320: 9eb0 16be 26e6 883c 53b2 ea3c 9536 7e3b
00000330: 8c73 373d 7344 b1bd bec1 413d 328b 6c3d
00000340: f6bf f03d 15a1 e63c 0b7e 503d 8391 243d
00000350: aa87 ba3a 0166 4a3d 8d80 133e a727 d6bd
00000360: c44c 4cbd 24d8 873d 1689 afbc 09cd d1bd
00000370: 3038 6ebe 7c69 e4bd f6cb 01be 6468 56bc
00000380: ece7 88ba 1c79 49bc 6892 c73d 303e a7bd
00000390: 92d4 3bbc a8c5 d43d 65d3 8fbd 2a06 edbd
000003a0: 1319 83bd b425 183c b7b4 323d 209e 8bbd
000003b0: 7b2a 433e 794b f23d 7b41 3e3d cebc babc
000003c0: efba 07be 8f7b 1fbe 04be 75be cd4d 90bd
000003d0: 4802 06bd 8c4a e7bc 92b0 e93e 58eb bb3e
000003e0: 91e6 203e 521a 673d 8439 86bc 96ef 1f3d
000003f0: f7ee 2fbd ecc0 a13d e424 8bbd 74ab adbd
0.15914816 0.1692478 0.23811862 -0.24101612 -0.026198918 0.038470663 -0.068688266 0.1105365
-0.24074557 -0.10180922 0.080340646 -0.12426285 0.2269311 0.17395791 -0.12374119 0.25358203
0.1278287 0.05738318 0.13672069 -0.064955376 0.15039529 0.19961828 0.017846357 -0.027177684
-0.1797458 -0.09064754 -0.08107868 -0.16209844 -0.070803225 -0.098244905 -0.16333048 -0.14614609
-0.055508636 0.12035171 0.041650064 -0.042849123 -0.0987655 -0.15892625 0.00061643095 0.07570856
-0.11060704 0.032713156 -0.10314758 0.074454896 0.015233444 -0.05565338 0.014495724 0.00068313465
-0.021192955 0.028627893 0.29513285 -0.0803275 -0.13490741 -0.1879455 -0.2508996 0.29982203
-0.010979039 -0.13670202 -0.08577122 -0.28142262 0.32588434 0.1363034 0.03497309 -0.07019721
-0.32040378 0.32632458 0.082658485 0.026898144 -0.10314164 -0.29809454 0.38837886 0.09456543
0.037000846 -0.061115567 -0.40249965 -0.35910383 -0.19595203 -0.2608039 -0.06514475 -0.2173176
-0.171324 -0.23706049 -0.05138592 0.04061048 0.066335686 -0.1721763 -0.17594595 -0.030907847
-0.09368872 0.02390868 -0.21867658 -0.05535279 -0.051293127 -0.041029386 0.10632534 -0.013705916
0.04027401 0.0061961263 0.15426324 0.09947759 0.40437195 -0.080981426 0.20392849 -0.099538565
0.04793457 0.22251591 -0.018756554 0.09869744 0.073887676 -0.030102484 0.027468296 -0.056958236
-0.1751188 0.1020752 -0.017264908 0.026665917 0.095457405 -0.071687534 0.08766255 0.11653977
-0.21475391 0.06285505 -0.046224084 -0.18805577 0.036113307 0.26424518 0.117529444 0.29389304
-0.24573037 0.28752774 0.07695426 0.10409076 0.13066334 -0.14743844 0.044216048 0.2248196
-0.0208017 0.23370753 0.06526118 -0.10116402 -0.10384915 -0.0448389 0.008286509 0.085435405
0.018020358 -0.24270526 -0.16011402 -0.28307372 -0.117498145 -0.2257545 -0.28803003 -0.26592794
-0.3631053 -0.33276626 -0.3001726 -0.15959077 0.01269421 -0.031081194 -0.044064224 -0.17184296
-0.026054652 -0.003914379 0.046726473 -0.019308433 -0.07594674 0.29995796 0.19513571 0.08011709
0.13954507 -0.13013518 0.42053112 0.30393788 0.30658892 0.018163463 -0.06997833 0.11687184
0.05504626 0.15975396 0.041535415 0.24812353 0.16819528 0.13016416 0.13969642 0.28357112
0.29918385 0.040421277 0.18137535 0.17578591 0.12637736 0.12812254 0.047306262 0.084840186
0.2176471 0.23134701 0.08429644 -0.1332329 0.06443545 0.0040504113 0.03270152 -0.014308067
-0.14715812 0.016711306 0.028649485 0.0038789858 0.04478793 -0.08655634 0.047303908 0.057749934
0.11755364 0.028152982 0.050901454 0.040177833 0.0014231105 0.049413685 0.14404507 -0.10456782
-0.049877897 0.066330224 -0.021427672 -0.102441855 -0.23263621 -0.11152932 -0.12675461 -0.013086412
-0.0010445095 -0.012296941 0.09744722 -0.08166158 -0.011464255 0.103892624 -0.07022742 -0.11573441
-0.06401267 0.009286333 0.043629374 -0.06817269 0.19059174 0.118308015 0.046449166 -0.022795107
-0.13254903 -0.15574478 -0.23998266 -0.07046089 -0.03271702 -0.028233789 0.45642525 0.3670299
0.15712954 0.056421585 -0.016384847 0.039046846 -0.042952504 0.07898125 -0.06794146 -0.08479968

model.conv2.bias f4 [16]
00000000: 2070 3e3d da66 04bf 0c06 063e fbb0 623f
00000010: 2139 c33f cb0e a4be 1e2d 503e 3594 803f
00000020: dfa0 1d3f e773 b6bd 291d 80be 9c3f 99bf
00000030: e1a8 4a3d ffc1 16bd 7bc4 25bf 6ea1 a33e
0.04649365 -0.5171944 0.13088244 0.885513 1.5251809 -0.32042536 0.20329711 1.0045229
0.61573595 -0.08908825 -0.25022247 -1.1972537 0.04947746 -0.036806103 -0.6475293 0.319591

model.fc1.weight f4 [120, 400]
00000000: b2f5 08bd 00e8 c03c 5afb e7bc 9a0c 7b3c
00000010: c898 173b 8d1c 62bc d651 063c ec64 05bd
00000020: dc77 79bc 6d25 1a3c d52f aabc 7513 c33c
00000030: 9de2 3abb 57b0 1c3c 38ee 2a3c e842 bbbb
00000040: c273 05bd 1de3 b33c bfbb 1b3d 5c55 a8bc
00000050: 7eba 853c 1609 2ebd 710a 25bc 4460 a23c
00000060: c511 3cbd a19c 963c bfcb acbc e9ca 45bd
00000070: cb31 1a3d 5546 83bb 975c f4bb 6031 543c
00000080: 1124 73bc 1042 893c 1e02 633c da7f d7bc
00000090: 728c 0abd f3a2 1dbd 5f41 02bd a267 8abc
000000a0: c8e2 0cbd 00cf cf3c 8b2c 0bbd 0fa8 4bbd
000000b0: 1884 80bc 181c 423d 6bc8 d43c 1e83 8f3c
000000c0: a152 283c 4385 453d 79e4 6abc 27ee f4bc
000000d0: e0c1 a23b 4b5f a639 7931 883c e09b c3bb
000000e0: 1e7a 65bc 7a4f 35bd 9782 62bc 992d 35bc
000000f0: fc42 e83c f9e1 d23a 87b3 583d 8513 5abc
00000100: 5647 3bbc 008d 8abc 24d2 91bc 1a38 113d
00000110: 1e61 2f3c aff3 b13c 2b7d 3bbc db00 cfbc
00000120: 93ad 10bd 4d73 d13a 21ba af3b 0520 f73c
00000130: 1bdc b93b 297f c8bb 4d2a 2a3b 69dd 0cbc
00000140: c5ec 27bd 3c1c 063d 07c5 1cbc d034 373a
00000150: c891 3b3d 00e2 743b f9c1 e23b b521 eebc
00000160: f72f 113d 916a 09bc 3e05 16bc 615f e5bc
00000170: 7eea 2f3d 5661 12bc f6e5 2cbd 1315 53bc
00000180: 070c ee3b 5493 23bd 2ee8 1bba 8fb0 0ebd
00000190: 5060 49bc 68ba e6bb d520 db3b aee6 debc
000001a0: 5d43 71bd 75fb 19bc 4496 05bd 5d7b 303c
000001b0: 6dba c23c 7d16 253c 3c71 05bc a444 a7bc
000001c0: 8815 793c b26f bcbc 3a7c 043d 8d6c 33bc
000001d0: c7ab 05bd fb47 f43c 5714 ca3b fd03 f7bb
000001e0: edc9 31bd 4c47 1bbb 3e8d 95bc 12f6 c23c
000001f0: 91e3 c43c e985 6b3c cdcb 913c 0583 213b
00000200: bbaa 583c 09c8 d93b 6636 0bbc 8a12 fcbc
00000210: ed59 34bd f3bc 37bc dcf1 cdb9 4952 a9bc
00000220: 758a bc3c 60c9 0cbd 89a5 7fbb 499e 75bb
00000230: 5ae9 2abd 4afc abbc 2928 29bd 27b6 3cbd
00000240: 38a7 2a3d 08f5 b3bb 75be 70bc 5bf8 c13b
00000250: 3ea0 3abd 1b66 fabb 4889 003d ded7 32bc
00000260: df4e a3bc d155 05bb 30b7 0abd 66ac 08bc
00000270: f846 aebc a9b8 0abd e86b 2bbd efb4 49bd
00000280: 76c1 033d cf5f 52bd c876 973c 2506 96bc
00000290: 4968 7fba 5bb3 d0bc e9d8 8ebc 69b1 233c
000002a0: 462b f33c c931 4e3d 6e13 1abd 2541 293d
000002b0: 98b5 8f3c aae0 efbb 7389 b03c 54ff d6bc
000002c0: 2d00 09bd cbbe 9cbc 6769 51bd 28eb 43bc
000002d0: 2b28 d9bc f038 ef3c 334d 4dbd 5d9a 423d
000002e0: c904 4bbc a2d9 aebc 603e 373c 6e4d bcb9
000002f0: 2255 a5bc 6fd9 19bd a333 1cbd 6fdf 0d3d
00000300: 69ed 403d dba4 7cbc 5fc6 a73c d29d f8bc
00000310: 5bc6 42bd 8ec8 d43c eedd 393d ec28 0a3d
00000320: 3d81 983c 15cb 11bd c750 72bc 68c8 1e3d
00000330: 80b9 f0bc 515a 8f3c cbe2 b1bb 7115 583d
00000340: e0a2 44bb edd8 83bc 9d43 e9ba 1ae2 93bb
00000350: fe73 253d 60df 46bd 0208 16bd 4f86 a6bc
00000360: 554b 18bd 5721 44bb 3523 1bbd 327c 56bd
00000370: c4a3 113d 5272 333c e872 32bb 0c13 183d
00000380: 6b6d 09bc 2265 50bd 2f9b 2d3d 2070 b0bc
00000390: a157 5ebd 6c88 94bc d7bd 1c3b 9ae8 ffbc
000003a0: b07a 5abd ec4c c7bc 40a3 f43c bbd4 36bd
000003b0: 8b2c c4ba 220e a73c 3761 89bb a00a b43c
000003c0: 75c2 b1bc d024 d63c a391 913b cbc9 b6bc
000003d0: 1dbf bb3b cd3f d33c 34f5 f4bc 2564 07bc
000003e0: f460 4e3d f1c2 11bd 2c06 e1bc ab26 04bd
000003f0: 9788 e3bc 922b 333d 5cf8 dcbc d16e 01bd
-0.03343744 0.023548126 -0.028318096 0.015322829 0.0023131836 -0.013800752 0.008198222 -0.03256695
-0.015226331 0.009408337 -0.020774761 0.023812989 -0.002851642 0.009563527 0.010432772 -0.005714763
-0.0325811 0.021958882 0.038020846 -0.020548515 0.016324278 -0.042489134 -0.01007329 0.019821294
-0.045915384 0.018385233 -0.021093247 -0.048289213 0.037645143 -0.004006187 -0.0074573266 0.012951225
-0.014840142 0.016755134 0.013855485 -0.026306082 -0.033825345 -0.03848548 -0.031800624 -0.01689512
-0.034395963 0.02536726 -0.033978026 -0.04972082 -0.015687987 0.047390074 0.025974473 0.017518576
0.0102736065 0.04822279 -0.014336699 -0.029898716 0.0049669594 0.00031732986 0.016625153 -0.0059695095
-0.014006166 -0.044265248 -0.01382508 -0.011058235 0.028352253 0.0016089074 0.052905586 -0.013310318
-0.011430582 -0.016912937 -0.017800398 0.035453893 0.010704307 0.021722643 -0.011443417 -0.025268963
-0.035321783 0.0015979797 0.0053627645 0.030166635 0.0056719906 -0.0061186743 0.0025965155 -0.00859771
-0.040997285 0.03274177 -0.009568459 0.00069887657 0.045793325 0.0037366152 0.006920096 -0.029068807
0.035446133 -0.008387224 -0.009156523 -0.027999582 0.04294824 -0.0089343395 -0.042211495 -0.012883442
0.0072646174 -0.039935425 -0.0005947378 -0.03483635 -0.012291029 -0.0070412643 0.0066872635 -0.027209606
-0.058902133 -0.009398331 -0.032614008 0.0107716 0.023770535 0.010076162 -0.008144673 -0.020418473
0.015202887 -0.02300248 0.032345034 -0.0109511735 -0.032634523 0.02981948 0.0061669755 -0.0075383172
-0.043405462 -0.002369362 -0.018255826 0.023798976 0.024034293 0.014375188 0.017797375 0.0024644744
0.013224299 0.0066461605 -0.008496856 -0.030770559 -0.044031072 -0.011214483 -0.00039280846 -0.02066912
0.02301524 -0.034371734 -0.0039008579 -0.0037478379 -0.041726448 -0.020994324 -0.041298065 -0.04607215
0.04166338 -0.0054918565 -0.014693846 0.005919499 -0.045562975 -0.0076415665 0.03138092 -0.010915725
-0.01993507 -0.002034534 -0.033866107 -0.008341884 -0.021274075 -0.033867512 -0.041850954 -0.049244817
0.03216692 -0.0513609 0.018489257 -0.018313477 -0.0009743018 -0.025476148 -0.017437415 0.009991028
0.02968372 0.050340448 -0.037616186 0.041321892 0.017542645 -0.007320483 0.021549916 -0.026244797
-0.033447433 -0.019133946 -0.05112591 -0.011957921 -0.026508411 0.029201955 -0.05012245 0.047510494
-0.012391278 -0.02134401 0.011184305 -0.00035915844 -0.020182196 -0.037560876 -0.038135182 0.03463691
0.047101412 -0.015420164 0.020480333 -0.030348692 -0.047552448 0.025974538 0.045377664 0.033730432
0.018616313 -0.035594065 -0.014789767 0.03876534 -0.029385328 0.01749912 -0.005428647 0.052754823
-0.0030004308 -0.01609465 -0.001779664 -0.0045130374 0.040393822 -0.04855287 -0.03662873 -0.020327715
-0.037181217 -0.0029927099 -0.037875373 -0.052364536 0.03555657 0.010952549 -0.0027229134 0.03712754
-0.008387904 -0.050877698 0.042384323 -0.02153784 -0.05428279 -0.018131457 0.0023916864 -0.031238843
-0.05333966 -0.024328671 0.029863 -0.04463647 -0.0014966888 0.020392481 -0.004192497 0.021977723
-0.02169917 0.0261406 0.00444241 -0.02231302 0.0057295696 0.025787259 -0.029902078 -0.008263622
0.05038543 -0.0355863 -0.027468763 -0.03226344 -0.027775092 0.043742724 -0.026973896 -0.031599823

model.fc1.bias f4 [120]
00000000: 769c 4fbd 6f3a 37bb 1aa9 dd3c a29b 38bd
00000010: d161 e93c 25d9 a93c 7387 abbd abf6 1ebd
00000020: 875d 8f3d 4f39 7d3d edc3 89bd 962c c23c
00000030: 850b 79bd 8f27 c93d f4d2 f33d 60dd 24bd
00000040: 298e 683d 67f9 10be da92 683a 6f79 933e
00000050: 3b65 61bd 8234 743e 4ffb 613d 85dd da3d
00000060: bac2 0c3e f765 33bd 0f02 1a3d e68d 11be
00000070: b866 98bd 1213 a43e 0351 403e 95d0 1c3d
00000080: 6792 993b 2945 c13d 3a0a 723e fe6a f83c
00000090: bfd5 1b3e 4329 fa3d 44ca 393d e4e9 453e
000000a0: 5232 ac3d 9efa 803d bd4c babd e191 febc
000000b0: 9e52 7bbc 5e6a 84bd 871c 333d 131a 363e
000000c0: 2da3 383e 6074 3c3d c089 573d 4d01 b33c
000000d0: 61ad 373d 44f7 a23d 88a5 823d cb98 b93c
000000e0: 6488 94bd 2f41 1f3e 8f71 4e3d 4221 01bd
000000f0: bffc 3ebe c1cd bf3d b0d8 503e e807 8bbd
00000100: dd27 d33c 4344 973e b2b0 363e 784d 763d
00000110: 9241 933d abc6 44bd 4c42 6abd ea73 af3d
00000120: f58d b03d c598 11bd 00eb b43b b316 8dbd
00000130: 4634 5fba d558 e6bb 4834 1e3d 24b8 8f3b
00000140: 3872 a7bd 95d6 163d 544d 063c 686a bf3d
00000150: acd4 193d d0a0 e2bc 7710 d63d aac2 573e
00000160: 9636 133e cd23 863c 7db9 f43d b8d4 4c3d
00000170: 6764 683d 9cde 093e 7c9e a0bd fce7 e13a
00000180: 3777 1e3d 6d7d 023a 49d1 b13d 4f78 1bbc
00000190: c574 bc3d df82 cc3c 7466 f53d 9597 43bb
000001a0: 0a0e 7a3c 2c64 33bd fce5 173e 84d3 51bd
000001b0: 8c8a 8fbd 379f 35be f42f 08bd 4ec6 e2bd
000001c0: b155 043e e746 fbbd 75a1 bb3d b521 be3c
000001d0: 7711 1e3e 5fe1 e1bd de36 b03d edf5 8dbd
-0.050686322 -0.0027958413 0.027058173 -0.045070298 0.028489025 0.020733425 -0.08375444 -0.03880946
0.07000261 0.06182223 -0.06726823 0.0237029 -0.060802 0.09821998 0.119054705 -0.040250182
0.0567762 -0.1415764 0.000887198 0.28803584 -0.05502818 0.23848155 0.055171307 0.10686783
0.13746157 -0.043798413 0.03759962 -0.14214286 -0.07441467 0.320458 0.18780904 0.038284857
0.004686642 0.094370194 0.23636714 0.030324455 0.15218256 0.12214901 0.04535891 0.19327503
0.08408035 0.062978014 -0.09096668 -0.03107542 -0.015339522 -0.064656004 0.043728378 0.17783384
0.18030997 0.04600942 0.052621603 0.021851206 0.04484308 0.079573184 0.06379229 0.022655865
-0.07252577 0.1555221 0.050401267 -0.031525858 -0.18651102 0.09365416 0.2039516 -0.06788617
0.025775844 0.29544267 0.17840841 0.060132474 0.07190241 -0.048041027 -0.057192132 0.08567031
0.08620826 -0.035546083 0.0055211782 -0.06889095 -0.0008514564 -0.0070296326 0.038624078 0.004385965
-0.081760824 0.036825735 0.008197147 0.09346467 0.037556335 -0.027664572 0.10452359 0.21070352
0.14376292 0.016374493 0.119494416 0.050007552 0.056736376 0.13463825 -0.078427285 0.0017235274
0.03868791 0.00049777963 0.08682496 -0.009489133 0.092019595 0.024964748 0.11982432 -0.0029844989
0.015262136 -0.043796703 0.14833826 -0.051227108 -0.070088476 -0.17736517 -0.033248857 -0.1107298
0.12923314 -0.12269383 0.09161655 0.023209432 0.1543635 -0.11029314 0.08604215 -0.06931672

model.fc2.weight f4 [84, 120]
00000000: cf4a edbc 7533 883d bccb a53d 9723 f83d
00000010: d89e 9abd 94c6 b23d 031b 83bd 4974 483d
00000020: 4739 c13b 9920 adbd c620 cd3b 20fd 99bc
00000030: a15a fdbd 28e3 71bd e26f c03c 0cc9 5c3d
00000040: f310 d0bc f908 c73c 5e68 273d 2a38 4cbd
00000050: 9651 9bbc 0cdc 53bc 788f adba 827e b8bd
00000060: eb9d 203d f881 1abd 9577 2cbc 867f 9fbd
00000070: e78f 453d a7e7 51bc c79f 60bd c840 44bc
00000080: de24 843b e9b9 64bd 5330 543d ab3e 513d
00000090: 80bf a13d 4b69 d9bc 19e0 c6bd f981 c4bd
000000a0: 8ca0 4bbc b67d 7d3d cbc1 51bd f622 1bbd
000000b0: ffd5 81bd 8790 0f3d c039 b2bd 9f68 023e
000000c0: d6d5 9ebd c41e 1c3d fa0e 0ebc 3b43 83bc
000000d0: ba7d 9bbd f433 46bc 5a5e c8bc 79d8 dfbd
000000e0: 75bc 93bb 7465 74bd 137a f7bc 5b84 283d
000000f0: 6bf6 c53c de8b 44bb bbb6 203d a394 e53c
00000100: 9789 c2bd 23f3 2cbd 4034 98bc ee4d 6a3d
00000110: 2e06 77bd ad7d 13bd 1056 bcbd 31d9 833c
00000120: 8d73 d8bd 13f2 95bd 2e03 5d3d b668 8bbd
00000130: ad73 36ba f2ef bb3d 6475 173c 5a5f 3dbd
00000140: e4e8 223d 62b8 57bd 68ff 3fbd 5ff2 aebd
00000150: db41 803d 03e9 6ebd 7154 3fbd 89b9 a5bd
00000160: e6d8 9abd 106c 8bbd 309f 973d b71e 693d
00000170: fcc3 21bc 6eb8 24bd 733d 853d 1b7f 95ba
00000180: e775 ca3d 3a80 e43d 9558 173d fd93 82bd
00000190: 220f 5fbd c6b4 393d 5fe6 ff3c a1d3 acbd
000001a0: 8af2 8c3d 505f d2bc dd0b 8cbd 6a6c 2dbd
000001b0: 8843 b33a 2d7b 443c 262c 5bbd 98f1 d73c
000001c0: 1554 053d 8de7 bcbd 7ee2 783d 9076 90bd
000001d0: ae73 5bbd f2f6 59bd fd6f 88bb 3ffd aebd
000001e0: c53c b4bd e08d 85bc 26b8 b63d c81d 333e
000001f0: bc19 1b3d cdda 2bbd 43fb 6abd fa48 67bd
00000200: 49da 09be a5bf 023c 0c8d 85bb 0141 f3bc
00000210: a489 7abc 2266 7f3d 81b8 653d a818 80bd
00000220: 7e4a 70bb b533 08bd f433 4dbd cec0 15be
00000230: aa9c 9dbd 7900 00bd c815 14bd 4254 933d
00000240: 306e 2abd 102d 853d 9570 da3d 1b1c df3d
00000250: 4a41 26bd 5f02 9ebd 932e bcbc fb9b 873d
00000260: a5af 0cbd 9c31 a53d 8016 19bd 5f0a 873d
00000270: 643d bbbd f1d0 02bd ef48 d5bd b741 33bd
00000280: c698 783d 06e6 8ebd afab 693c 6cd4 b23c
00000290: 9ac4 763c e0bc 1fbe e085 d9bd 54dc a1bc
000002a0: a9f7 f8bd 1d49 973c 1d3a c03a d582 7abd
000002b0: ba63 71bd c447 8f3d bd93 453d e83c 0a3e
000002c0: 6bda 193d 84e8 01be 4f81 d2bd be9b 963d
000002d0: 05b3 583d cdb1 773d de59 ab3d f22d 9a3d
000002e0: 0dc3 04be d0f5 d8bd 4e18 a03d 5886 06bd
000002f0: c50c 673d 0d00 a3ba c871 123d ad06 5cbd
00000300: 92e0 eb3d 168e bc3d 1949 7ebd b3e9 7c3d
00000310: c89c 55bd 6056 ae3d af4e 99bd 398c bc3d
00000320: b123 f43d 0690 b0bd 2315 57bd 0d04 ef3d
00000330: ddee d33c a66c 893d f5f6 79bc 3726 743b
00000340: 4c96 013d d89d babd 53c9 553d 5075 62bc
00000350: 6121 683d 1750 c3bc faab 5b3d 9bf4 83bc
00000360: c597 7ebd e976 debd 6e35 a1bc af70 b7bc
00000370: 54c9 493d c21e 7b3d 7a6a 1ebe 3c76 7a3d
00000380: 62cd bcbd 68ae 213d 7056 bfbb e8f0 b13d
00000390: ad45 8bbd eccc b63c 2921 01bd 597b cebd
000003a0: 7e2c e13d aec8 9e3d 623d 823c f5e8 18bd
000003b0: 5b3f bebd 4cff 85bd 22e2 6abd 0b77 5cbc
000003c0: 2264 81bd 3ab0 0ebe 00a1 c63c 97aa e7bd
000003d0: 0ec0 85bd 45d6 e6bc 54b7 e9bd 8372 ecbd
000003e0: 762e 74be 9ff3 15be af6e d33d 7dba 2ebc
000003f0: 8b95 e93c d022 ffbd b0d2 c5bd 91b3 973d
-0.028966336 0.0665044 0.080955 0.12116163 -0.07549828 0.08729282 -0.064016365 0.048939023
0.0058967206 -0.08453483 0.0062600104 -0.018797457 -0.12370802 -0.059054524 0.02349085 0.05390267
-0.025398707 0.02429627 0.040871017 -0.04985825 -0.018959802 -0.012930881 -0.001324161 -0.090085045
0.039213102 -0.037721604 -0.010526557 -0.07787995 0.04823294 -0.012811578 -0.054839876 -0.011978336
0.004032715 -0.05584136 0.051803898 0.051085155 0.07897854 -0.026539465 -0.09710712 -0.09595103
-0.012428414 0.061887465 -0.051210206 -0.03787514 -0.06339645 0.03504994 -0.08702421 0.12735222
-0.0775563 0.038115278 -0.008670563 -0.016023269 -0.0759234 -0.0120973475 -0.024459053 -0.10929961
-0.00450855 -0.059667066 -0.030209577 0.04114185 0.024165353 -0.0029990594 0.039236765 0.028024977
-0.094988994 -0.04222406 -0.018579602 0.057203226 -0.060308628 -0.036008526 -0.091961026 0.016094776
-0.105689146 -0.073215626 0.05395811 -0.068070814 -0.0006959986 0.09176625 0.009244297 -0.046233512
0.039772883 -0.052666076 -0.046874434 -0.08542322 0.06262561 -0.058327686 -0.04671139 -0.08092029
-0.07560901 -0.06807721 0.074034095 0.056914058 -0.0098733865 -0.04021495 0.06505861 -0.0011405678
0.09885769 0.1115727 0.036949713 -0.06375883 -0.05445779 0.045338415 0.03123778 -0.084388025
0.06882198 -0.025680214 -0.068382 -0.04233972 0.0013676742 0.011992258 -0.0535089 0.026360318
0.03255089 -0.09223852 0.060762875 -0.07053864 -0.053577118 -0.05321402 -0.0041637407 -0.085443966
-0.08800653 -0.016303003 0.08921842 0.1749183 0.03786634 -0.04195671 -0.057368528 -0.05646608
-0.13462175 0.007980262 -0.004075652 -0.029694082 -0.015291605 0.06235326 0.05608416 -0.06254703
-0.0036665495 -0.033252437 -0.050098374 -0.1462433 -0.07695897 -0.03125045 -0.036153585 0.07193805
-0.04160899 0.065027356 0.106660046 0.108940326 -0.04058961 -0.07715296 -0.022971427 0.06621548
-0.034347195 0.08066103 -0.037374973 0.06593775 -0.09142569 -0.031937543 -0.104143016 -0.043763842
0.06069257 -0.06977467 0.014262124 0.021829806 0.015061522 -0.15599394 -0.10621238 -0.019758381
-0.121566124 0.01846748 0.0014665757 -0.061159927 -0.058932997 0.0699611 0.048236597 0.13499796
0.037561815 -0.12686354 -0.1027857 0.07353924 0.0529051 0.0604723 0.0836675 0.075282946
-0.12965031 -0.1059376 0.07817136 -0.032842964 0.056408662 -0.0012435928 0.03575304 -0.053717304
0.11517443 0.09206788 -0.06208143 0.06174631 -0.05215147 0.085125685 -0.07485711 0.09206433
0.1192087 -0.0862122 -0.052510392 0.116706945 0.025870735 0.06710176 -0.015256633 0.0037254223
0.031637475 -0.091121376 0.05219395 -0.013821915 0.056672458 -0.0238419 0.053630807 -0.016107848
-0.062156457 -0.10862524 -0.019678798 -0.022392599 0.049264267 0.06130863 -0.15470305 0.061147913
-0.09218861 0.039472967 -0.0058391616 0.08688527 -0.06800399 0.022314511 -0.031525765 -0.100821204
0.10994814 0.0775312 0.01589841 -0.03733154 -0.09289428 -0.06542835 -0.057344563 -0.013456116
-0.06317927 -0.13934413 0.024246693 -0.11311834 -0.06530772 -0.028178344 -0.1141192 -0.11545279
-0.23845848 -0.14643715 0.103238456 -0.010664579 0.02851369 -0.12457812 -0.09659326 0.074072964

model.fc2.bias f4 [84]
00000000: 4d5c f3bc 3047 383d 6185 833e f684 c4bb
00000010: 34b4 293e c938 9bbd 6654 9a3d b412 58bd
00000020: 0e50 093d 38e7 c0bd 90f1 69bd d7b4 263d
00000030: c1fa a8bd 820f 233e 4a96 703d a04c adbc
00000040: 2e58 33be 02bf 333e 3c09 893d aa81 b7bc
00000050: b542 843b ac4a 0e3e f1d5 e93c 133f 293d
00000060: a036 883e dfce 323e 2c79 d93d bf52 e3bc
00000070: e661 263e 6e73 e33d b611 5fbc 5a0e 7abd
00000080: a17c 353d a33b 8c3d 3745 bebd a7b7 3b3e
00000090: cac1 e23d d440 7e3e 87b9 fabc b0c2 003f
000000a0: 6438 843c 3614 77bd 7e97 5c3b 74ea 1abe
000000b0: c8ca e0bc 0dcc d1bd 4cf8 16bd 8c38 c3bd
000000c0: 4db1 ec3e c7d8 793e 644a 073f dc2a 373e
000000d0: 103d 233e 0fc9 b93c 6900 233d ca62 af3d
000000e0: ab13 0a3d 339e 2d3e 27e7 41bd 4aa9 f8bc
000000f0: 746c 1dbc 7e28 223d 8718 e73d f947 6d3e
00000100: 2be3 9e3d f40a 7e3d 4a52 163f 7cda 20bd
00000110: e90a 17bc ed8f b8bd edce 313e 4b36 833e
00000120: dcc3 7a3e fc7d e93d a468 003f 871d b13e
00000130: 4aa6 a63d 246e d93e 66d6 c63b 1977 3e3d
00000140: 2165 7a3e 40c0 383e 6712 653d 3b38 603c
-0.029707098 0.044989765 0.25687698 -0.0059972955 0.16572648 -0.0757919 0.07535629 -0.05275221
0.03352361 -0.094191015 -0.057115138 0.040699806 -0.082509525 0.15923885 0.058737077 -0.021154702
-0.17514107 0.17553332 0.066912144 -0.022400696 0.0040362724 0.13895673 0.028544398 0.041319918
0.26604176 0.17461728 0.10618815 -0.027749417 0.16248283 0.11106001 -0.013615062 -0.061048843
0.04430831 0.06847312 -0.092905454 0.18331777 0.110721186 0.24829417 -0.030606044 0.5029707
0.01614017 -0.06032201 0.0033659632 -0.151285 -0.027440444 -0.10243998 -0.036857888 -0.0953227
0.4622902 0.243991 0.52847886 0.17887443 0.15941262 0.02267888 0.039795313 0.085637644
0.033710163 0.1695488 -0.047339585 -0.03035416 -0.009608377 0.039589398 0.11283975 0.23171987
0.077581726 0.062022164 0.58719313 -0.039270863 -0.00921891 -0.09011827 0.17364092 0.2562736
0.24488777 0.11400983 0.5015967 0.3459284 0.08137186 0.42466843 0.0060680388 0.0465003
0.2445264 0.18042088 0.055925753 0.013685281

model.fc3.weight f4 [10, 84]
00000000: c961 a83c c909 b0bc ad5e a4bc 2d60 433e
00000010: 7a4f 99bd 2739 4a3d 2cfb 1bbc 500c d43d
00000020: 714e 263c e9a1 16be 820b a9bd 4f0d ef3d
00000030: 306d 02bd 1f23 4f3e 57d3 b539 803e 203e
00000040: a87b 2e3e df2a 39be cf9e 143d d2c5 c63d
00000050: a7ac 183e 279d b73d ec70 973e 2db3 79bc
00000060: 1b89 313b 60c5 e53d 73e2 13be bd01 e43d
00000070: da00 fa3d b2c6 19be 2975 0abe f6b3 51bd
00000080: 191c f23d 4c85 473e 4169 523d 76f3 40be
00000090: c1d4 8dbe aa8b 733e 58c1 6b3e 512d 58be
000000a0: 8ca6 08bd 9ebf f43d 14d9 363e 9426 cf3d
000000b0: 8dc3 f53d ac57 443e c70f 113e cf58 a73d
000000c0: 5bc6 e43c 2b82 3bbe 69f7 02be 9df9 86bd
000000d0: 6bf1 e3bd 8e45 cdbd f2c4 213d 4f98 00bd
000000e0: 9bd3 d83d be75 be3a b382 c6bd fa25 05bd
000000f0: 13a2 a43d daa3 a3bd 37ec 213e acee 9abd
00000100: 2305 6d3e c740 16be 0679 9ebe 02a1 853d
00000110: 4eab b9bd c737 a13d 98c7 213d a123 1c3e
00000120: cca9 00bd 1866 42be b9f0 a83e 60ef 073b
00000130: 1e71 453e b44d b7be ffa0 98bc 51dc 4c3d
00000140: e5b6 b2bd ef00 1f3e 8424 e9bd b4e9 88bd
00000150: 5040 183d 3e44 c5bd c0b0 5bbe 09db 883e
00000160: c203 eabd 6c50 d8bd 296c 07be 699c f2bd
00000170: 1c59 703d 04e6 913e 9da5 363e b55e 05be
00000180: 2cf5 14bd 6eeb f13e 4c8e 8ebc d9eb eebd
00000190: 0e41 47bd 0203 8fbe f46d 843d 16ad 25bd
000001a0: 8c75 5b3e 3783 fcbd 3723 83bc 402d 373d
000001b0: a0ee 85bc 1ede d93d 4760 6f3e e2de b0bc
000001c0: b05c 533d ceb8 d3bd d6fc b33d 97bf b2bd
000001d0: 8533 7e3c db8f 08be f979 b8bd fdd3 88be
000001e0: f8e4 e13c 1913 333e 3b9f dabc 7bb4 89be
000001f0: 29ba fd3d 3b74 34bc 98b9 023d 6fb5 46be
00000200: 8e5f a7bd ad96 323e c006 65be 9564 8c3d
00000210: 080d 07bf 6faf ff3d ba28 46be 9c10 dbbd
00000220: d17c a0bd 77cb 44bd 5f09 133e ed67 19be
00000230: 2311 78bd f628 f53d e4f6 9a3e 856a e63d
00000240: 7aec 0c3e e0a1 6abc 670d 40bb 5ac4 8abe
00000250: d159 9bbd b80b 433e cd8d 96bd 3548 9abd
00000260: 4399 563e 3c0b 543c c99b 72be 9b9c 87be
00000270: 46a0 06be e048 ee3d b720 033e e8fc 7cbd
00000280: d85f d9bc 50ef d2bd 37ab e0bd 7d37 cb3c
00000290: 697a b7be 7c77 66be 4783 67bd e5f8 963c
000002a0: 842c 80bd b418 c03d 2015 4bbe 4ccf 1f3d
000002b0: 2970 d03d f9e0 4e3e cbde ff3c cbe7 0d3d
000002c0: e86f d6bd 9fbd 46be 8c8b d4bd 3640 863d
000002d0: e7c2 953b 94af 57be a2a3 24bc 7724 a33d
000002e0: 047f 593d 1203 023e cb5d 983e 2d2e e53d
000002f0: dccc 60be e39e 11be 7e6e 933d 9f02 cbbd
00000300: 4d19 803c ce37 283e e826 e93c 107e 1b3c
00000310: b95d c9bb 51ff b7bd b03f d23c 8370 85bd
00000320: 119c 88be 1e88 273c 2ea9 093e b434 803e
00000330: 23d2 2cbe 51a9 aebc 8176 4c3e 278d f53d
00000340: 3a0e bfbd 760c f43d 9b70 95bc 8989 693e
00000350: 62c9 dfbd 0acc 7c3e ec39 38bd 99bf e3bd
00000360: b214 813e 1340 84bd 3e20 9c3e ad23 ae3d
00000370: a2c6 173e 3239 9d3d beca da3d a4b5 493e
00000380: 916e ae3c af39 33bd f3c2 063e f639 c9bd
00000390: 4530 93bd 8ab0 123d 538c d93d 1d42 16be
000003a0: ec91 b9bd 0de4 673d 541b 8b3d 16e0 e7bd
000003b0: ce66 acbd 0dd4 8ebd a5bc 4d3c 6de2 d33d
000003c0: 61c6 9a3d 4653 b73c 0e88 a03c d9bf 0fbe
000003d0: 2c82 133e ab68 523e ab12 81bd d648 ca3d
000003e0: 6ba4 673d 04f3 b43e 9c12 b83c 02f2 613e
000003f0: 0857 bfbd 6660 853d 4e7c 783d 5397 80be
0.02055444 -0.02148904 -0.020064676 0.19079657 -0.07485862 0.04937091 -0.009520333 0.10353911
0.010150538 -0.14710201 -0.08254148 0.1167246 -0.03184241 0.20228241 0.0003468047 0.15648842
0.17039359 -0.1808276 0.036284264 0.097057 0.14909612 0.08965521 0.2957834 -0.015240473
0.0027089778 0.11219287 -0.14441852 0.11133144 0.12207194 -0.15017202 -0.13521256 -0.051197015
0.118217655 0.19484442 0.05136991 -0.18842873 -0.2770138 0.23783746 0.23022974 -0.21111037
-0.033361956 0.119506106 0.17856246 0.1011478 0.12000189 0.19174069 0.14166175 0.08171236
0.027926615 -0.18311374 -0.12789692 -0.06590579 -0.11130031 -0.10023032 0.039494462 -0.031395253
0.105872355 0.001453094 -0.09692898 -0.03250692 0.08038726 -0.079902366 0.15812765 -0.07565054
0.23146491 -0.14673148 -0.3095171 0.065248504 -0.09065877 0.07871967 0.039496988 0.15247966
-0.03141193 -0.18984258 0.32996157 0.0020742044 0.19281432 -0.3580147 -0.018631456 0.050014798
-0.087262906 0.155277 -0.11383918 -0.066852 0.03717071 -0.09632157 -0.21454144 0.2672961
-0.11426498 -0.10562214 -0.13224854 -0.11846239 0.05867873 0.284958 0.17836614 -0.13024409
-0.036366627 0.4724993 -0.017401837 -0.11666078 -0.048646025 -0.27931982 0.064662844 -0.04044827
0.2143156 -0.12329715 -0.016008003 0.04472089 -0.016349137 0.106380686 0.2337657 -0.021590654
0.051602066 -0.10337983 0.08788459 -0.08727949 0.015515213 -0.13336127 -0.090076394 -0.26724234
0.027575001 0.17487754 -0.026687255 -0.26895508 0.12389023 -0.01101404 0.031915277 -0.19405149
-0.081725225 0.17440291 -0.22365856 0.06855122 -0.5275426 0.12484633 -0.19351473 -0.10696527
-0.07836307 -0.0480456 0.14359044 -0.14981051 -0.060563218 0.11970703 0.30266488 0.11250786
0.13762084 -0.014320821 -0.0029304863 -0.2710293 -0.075854905 0.19047439 -0.07351265 -0.07533304
0.20956902 0.012942132 -0.2369224 -0.26486668 -0.13147077 0.116349936 0.12805448 -0.061764628
-0.02653496 -0.102995515 -0.10970157 0.024806732 -0.3583558 -0.22506517 -0.05652168 0.018429229
-0.06258491 0.09379712 -0.19832277 0.039016053 0.10177643 0.20203008 0.031234166 0.034644883
-0.10470563 -0.19408272 -0.10378179 0.06555216 0.0045703533 -0.21063071 -0.010048779 0.079659395
0.053099647 0.12696484 0.29759058 0.11190448 -0.21953148 -0.14220767 0.07198809 -0.09912609
0.015637064 0.16427538 0.028460935 0.009490505 -0.006145206 -0.089842446 0.025665134 -0.065156005
-0.2668157 0.010225324 0.13443443 0.2504021 -0.16877036 -0.02132097 0.1996708 0.11989813
-0.093288854 0.11916439 -0.018242171 0.22806372 -0.109270826 0.2468721 -0.044977114 -0.11120529
0.25211102 -0.06457534 0.3049335 0.08502898 0.14821866 0.07676925 0.10683201 0.19698197
0.021292957 -0.043756183 0.13160305 -0.09825508 -0.07186941 0.035812892 0.10622468 -0.14673658
-0.090610355 0.05661397 0.06792322 -0.11322038 -0.08418046 -0.06974039 0.012557183 0.10345922
0.07557369 0.022378575 0.019596126 -0.14038028 0.14405125 0.2054774 -0.06302389 0.098771736
0.056553286 0.35341656 0.022469811 0.22064975 -0.09342772 0.06512527 0.06066542 -0.2511545

model.fc3.bias f4 [10]
00000000: 1fc4 85be bb48 0ebf e1d1 e93c f33c ce3e
00000010: 0ca1 183f 2ff3 2dbe 3ce7 1c3e 3ce8 74be
00000020: 1a38 9d3e aa61 9abe
-0.2612619 -0.5557973 0.02854246 0.40280876 0.5962074 -0.16987298 0.15322584 -0.23916715
0.30706865 -0.30152637

momentum_buffer f4 [6, 3, 5, 5]
00000000: b1cb cd3e 9a27 0e3f 100c 133f 84f3 e83e
00000010: 6698 cc3e 169b 803e 7006 723e c9d9 663e
00000020: acd6 aa3e 701c 963e 494e 243e 38c6 e23d
00000030: 8c21 cd3c cece 103e 6a3f 503e 76e2 fb3d
00000040: 329e 023e 2dc1 d0bb a6c0 94bd 3ad4 33bd
00000050: 4728 863d 7828 9b3d 4391 d0bc 44e8 0bbe
00000060: af6a 18be 5f47 a13e aeb2 d83e bec1 e03e
00000070: 0740 c13e fce2 aa3e f965 503e 83d2 0e3e
00000080: 92ad f03d 5763 853e 48ac 723e 23f7 113e
00000090: 3c72 633d 9d19 4cbd a6d5 983d 7b2c 143e
000000a0: 7f25 1b3e 74c5 e83d 9346 51bd 0802 e5bd
000000b0: b0ba bfbd 2b2c e13d ca87 9a3d f289 26bd
000000c0: 5a3c 05be 7080 32be 4f38 903e 8e27 bb3e
000000d0: 9934 bc3e b065 9c3e 06aa 8d3e c153 ec3d
000000e0: 9d65 963d 93b8 863d 0e8f 533e 06c7 433e
000000f0: dc13 643c 9453 93bc 9b49 73bd 2153 a53d
00000100: b273 0f3e e76e 793c 947a 373d 8df6 3ebd
00000110: 1adc a1bd a2a3 6ebd a07b 84bb 9837 753c
00000120: df82 28bd 6d80 bbbd 9524 f7bd 35b1 91be
00000130: bcca c9be 079c f7be 7326 c5be 6f5d 21be
00000140: 384c eebd 6b7f 95be 5b8e 9bbe 5db8 f3bd
00000150: 03d3 4a3d 5cbc 91bc 5688 28bd 20a0 563c
00000160: 8ad2 253e 26b6 363e 040b 30bd 6087 363c
00000170: 40bb 37bc 18a9 7abc aa37 8cbd 5c5d a7bc
00000180: 3aa6 8dbd 30c4 2cbe d450 66be e7bd 95be
00000190: bdcd 5ebe 5442 9abe 4725 cdbe ae8c 9fbe
000001a0: 1b15 a0bd 182c 05bd 60a6 4abe cf62 68be
000001b0: 602c 52bd 30c2 f93d 7839 7a3d c0ec 323d
000001c0: d6df a93d 6227 6c3e 923d 803e a8de da3c
000001d0: 1b37 a93d 1065 223d 16f5 673d d061 513c
000001e0: 587c e63c 4c4a d3bc d43d 10be 14c2 1cbe
000001f0: 0aba 44be 886e 40be ebe4 76be c635 9bbe
00000200: 82d2 4bbe fcc1 2a3d 50d2 b2bc 7a33 12be
00000210: 0e1e 00be f2cc 7a3d dbfc 763e aa32 833d
00000220: 2a2e c53d b278 403e a69c b13e 6378 c43e
00000230: 76f2 853d 3285 303e 86cd 2e3e b6c5 3c3e
00000240: 73fb 1b3e 0179 d93d 2b80 c43d b0d8 833c
00000250: a848 51bc 3e2b 77bd 5d5f 4ebf 8d00 49bf
00000260: 640f 58bf a12d 18bf 922a f0be 0f36 19bf
00000270: 6c93 13bf bdf1 1ebf 5a41 ecbe 3130 e2be
00000280: fdf7 e5be 443d d7be f036 02bf ca9b bcbe
00000290: a98a c8be 50e2 dfbe 1bd1 c0be 297c bdbe
000002a0: c63a 10be ea9b 3abe 9453 f2be a59e ddbe
000002b0: a7f1 bcbe a17f 8abd 904b 01bd 72e5 0ebf
000002c0: 7e1f 08bf 98aa 18bf 4722 fcbe 48db c6be
000002d0: ee81 c5be f5dd b5be 048c d1be ad60 c6be
000002e0: 4308 b9be 3ee5 7fbe 18ac 57be a8c9 a1be
000002f0: 2fb1 9fbe 27fc a0be b67e 7cbe 2506 2ebe
00000300: 9a75 33be 424c b9bd e070 edbd 0bdb 90be
00000310: 56cc 62be dca0 27be 00f8 99b9 9d87 1c3d
00000320: 36da d7be 193a f2be b6cb 14bf 746e ffbe
00000330: b821 b4be eed5 82be e0da 99be 8ad9 c7be
00000340: 1ef3 cbbe 2bd8 babe b26a 28be d59f 2dbe
00000350: bc71 92be 8064 a2be cd41 a9be 0c0f 2ebe
00000360: 021d e0bd a7d8 e7bd 9c8d 84bd bf6a fdbd
00000370: 10d6 43be 4f6e 05be 27ca 92bd 8c4b 813d
00000380: 74ec 903d 0877 7cbe cea8 b2be a00f c5be
00000390: 3ff9 b0be 62bf 72be 2c4d 13be 6d97 a7be
000003a0: fded a9be 8ced 80be d448 60be 3bbd 01be
000003b0: 9803 8abe 5a97 59be d572 25be b43e 30be
000003c0: d0ac 16be dc31 37be d482 0cbe 8f38 f2bd
000003d0: 4df7 28be a2ad f1bd c4f4 1dbe 1ce8 22be
000003e0: fcdc 24be 6c6f 54be 953e 16be dc65 37be
000003f0: 3ac5 5ebe 2f77 4fbe 7ce5 d4bd 7af9 cbbd
0.40194467 0.5552918 0.5744028 0.45498288 0.3996002 0.2511832 0.23635268 0.22544016
0.33366907 0.2931857 0.16045488 0.110729635 0.02504041 0.1414139 0.2033669 0.12299053
0.12755659 -0.0063706846 -0.07263307 -0.043903567 0.06550651 0.07576078 -0.025459891 -0.13662821
-0.14884447 0.31499764 0.42323822 0.43897814 0.3774416 0.333763 0.203514 0.13947491
0.11751856 0.26052353 0.23698533 0.14254431 0.055528864 -0.049829114 0.07462625 0.14470093
0.15151022 0.11365786 -0.051092695 -0.11182028 -0.0936178 0.109947525 0.07545431 -0.0406589
-0.13011304 -0.17431808 0.2816796 0.36553615 0.3675888 0.3054633 0.2766878 0.11539412
0.073436 0.065781735 0.2066004 0.1911889 0.0139207505 -0.01798419 -0.059396368 0.08072496
0.14008978 0.015224195 0.044794634 -0.046621848 -0.07903309 -0.05826152 -0.0040430576 0.014966868
-0.041140433 -0.09155355 -0.12067524 -0.2845551 -0.39412487 -0.48361227 -0.38505897 -0.15758298
-0.11635631 -0.29198775 -0.30382046 -0.11900399 0.049517643 -0.017790012 -0.041145645 0.0130997
0.16193596 0.17842922 -0.042979255 0.011140674 -0.0112140775 -0.015299104 -0.068465546 -0.02043026
-0.06916471 -0.16871715 -0.22491771 -0.29246446 -0.2175817 -0.3012873 -0.40067503 -0.31162018
-0.078165255 -0.032512754 -0.1979003 -0.22693942 -0.05131185 0.121952415 0.061089963 0.043682814
0.082946464 0.23061898 0.25046974 0.026717499 0.08262464 0.039647162 0.056630217 0.012779668
0.028135464 -0.025792263 -0.14086086 -0.1530841 -0.19211593 -0.18792164 -0.24110763 -0.30314463
-0.19904521 0.041688904 -0.0218288 -0.14277449 -0.12511465 0.061230607 0.24119894 0.06406148
0.09627946 0.18796042 0.34689826 0.38373098 0.065403864 0.1723831 0.17070588 0.18434796
0.15232639 0.10618783 0.095947586 0.016094536 -0.01277367 -0.060343973 -0.8061426 -0.78516465
-0.84398484 -0.59444624 -0.4690748 -0.5984811 -0.5764682 -0.62087613 -0.4614361 -0.44177392
-0.44915763 -0.4203893 -0.5086508 -0.36837608 -0.3916829 -0.4372735 -0.37659535 -0.3700879
-0.1408492 -0.18223539 -0.4732939 -0.432851 -0.36903116 -0.067626245 -0.031566203 -0.55818856
-0.53173053 -0.59635305 -0.49244902 -0.38839173 -0.3857569 -0.35520902 -0.40927136 -0.38745633
-0.36139116 -0.24989793 -0.21061742 -0.31599164 -0.31189868 -0.31442377 -0.24657711 -0.16994531
-0.1752533 -0.09047748 -0.11593795 -0.28292117 -0.2214826 -0.16369957 -0.00029367208 0.03821527
-0.4215867 -0.4730995 -0.5812334 -0.49888957 -0.35181975 -0.2555384 -0.300498 -0.39033157
-0.3983392 -0.36493048 -0.16446951 -0.16955502 -0.28602397 -0.317173 -0.33058015 -0.16997927
-0.10943033 -0.1132062 -0.06472322 -0.12373876 -0.19124627 -0.1303036 -0.07167464 0.063132375
0.0707635 -0.24654782 -0.34894413 -0.38488483 -0.3456516 -0.23705819 -0.14384907 -0.32732716
-0.33189383 -0.25181234 -0.21902782 -0.12669842 -0.26955867 -0.21249142 -0.16157086 -0.1721142
-0.1471436 -0.17890114 -0.13721782 -0.11827194 -0.16500588 -0.11800696 -0.15425402 -0.15908855
-0.16099924 -0.20745629 -0.1467231 -0.1790995 -0.21754923 -0.20260309 -0.10395333 -0.09959693

momentum_buffer f4 [6]
00000000: 0c9e 9abc 7e35 b0bf 32dd 3e3f 64cc b23d
00000010: c47f 49be c447 efbf
-0.01887419 -1.3766325 0.7455627 0.08730391 -0.19677645 -1.8693776

momentum_buffer f4 [16, 6, 5, 5]
00000000: 8809 07bf a842 01bf e49c 84be 78f1 6fbe
00000010: 9f26 7abe a31f bcbe 2ad1 eabe 1060 87be
00000020: 724a 3fbe a1fa 43be 4504 89be af3d 21be
00000030: ba9b edbd 4418 bfbc 6ad0 b5bd 8405 60be
00000040: de5a c2bd 9e2d 87bd 6fe3 dc3d 8622 713d
00000050: c6d8 8cbe f0dd e5bd 2e7d a5bd 37ca e5bd
00000060: bc5e c43d 774a 07be a2c6 503c acf8 6f3c
00000070: cbf9 2cbd 34d3 423c 418f 53bd 1abb 04be
00000080: 8c81 b3bd d163 d5bc 3357 bb3d 85f9 9abd
00000090: 6266 6bbd 5e73 053d b9d8 823d 86ec b2bd
000000a0: 240f 1abd 08d5 a03d 005f cc3d c521 553d
000000b0: 76da da3d 3a8f 99bc 54b7 d8bd 7a16 e9bd
000000c0: f520 3fbe eae6 0cbd 53e8 1f3e eae3 4ebd
000000d0: 56f7 52be 3e21 2dbe d589 afbd 4a0d 433e
000000e0: 48b7 62bb 33a8 d6bd 862e bcbd b013 d6bc
000000f0: 503e 4c3e ef22 e13c f4c4 93bd c094 01bd
00000100: 107b d33a e226 513e f59f 973d ae02 c5bc
00000110: f47d 06bd 30eb 24ba 02ec 723e 20aa 063e
00000120: 2102 5a3d d22e 793d 74af 453d c69b afbd
00000130: 940b a9bd 6923 b8bd 4c22 2b3c 9c7e f53c
00000140: 91f2 bc3d 5115 89bd 444e f1bd dcd4 39bd
00000150: 782c 39bc a7f4 bf3c 949b a13d 6625 883d
00000160: 5ada 083e 9fd3 fa3d 7772 c03d cdaf b93d
00000170: cc8a 723d 78fb 163e ecc8 523e 46bb 25bd
00000180: 1cbf d1bd 2168 6abe 225c 7cbe 1d11 8fbd
00000190: 3702 10be 153e 98be 0c05 1abf 67e2 14be
000001a0: 5522 15be 308b d0bc a36a 5dbe fa9f 0abf
000001b0: d605 5bbd b057 53bb cebd b53d e814 66be
000001c0: 7bc9 e3be 4af8 dc3d a8f4 4a3e ab91 c33d
000001d0: 08ed 77be d4b7 5ebe 52bf 023e db26 2b3e
000001e0: 0236 8e3d 742d bdbd 11d1 8fbd 52d8 11be
000001f0: 4243 d53d ac8b 113e cab9 24be f04a 11be
00000200: 36e5 353d eba5 80bd f89e e83d 695b 0ebe
00000210: 69a5 06be a690 6f3e 5672 aa3d 5506 173e
00000220: 7886 84bd c04c 2ebc be29 953e 0096 d6bd
00000230: 7984 be3c a494 94bd d74e 50be 657e fa3d
00000240: f9c7 66bd 2d70 013e c8ef 0abe 8866 19be
00000250: 4ceb a6bc 219f 35bd cf28 22be e449 b4bd
00000260: 3ec1 d0bd 237e 0a3d 8e07 513c 1f6f 0cbe
00000270: 6235 edbd 0b53 1bbe f405 26be 15e6 d0bd
00000280: ee46 01be f89b 6f3b 9626 d8bd 5fc4 fcbd
00000290: e367 babc 7c97 85bd d9a0 a63d 00d7 463e
000002a0: 654d 923d 7264 e53d 843b 96bc 82f8 d03d
000002b0: 46c0 623e f6ae 103e 0ada 363e 8541 eabc
000002c0: 3bd9 403d 8f19 a23d 372c 6e3d a2d0 783d
000002d0: 8825 1bbe 9057 29be 8675 54be 2157 87be
000002e0: c4b1 8ebe c9b9 8fbe aa65 c8be 9ec4 a4be
000002f0: cca7 64be e819 aebe e023 06be 734c c9bd
00000300: 6cd6 56bd d2bf 2abe 923c 4abe 8aab 223e
00000310: 4ac4 ea3d aecf e93d 8e97 843e dc03 013e
00000320: 98da 8d3d 6e8e 483d e58a 133d 2565 1e3d
00000330: 1714 883d 3b1a 5a3c 2351 5e3c 6c0f be3c
00000340: 5f28 293c 7344 b83c 5c99 31bd f24f 85bd
00000350: b13b 22bd 88b6 8ebc deea 19bc e87b 84bd
00000360: ac94 87bd 3e7e 91bd f4f5 60bd afa6 c5bc
00000370: 91be c3bd de2b 9fbd 995e e1bd a0c9 9dbd
00000380: 7ee3 7dbd 0e29 ae3d 217e 973d 8135 433d
00000390: d814 d73c 6c2e 9e3d cace 5dbd 8448 f1bc
000003a0: 5a6c cabd b738 71be b5f0 88be 1ae0 59be
000003b0: 04de a0bd 76d2 c4bd 966d 32be a05f 23be
000003c0: 282e abbd 7917 46bd 9a3b c23d 56b5 b03d
000003d0: a424 db3c bbaa 153d d8f8 dbbb 251b fa3d
000003e0: c6ac 4e3e 5117 423e 6022 593b 02d5 a4bd
000003f0: 7697 65be 6222 c6be f4ef c7bd 5e42 b0bc
-0.5274892 -0.50492334 -0.25900948 -0.23431957 -0.24428795 -0.36742887 -0.45862705 -0.26440477
-0.18680742 -0.19138576 -0.2676107 -0.15746187 -0.11601968 -0.023327 -0.088776425 -0.21877104
-0.09489988 -0.06600498 0.10785567 0.058870815 -0.27509135 -0.11223972 -0.08080517 -0.1122021
0.09588382 -0.13212 0.01274267 0.01464669 -0.04223041 0.011891175 -0.05165029 -0.12961999
-0.087649435 -0.026048573 0.09147491 -0.07567123 -0.057470687 0.032580726 0.06388993 -0.087365195
-0.037612095 0.078531325 0.09979057 0.05203416 0.10686199 -0.018745054 -0.10581842 -0.1138124
-0.18664916 -0.034399904 0.15615968 -0.050510325 -0.20602164 -0.16907212 -0.08571211 0.19048038
-0.0034594107 -0.104813 -0.09188561 -0.026132435 0.19945645 0.027482478 -0.072153 -0.031636
0.0016134698 0.20424989 0.07403556 -0.02404913 -0.032834962 -0.0006291149 0.23722842 0.13150835
0.053224687 0.060835667 0.04826303 -0.08574633 -0.082541615 -0.08991129 0.010445189 0.029967599
0.09225953 -0.06693519 -0.11782506 -0.045369014 -0.011302106 0.023432089 0.07891002 0.06647758
0.13364545 0.12247395 0.093968324 0.090667345 0.0592144 0.14744365 0.20584458 -0.0404618
-0.10241529 -0.22891285 -0.24644521 -0.06985686 -0.14063345 -0.29734865 -0.6016395 -0.1453949
-0.14563878 -0.025456995 -0.2162271 -0.54150355 -0.053472362 -0.003224831 0.08874093 -0.22468913
-0.44489655 0.10789545 0.19819891 0.09549268 -0.24211514 -0.21749812 0.12768295 0.16714041
0.06943895 -0.09237185 -0.07022298 -0.14242676 0.10413219 0.14213437 -0.16086498 -0.14188743
0.044408046 -0.06281646 0.11358446 -0.13902058 -0.13149036 0.23395023 0.08322589 0.14748509
-0.064709604 -0.010638416 0.2913341 -0.10477829 0.023256527 -0.072549134 -0.20342575 0.12231139
-0.056343053 0.12640448 -0.13568032 -0.14980519 -0.02037587 -0.04434121 -0.1583588 -0.08803156
-0.10193108 0.0338117 0.012758149 -0.13714264 -0.115824476 -0.15168397 -0.16213208 -0.10200135
-0.12624714 0.003656147 -0.10554235 -0.12342142 -0.022754615 -0.06523034 0.08136148 0.19417953
0.07143668 0.11200799 -0.018338926 0.10203649 0.22143659 0.14129242 0.17856613 -0.028595695
0.047082167 0.07915031 0.058147635 0.060745843 -0.15151036 -0.16537309 -0.20747957 -0.26433662
-0.2787 -0.2807143 -0.39140064 -0.32181257 -0.22329634 -0.3400414 -0.13099623 -0.09829035
-0.052450582 -0.16674736 -0.19749668 0.1588575 0.114632204 0.11416565 0.25896877 0.12599128
0.06926459 0.048963957 0.036021132 0.038670678 0.06644457 0.013311918 0.013569149 0.023200713
0.010324567 0.022493577 -0.043359146 -0.06509389 -0.039607707 -0.017421022 -0.009394376 -0.06468946
-0.06620154 -0.07104157 -0.05492206 -0.024127332 -0.09557832 -0.07772039 -0.11004371 -0.077044725
-0.06198453 0.08503924 0.07397104 0.047658447 0.026255056 0.07723698 -0.054152288 -0.029453523
-0.09883948 -0.23556791 -0.26746145 -0.21276894 -0.07854846 -0.09610455 -0.17424616 -0.15954447
-0.08358413 -0.04836223 0.09484024 0.08628337 0.02675087 0.036539774 -0.006713014 0.12212209
0.20183095 0.18954207 0.0033132061 -0.080484405 -0.22421059 -0.38698107 -0.09762564 -0.021516021

momentum_buffer f4 [16]
00000000: 4044 42bb 4acc 66bd d203 853e b811 dfbc
00000010: 62be d5bd b4d1 9e3c 7c6a 8cbe 486b 5a3d
00000020: 20f9 49bb 2cd8 f03d 5e1d 623e a48d e6bd
00000030: c983 293c d5b1 8cbd a6b5 28be d24b 703e
-0.002964273 -0.05634717 0.25979477 -0.027230129 -0.10436703 0.019387104 -0.2742499 0.053324968
-0.0030818656 0.117599815 0.22081515 -0.112574846 0.010346361 -0.06869856 -0.16475543 0.23466423
